checkpoint_actor.pth (torch_old, 307928 bytes, 10 tensors)

fc1.weight f4 [256, 33]
000000 78 0f 89 3d d7 55 72 3d 88 c4 5e bd 0b a4 d1 3d
       0.066924036 0.059163895 -0.054386646 0.10236367
000010 eb 5d f8 3d 9c af 40 be a1 0a c6 3e e5 62 c6 bd
       0.121272884 -0.1881699 0.38679984 -0.096868314
000020 71 bb b1 3d b6 7d 32 3d de 99 96 3d 61 e9 d1 3b
       0.0867833 0.04357692 0.073535666 0.0064059948
000030 62 26 b7 3c 87 6f 63 3d df 20 16 ba f1 da 56 3d
       0.02235717 0.055526283 -0.0005726944 0.052454893
000040 0b e7 df 3c c6 0c cf 3d a0 74 f9 3d 02 4b ba 3d
       0.02733185 0.10109858 0.121804476 0.09096338
000050 e3 80 03 3b 1c 09 83 bd 68 97 5c 3d 6e c5 95 bb
       0.0020065836 -0.06398222 0.05385533 -0.0045706546
000060 a0 9e f8 3c 1f 89 51 bd d6 82 08 bd 30 99 39 3e
       0.030349076 -0.05115616 -0.0333279 0.18124843
000070 c5 0d b1 3d 5e 6f 60 bd e3 f7 5d be e0 7e fa 3b
       0.086452045 -0.054793708 -0.21676593 0.007644519
000080 f9 3b 8c 3e 95 dc bc bd 31 39 70 3d 93 26 c4 bd
       0.27389506 -0.0922176 0.058648292 -0.0957767
000090 55 ef f2 3d ca be 01 3e eb a1 a7 3d 50 6e 7a 3d
       0.11862055 0.12670437 0.0818518 0.06114036
0000a0 cc 67 a2 bc 81 da a6 bd 3a 90 4b bd 61 b2 10 3d
       -0.019824885 -0.08147145 -0.049698092 0.035326365
0000b0 11 ca 52 3d 1b 34 08 bc 2c 2e d8 3d c2 32 6d 3d
       0.051462237 -0.008313204 0.105556816 0.057909735
0000c0 75 58 8c 3c b8 ce 08 3e 48 44 a6 bd 4c 5c b1 3d
       0.017132023 0.13360107 -0.08118492 0.08660182
0000d0 c6 27 33 3d 53 58 85 bd 3d a3 b3 3b 03 d2 00 3d
       0.043739103 -0.06510987 0.005482106 0.031450283
0000e0 b9 d3 ab 3d 20 78 ed 3c 03 ff cc bc 29 d4 89 bc
       0.08389992 0.028987944 -0.025023943 -0.016824799
0000f0 ac b6 26 bc 07 6b 7b 3e e8 d9 7b 3d a5 1d ac 3d
       -0.010175388 0.24552546 0.06148711 0.08404092
000100 32 b0 19 bd 7b 5f 8c bc 7a 4e 0b be fb 89 99 3c
       -0.03752155 -0.017135372 -0.13604155 0.018742552
000110 ba 01 be 3c 63 a0 c3 3d df 99 6f 3e 4b 08 0c bd
       0.023194183 0.09552076 0.23398541 -0.034187596
000120 f0 07 2a 3e f0 1b 58 bd 86 f6 e9 bc 1f 49 54 3d
       0.1660459 -0.05276102 -0.028559934 0.051827546
000130 e4 d3 69 3d b8 b4 86 3c a5 df 13 be 4f 6f a2 3d
       0.05708684 0.016443595 -0.14440782 0.07931387
000140 f7 4a d0 3d f1 68 a2 3c 38 66 d1 3c 1c 6f 27 3e
       0.101705484 0.01982543 0.025561437 0.16350979
000150 a5 73 0c be 92 3e 88 bd 05 30 9c bd 43 6a f9 bc
       -0.1371599 -0.06652559 -0.076263465 -0.030446177
000160 ca a0 23 be 74 32 89 3b 79 30 60 bb 03 2f 1d bd
       -0.15979305 0.0041869227 -0.003420858 -0.038374912
000170 fe 79 92 3d 50 be e6 3d 3b 8e c4 bd 58 46 1e bd
       0.071521744 0.11266768 -0.09597441 -0.038641304
000180 a3 20 99 bd 58 01 5c bd 14 f4 9d bd 60 8b ac 3c
       -0.07476928 -0.05371222 -0.0771257 0.021062553
000190 f1 66 37 bd 83 db 4f 3e 15 0c 51 3e 15 20 1b 3e
       -0.044775907 0.20298581 0.20414765 0.15148957
0001a0 c9 a8 c4 bc 82 ae 4f 3d e0 11 08 bd 74 a5 b4 bd
       -0.024006264 0.050703533 -0.033220172 -0.0882062
0001b0 89 85 84 be 0c df b5 bc 46 cc 23 bd 45 1c 0a 3c
       -0.2588313 -0.022201084 -0.039989732 0.008429592
0001c0 21 3c 75 bd 2f b2 e8 3c 57 c9 bf 3c ee ac a8 bd
       -0.059871797 0.028405277 0.023411436 -0.08236109
0001d0 a5 58 5d bd fe 87 12 bd 36 38 ff 39 fc 1e 8e bd
       -0.054039616 -0.035774224 0.0004867927 -0.069395036
0001e0 a7 82 a5 3d c5 8f e7 bc 54 7a 6f 3d 54 1c 93 bc
       0.080815606 -0.028266797 0.05846627 -0.017957844
0001f0 da 16 f2 bc 6d 7b 8c 3d 13 b5 86 3e 00 b0 25 3d
       -0.029551912 0.06859479 0.26310024 0.04045105
000200 f2 33 57 3d dc 25 42 be 18 1d 58 3d 25 48 06 3e
       0.052539773 -0.18959755 0.05276212 0.13113458
000210 22 03 c7 3d 9f 4f 13 bd 9b 4c 15 bd 55 1d 92 bd
       0.097173944 -0.035964604 -0.03645001 -0.07134501
000220 f8 01 ec bd f6 82 8d 3e 3d 5c ea bd 81 65 1a 3d
       -0.11523813 0.27638978 -0.11443374 0.037694458
000230 13 95 62 3e 9e 52 fa bc 94 02 93 3d 86 1d 3a 3d
       0.2212718 -0.030556973 0.07178226 0.045438312
000240 52 17 76 bd 68 c7 49 3d 2a d3 5c 3d 99 87 90 bd
       -0.060080834 0.049262434 0.05391232 -0.07057113
000250 2e 74 4d 3c bd 1d 0a 3d d1 55 02 be 98 75 f3 3c
       0.012539906 0.033719767 -0.12728049 0.029719159
000260 c7 dd 4c be 01 25 f5 3d eb e2 a2 3d 42 b6 63 3c
       -0.20006476 0.119699486 0.079534374 0.013898434
000270 af b0 6a 3d 85 dc 42 3d d8 84 91 bd 4c 12 a8 3d
       0.057297405 0.047573585 -0.07105416 0.08206615
000280 85 ce c7 bc 60 04 8a bc dc 57 cd 39 88 50 78 bd
       -0.024390468 -0.01684779 0.00039166107 -0.060623676
000290 63 87 2d 3e 83 85 13 3a c2 42 f1 bd 2a fd c3 3b
       0.16946177 0.00056275 -0.11780311 0.0059811072
0002a0 e7 6a 03 3e 00 cc 5d bd 58 50 84 bc 84 df 3f be
       0.12833749 -0.054149628 -0.016151592 -0.18737608
0002b0 61 93 ce 3c c7 da 78 3c 72 5a c6 bd 9a 83 ca 3d
       0.02521676 0.015188879 -0.0968522 0.09888382
0002c0 85 2f b1 bc a9 dd c7 bd eb 24 c0 bd ab ed 03 3d
       -0.021629104 -0.09759075 -0.093820415 0.03220908
0002d0 73 5c 1b bd 0c 75 04 3e 2f ce 49 3e 74 ac 95 3e
       -0.037929963 0.12935275 0.19707559 0.29233134
0002e0 00 40 1b bd 18 44 80 bd dd 65 fc bd 3f 51 db bc
       -0.037902832 -0.06262988 -0.123241164 -0.02677214
0002f0 fa 51 11 3d 89 c6 7d bc 4b b9 ac bd 0e 1f 85 3d
       0.03547857 -0.015489229 -0.08433779 0.06500064
000300 0d 34 49 3d 64 59 b2 3d 96 ed 2a 3d a4 30 f1 bc
       0.049121905 0.08708456 0.041730486 -0.029442139
000310 98 dc 15 3d 6c f3 21 3d c0 9b a3 39 98 2d c4 bb
       0.036587328 0.039538786 0.00031205826 -0.0059868805
000320 c4 4f 3a be 51 99 08 be 66 28 2f bc aa ca 21 be
       -0.1819449 -0.13339736 -0.010690784 -0.15799966
000330 a4 ad ab 3d d5 1d 31 bb 5d c8 aa 3c 45 5f 42 bd
       0.08382729 -0.0027025838 0.020847494 -0.047454137
000340 f4 c7 09 bc 1c d5 d3 3c 86 5b ac 3c b0 6a ed 3d
       -0.008409489 0.025858454 0.021039736 0.11592615
000350 32 8d 27 ba 53 32 ad 3c 56 05 75 bd 9d 67 bc 3e
       -0.0006391584 0.02114216 -0.059819542 0.367978
000360 18 9b bf be fc 1c d6 3d df 6d 35 bc c7 11 56 3c
       -0.37423015 0.10454747 -0.011073559 0.013065762
000370 7a f0 ef 3b ba 16 2c 3c ed ce 86 3c 15 32 a9 bd
       0.007322368 0.010503465 0.016456092 -0.082615055
000380 51 14 34 bd bc f1 1b 3e 1c 9f 0b bd b0 b8 02 3d
       -0.043964688 0.15228933 -0.034087285 0.031914413
000390 b1 6a 1a be 60 88 a0 bc 30 c9 5b bd c0 4e 08 bd
       -0.15079762 -0.019596279 -0.053658664 -0.033278227
0003a0 ad d2 62 3d 84 b7 fa 3d 4d d2 8e be 45 4b 95 be
       0.055376697 0.12242034 -0.27894822 -0.2915899
0003b0 bd 1a 17 3e d8 d5 9c bd d4 dc 19 3d 02 c4 55 3d
       0.14756294 -0.07657975 0.037564114 0.05218888
0003c0 e6 4a b4 bd 61 1c 0f bd 73 bd 6c 3c a9 79 48 3d
       -0.08803348 -0.034939174 0.014449465 0.04894415
0003d0 1a d6 9a 3d 47 5f 40 bc ed a5 ae bd e3 c4 a1 3e
       0.07560368 -0.011741466 -0.085277416 0.31595525
0003e0 72 66 97 3c 6f 96 14 3c 7e 82 8e 3d c1 3c 5a 3d
       0.018481467 0.009069069 0.06958483 0.053280596
0003f0 6d 0f 8c bd a2 b3 73 3c 10 c5 21 bd b6 bd 25 3c
       -0.0683888 0.014874371 -0.039494574 0.010116031

fc1.bias f4 [256]
000000 c1 49 89 be 64 a5 50 bd 5b 30 91 3d 14 fd 82 be
       -0.26814082 -0.05093898 0.07089301 -0.25583708
000010 5f f0 0c 3d 73 67 31 3b 9b d2 89 be f0 cf b2 bd
       0.034408923 0.0027069717 -0.26918492 -0.08731067
000020 f9 53 97 bd 06 dd 41 3d be 62 95 be 6a 68 00 3e
       -0.073890634 0.047329925 -0.29176897 0.12539831
000030 59 91 30 be f9 60 3f 3d 56 7e 11 bd ff ad 0d 3e
       -0.17242946 0.04672334 -0.035520874 0.13835905
000040 b9 c0 e7 3c 58 19 15 3d 3e f0 14 be 12 d4 03 be
       0.02829014 0.036401123 -0.1454477 -0.12873867
000050 86 e5 e7 3d e4 a1 9c be d8 a5 50 be ad 9e 81 bd
       0.11323075 -0.30592263 -0.20375764 -0.06329093
000060 2c 97 38 be 81 61 95 bd af 12 20 3c 86 f8 74 be
       -0.18026417 -0.07293988 0.0097700795 -0.23922929
000070 1f bd 87 bc bf 06 66 be d0 4b 62 be eb 6f 0f bc
       -0.016569672 -0.22463511 -0.22099233 -0.008754711
000080 84 e9 1d bd b1 83 90 be ff 08 f1 bd ec a2 15 be
       -0.038552776 -0.28225473 -0.11769294 -0.14612931
000090 bd 73 74 be 33 ac 86 be 54 be 1d 3d b5 0f 8d bb
       -0.23872276 -0.26303253 0.03851159 -0.004304851
0000a0 59 08 12 be ae 6a 14 be 4e c4 01 be b6 f0 35 bd
       -0.14260997 -0.1449382 -0.1267254 -0.044419013
0000b0 56 67 73 bd 62 90 64 be 3e 1a ee 3b e9 1a 8d bd
       -0.05942472 -0.22320703 0.007266312 -0.06889898
0000c0 e0 64 16 bd 7d 21 e4 3d e3 07 7f be 3a 47 33 3d
       -0.036717296 0.111392 -0.24905352 0.0437691
0000d0 d6 e6 af bd ce 7d 63 be 5a 9b 51 be 03 32 22 bd
       -0.0858895 -0.2221596 -0.20469418 -0.039598476
0000e0 7b 4f f6 bc 39 6c 73 bd 5a 69 98 be 1e a6 11 be
       -0.030067196 -0.05942938 -0.29767877 -0.14223525
0000f0 6c 33 0f be 49 4a 0c be c0 0e 2f be eb 33 c6 bd
       -0.1398446 -0.13700213 -0.1709547 -0.09677871
000100 be dc 85 be aa 24 77 be 09 42 be 3c 07 18 d2 bd
       -0.26144975 -0.2413508 0.023224847 -0.10258489
000110 09 8b f8 bd 81 d3 87 be ce 09 13 3d 89 1b 9c be
       -0.12135894 -0.26528552 0.035898022 -0.30489758
000120 65 9f 86 be a6 66 50 be 12 0e c3 bd 7e 9b 45 3d
       -0.26293483 -0.20351657 -0.09524168 0.048243992
000130 f9 75 10 be 2e ac e0 bd 41 b6 c0 be 7e 16 e7 bc
       -0.14107503 -0.10970341 -0.3763905 -0.028208967
000140 9c 92 be bd f1 33 04 be 58 b4 16 be 40 e4 2c be
       -0.09305307 -0.12910439 -0.14717233 -0.16883945
000150 c2 df 12 3e fd ba 55 bb 03 5f ac be 10 73 93 be
       0.1434317 -0.0032612674 -0.33666238 -0.28798723
000160 b0 3f 6b be 6a 3b 21 3c d3 e0 0d be 7c 4e c9 3c
       -0.22973514 0.009840826 -0.13855295 0.024573557
000170 91 b4 a6 bd 8b 5e 23 bd 69 c4 15 3d fe 7d 26 be
       -0.08139909 -0.039885085 0.036564264 -0.16259
000180 65 4e 9a bd 2f e7 36 be 57 01 45 be 3d d8 3d bd
       -0.07534484 -0.17861627 -0.19238792 -0.0463488
000190 9b 02 f5 bd 62 ca 69 bd 43 35 22 3d 79 33 19 bc
       -0.119633876 -0.057077773 0.039601576 -0.009350651
0001a0 71 53 5b bd a3 a8 31 be 03 77 8d be 79 ec be bd
       -0.053546373 -0.17349486 -0.2762986 -0.09322447
0001b0 97 5b c7 bd b2 ac 99 bc 3e d1 0a bd 83 3a b4 bd
       -0.09734266 -0.018759105 -0.033890955 -0.08800223
0001c0 ed cd b1 be 9d ff 85 be d8 41 67 3d 52 33 61 be
       -0.3472742 -0.2617158 0.056459278 -0.21992233
0001d0 ef 7e 7a be c6 30 8f bd fc 90 38 3d 78 af 13 be
       -0.24462484 -0.06991725 0.045060143 -0.14422405
0001e0 d2 6d e1 bd af 2b e9 3d ba ab 97 bd d1 89 19 3d
       -0.11007275 0.11385285 -0.07405801 0.037484948
0001f0 e0 ca 0a bd 8f c4 d1 bd a8 bf 5d be 35 82 8b be
       -0.033884883 -0.10242569 -0.21655142 -0.27247778
000200 28 36 04 be bd 83 a4 be 86 d7 87 be 63 10 a2 be
       -0.12911284 -0.32131758 -0.2653162 -0.31653127
000210 89 77 c0 bb d3 b5 0c be 37 93 cb bd ad 7f 3d bd
       -0.0058736247 -0.13741235 -0.099401884 -0.04626434
000220 f0 cd a0 bd ae 24 2e be f2 c2 13 be 1c e2 3e bd
       -0.078517795 -0.1700618 -0.14429834 -0.046602353
000230 17 84 11 be c8 bd 43 be ec e2 9c bd e5 ef 28 be
       -0.14210545 -0.19115365 -0.076604694 -0.16497763
000240 db 89 ad be aa d4 54 bd e7 dc fa bd 0c 0f ca bd
       -0.33894238 -0.051960625 -0.12249165 -0.09866151
000250 14 ac 04 be cf d0 2a be c7 7e 0a bd 9b 81 c3 bc
       -0.12956268 -0.16681217 -0.03381231 -0.023865512
000260 ac be f4 bd 75 3a bf bd ea 44 24 bd 7f 72 7b bd
       -0.1195043 -0.09337322 -0.040104784 -0.06138849
000270 ba 2c 71 be e4 f6 44 be 61 b6 13 be 62 be a1 be
       -0.23552218 -0.19234806 -0.14425041 -0.31590563
000280 1c e4 29 bd 04 c7 8d be ce a5 0c 3d 5f 5b be 3c
       -0.041477308 -0.276909 0.03433781 0.023236929
000290 07 7c 78 3b 9a 75 8a be 68 4f 90 be e5 cc a0 be
       0.0037915723 -0.27042848 -0.28185582 -0.31406322
0002a0 f2 ad d0 bd 1d e3 04 be 37 df 9f bd 1f 20 07 3d
       -0.101894274 -0.12977262 -0.07806247 0.032989617
0002b0 46 5f 31 be 77 2b 06 be 91 ae 18 bd ad 08 e2 bc
       -0.173215 -0.13102518 -0.037275854 -0.027592028
0002c0 9b 4d 29 be 36 ca ac be 43 4f 4e be da f3 29 be
       -0.1653351 -0.33748025 -0.20147423 -0.16596928
0002d0 76 6d b9 bd 5f fa 60 bd 14 83 86 bd 57 ed a6 be
       -0.09054081 -0.054926272 -0.0656797 -0.3260295
0002e0 38 99 4d be 9a da ba bd 1d 94 10 3e c8 f1 87 be
       -0.2007798 -0.09123726 0.14119 -0.26551652
0002f0 d3 16 54 be 64 9a e6 3c c1 96 60 be ab 98 97 bd
       -0.20711832 0.028149791 -0.21932508 -0.07402166
000300 75 af 95 3c ae 99 08 be 4b 80 51 be 6a 3e 8c be
       0.018272141 -0.13339874 -0.20459096 -0.27391368
000310 cc e6 3c bd 09 b1 08 be 39 dd 7e be 4c ac 41 3c
       -0.046118543 -0.13348784 -0.24889077 0.011820864
000320 77 4a b8 3d ab 53 b5 bd 9f f9 95 3b 98 7f a3 bd
       0.08998578 -0.08853849 0.0045768763 -0.07983321
000330 4e ff 0d be 66 2e 20 be 83 de 3a be 0b dc 72 be
       -0.13866922 -0.156427 -0.18248944 -0.23716752
000340 82 b0 06 3d a1 04 a1 bd 81 82 09 be d6 6d 3e be
       0.032883175 -0.07862211 -0.1342869 -0.18596587
000350 57 84 e3 bd 4d 00 3f 3c c4 03 50 be c8 a8 f4 bd
       -0.11109226 0.011657787 -0.20313936 -0.11946255
000360 31 9f 4b be 88 27 0d be 96 b2 6f be 6c b1 b1 bc
       -0.19884945 -0.13784611 -0.23407969 -0.021691047
000370 bb 09 7a b9 42 9f 24 be 57 61 53 be 66 94 5a be
       -0.00023845483 -0.16076377 -0.20642601 -0.21345672
000380 b8 43 8a 3c 64 7d 7b be 35 18 16 be d0 af 92 be
       0.016877994 -0.24559551 -0.14657672 -0.2864976
000390 88 f6 74 be dc 1d 49 3d 21 34 94 bd 7d 0c 2c be
       -0.23922169 0.04910074 -0.07236505 -0.16801639
0003a0 d5 e8 2a be ea c9 51 bd 44 3f 13 be ab 3e 1a 3d
       -0.16690381 -0.05121795 -0.14379603 0.03765742
0003b0 54 3d 4b 3c dd 93 c4 bd 9c ac a9 be 58 6f 22 be
       0.0124047585 -0.09598515 -0.33139503 -0.15862787
0003c0 c5 2a 81 be d2 c2 87 be ab 6c 7b be 59 96 7b be
       -0.25227943 -0.26515824 -0.24553172 -0.24569072
0003d0 f0 d0 83 bc 6a 6e 99 be 81 e2 1f bd 24 a4 c1 bc
       -0.01609084 -0.29967052 -0.03903437 -0.023637839
0003e0 1e 1a e4 bd 6e 9a c7 3d d1 da 10 be 24 88 51 be
       -0.11137794 0.09746252 -0.14145972 -0.2046209
0003f0 de 01 1f bc 6d 88 44 be b3 46 9b be 19 22 78 be
       -0.009705035 -0.19192667 -0.30327377 -0.24231757

fc2.weight f4 [256, 256]
000000 66 b3 1e be f3 00 4a 3d 64 fe b0 bd 7c a1 a7 3d
       -0.15498123 0.04931731 -0.08642271 0.081850976
000010 ca 63 55 3d e1 3c 14 3a ce 81 3f 3e 73 2a ec 3a
       0.05209712 0.00056548236 0.1870186 0.0018018022
000020 32 88 14 3e 66 4d 0a be 8d ca 11 be 2c 40 8b 3d
       0.1450508 -0.13506088 -0.14237423 0.06799349
000030 47 f9 4c 3d b8 e0 ba bd 9a c0 ce 3d bd 5d 54 be
       0.050042417 -0.09124893 0.100953296 -0.20738883
000040 d3 6e 47 3d 93 4d 97 3e f6 fb b3 bd df ba 3f be
       0.048689675 0.29551372 -0.08788292 -0.1872363
000050 bd 32 ad 3d c3 04 7f be e1 03 bc 3d 89 5e 92 3d
       0.08456943 -0.2490416 0.09180427 0.071469374
000060 10 3c 49 3d 65 4b c3 bd d4 5f b3 3d c6 61 8f 3d
       0.049129546 -0.09535865 0.08758512 0.07001071
000070 01 53 1c bd aa d3 ec 3d d5 07 a7 3c 13 26 1d be
       -0.038165096 0.11563809 0.020389477 -0.15346555
000080 ea 92 b2 3c bd 03 6f 3d 4d 92 44 3d ed f9 0c be
       0.02179857 0.058353174 0.047991086 -0.13767214
000090 1a ef 93 bd e4 4f 0f 3e 95 bc b1 3d b6 1a c8 bd
       -0.072233394 0.1399532 0.08678547 -0.0977072
0000a0 f1 39 a0 3d b4 0e b4 3d 46 9e 97 bd a4 e8 86 bc
       0.078235514 0.08791867 -0.07403235 -0.016468354
0000b0 45 5c 6a 3d d4 e9 ff 3b 85 57 2c 3e 42 71 05 be
       0.0572169 0.007809857 0.16830261 -0.13031486
0000c0 30 ef 20 be dd 35 b3 bd 72 3f a0 3d a5 7d 8d 3c
       -0.15716243 -0.08750508 0.07824601 0.017271826
0000d0 52 1e 28 3e 0b 64 33 3e fe c3 7a bb 19 ef d6 bd
       0.16417816 0.17518632 -0.0038263793 -0.10494823
0000e0 41 b2 8e be c0 f4 80 bd 8b c6 01 be e3 8d 01 be
       -0.27870372 -0.06296682 -0.12673394 -0.12651782
0000f0 2a e6 35 bd c7 70 dc 3d 13 cd 1e 3d 74 a0 b7 bd
       -0.044408955 0.10763698 0.038769793 -0.08966151
000100 14 96 6c be ba e7 43 3e d0 b0 54 be 37 9d 2f 3e
       -0.23104125 0.19131365 -0.20770574 0.17149816
000110 28 c7 97 be 25 64 0b be c4 4b 03 be 24 ae e8 bd
       -0.29644132 -0.13612421 -0.12821871 -0.1136134
000120 87 b3 74 3d dc 34 12 3d 6d ae 31 3e 8c b6 3e 3d
       0.059741523 0.035694942 0.17351694 0.04656081
000130 61 96 88 bc 4c 35 b5 3d 12 0a 67 bd 7b 18 a9 bc
       -0.016673269 0.08848056 -0.05640609 -0.020641556
000140 fb 24 f9 3d 4a 21 c7 3d de 19 29 bd 34 48 71 bd
       0.121652566 0.09723146 -0.041284434 -0.05890675
000150 84 72 4b 3d d7 9f 35 bd 33 5a 85 bc 43 78 92 bc
       0.049669757 -0.04434189 -0.016278362 -0.01787961
000160 61 1a 59 3e 5f 10 50 3d 3a fe 41 3e c1 79 5a bd
       0.21201469 0.050796863 0.18944636 -0.05333877
000170 cb 8b a6 3d f4 ca 35 bd 05 cd 88 3e 04 76 85 bb
       0.08132132 -0.044383004 0.26718917 -0.0040729064
000180 1d b0 ff bc b4 f8 ae 3c b1 d8 fd bc aa b2 54 bd
       -0.031211907 0.021358825 -0.030987116 -0.0519282
000190 1d c1 94 bd 4d 50 6f be 7c 2e 64 bd c2 6d 54 be
       -0.07263396 -0.23370476 -0.055708393 -0.20744994
0001a0 a0 88 5a 3e aa ea 80 3e 17 a9 e2 bd 06 8c 84 3a
       0.21341181 0.25179034 -0.110674076 0.0010112531
0001b0 bc 35 21 bc 21 01 03 be b5 00 9a 3d f4 1d 3d 3d
       -0.009839471 -0.127934 0.07519666 0.046171144
0001c0 81 92 ef 3d 94 da a8 bc 94 f5 4c 3e b4 6d 73 3d
       0.11697865 -0.020612039 0.20015556 0.059430793
0001d0 f1 53 47 3e cb 38 4d bd 73 4e 1c be ac d2 02 3e
       0.19465615 -0.05010299 -0.15264301 0.12775677
0001e0 2e 77 82 be 4d 34 84 bc f4 56 04 3e 6b eb 88 be
       -0.25481552 -0.01613822 0.12923795 -0.2674211
0001f0 77 b5 8b bd 55 f4 8f bc e6 d6 13 3e 94 3f fd 3d
       -0.06821721 -0.017572561 0.14437446 0.12365642
000200 78 1b 5b be a7 a7 eb 3d e7 d7 a4 3e 0c 0e 71 3d
       -0.21397197 0.115065865 0.3219597 0.058851287
000210 8a 47 0c be e3 72 39 bd 40 a6 6c be f2 ac d6 3d
       -0.13699165 -0.04527558 -0.23110294 0.104822055
000220 e1 ed df 3d 6f fb c0 bd ab c6 0e bd a0 e8 d6 3d
       0.10934044 -0.09422957 -0.034857433 0.104935884
000230 77 b4 d9 bb 11 ee 86 3e 12 3d 13 3d 01 0f ee 3d
       -0.0066438275 0.26353505 0.035946913 0.116239555
000240 d4 a7 ea 3a 64 bf 8b be 0e 51 59 be d2 80 58 3c
       0.00179028 -0.27294457 -0.21222326 0.013214307
000250 6b 51 cf 3d d6 38 3e 3e 75 4d 61 3d c7 d7 f5 bc
       0.10122951 0.18576369 0.05500551 -0.030010117
000260 89 e1 ed bc 73 2d bc bc 4e 17 09 be ae 10 fd bc
       -0.029038208 -0.02297089 -0.13387796 -0.030891743
000270 35 11 84 be 3e b0 45 be c7 d6 12 be 66 c1 5d 3d
       -0.25794378 -0.19305512 -0.14339744 0.054139517
000280 e3 95 29 3e ce b5 7a 3c cf 68 57 bb a1 ba 2b 3e
       0.16561083 0.015302135 -0.0032868867 0.16770412
000290 b8 d6 26 be 9b b8 fb bd 66 ce 0e 3e 00 2d c8 bc
       -0.16292846 -0.1229107 0.13945922 -0.02443552
0002a0 dd 78 c0 bd d3 ae 45 3c 6d 22 a9 bd 7f 7b 19 be
       -0.09398053 0.012065607 -0.08258519 -0.14988516
0002b0 34 8e 9a 3b 2b c2 39 3d ac 55 1f bd c7 b4 33 3d
       0.004716659 0.04535119 -0.038900062 0.043873575
0002c0 24 97 b2 3c 67 b9 2e be dc f7 d0 bd e6 17 8f 3d
       0.021800585 -0.17062913 -0.102035254 0.0698698
0002d0 2d 97 af 3d 3d c0 69 3d 55 a5 97 bc 90 a5 60 3d
       0.08573756 0.0570681 -0.018511454 0.054845393
0002e0 ed ee 2e 3e 3e a9 36 be 02 5e 9a 3d 21 7b 89 be
       0.1708333 -0.17837998 0.07537462 -0.26851752
0002f0 6c 7f b2 bd 2c fd a5 3e 0b d0 94 3e 7e 4f fa bc
       -0.0871571 0.32419717 0.29064974 -0.030555483
000300 eb 3a f3 3d 93 74 4e be 54 b4 0f be 21 b6 fd 3c
       0.11876472 -0.20161657 -0.14033633 0.030970635
000310 da c9 f2 bc ca 9e 0a 3e a3 4b 0d 3e 59 49 1c be
       -0.029637266 0.13537136 0.13798384 -0.15262355
000320 27 7f fa bb b0 22 04 3e fb bd 06 bd f3 3f bd bd
       -0.0076445523 0.12903857 -0.032896023 -0.09240713
000330 40 6e 08 3d fc c1 ab be f1 30 74 bc 41 3a 30 be
       0.033308268 -0.33546436 -0.014904247 -0.17209722
000340 da 8c 78 be 18 47 c4 bd 54 45 c5 3c a8 78 2a 3e
       -0.2427248 -0.095838726 0.02408091 0.16647589
000350 06 d5 1d 3e b9 3f 0b 3e d9 3f 8f bc 2b 3c 24 bb
       0.15413293 0.13598527 -0.0174865 -0.0025060277
000360 fc 18 8e 3e e7 fb 39 3d 4c 4a 59 3e 4a 14 1d 3d
       0.27753437 0.04540625 0.21219748 0.038349427
000370 7a 3b 50 be 62 a7 81 be b3 cb 22 be fc 4c 37 3c
       -0.20335189 -0.25323015 -0.15898018 0.011187788
000380 0a 8f 97 bd 43 76 89 bd 39 39 0d be 51 a3 8c be
       -0.074003294 -0.0671201 -0.1379136 -0.2746835
000390 32 62 db bb 0d 15 53 3e c7 b1 97 bd 08 a6 0d 3e
       -0.0066950554 0.20613499 -0.07406955 0.13832867
0003a0 f2 47 19 be 67 d0 c4 bd e8 5e aa 3c 4f da 93 3c
       -0.14968851 -0.09610062 0.020797208 0.018048434
0003b0 e2 4d 41 be 10 3a e9 3c c4 08 b4 bc df 87 63 be
       -0.18877366 0.02847007 -0.021976836 -0.222198
0003c0 19 a5 9d bd 21 8f b4 3c 08 21 55 3d 00 b5 fa bd
       -0.076975055 0.022040905 0.052033454 -0.12241554
0003d0 c3 30 85 3c ae 5d e3 3c aa 65 41 bd fa 6f d0 3d
       0.016258603 0.02775463 -0.047216095 0.10177608
0003e0 bd fe 27 be 03 90 23 be 56 bf 93 3e d7 0a e0 3d
       -0.16405769 -0.15972905 0.28856915 0.109395675
0003f0 97 b3 05 be f9 e6 8f be 66 40 34 bd 63 85 09 be
       -0.1305679 -0.28105906 -0.044006728 -0.13429789

fc2.bias f4 [256]
000000 55 14 5a bd 12 5b 84 bd 65 fa 02 be 1a ef 06 bd
       -0.053242046 -0.06462683 -0.1279083 -0.03294287
000010 14 52 83 bc b8 98 32 3d 27 e8 15 be 74 0d 28 3c
       -0.016030349 0.043602675 -0.1463934 0.010257114
000020 1f 54 6f 3d 79 aa eb bd d9 8f f0 bd 09 7e 50 3b
       0.058429834 -0.115071245 -0.11746187 0.0031813404
000030 18 ce 0d 3e f8 16 b9 3d c6 8e b0 bd 09 80 16 be
       0.1384815 0.09037584 -0.08620982 -0.14697279
000040 d1 c3 fd bd 15 8f 05 be 43 a8 78 3b ae ff b9 bd
       -0.12390865 -0.13042863 0.0037942089 -0.0908197
000050 27 49 2c be c4 56 6d 3c c7 d8 47 bd 39 3b 47 be
       -0.1682478 0.014486019 -0.04879072 -0.19456185
000060 d3 06 3b be 68 fa 8c bc 7e 85 90 bd 72 aa 87 3d
       -0.18264322 -0.017209247 -0.070567116 0.06624307
000070 8d dc 7c bd 76 2d 9d 3d 36 65 ef bd 58 a0 8d 3d
       -0.06173377 0.076746866 -0.11689226 0.06915349
000080 ce 27 83 bd f1 25 b1 bd a3 94 27 bd 08 6e ab 3d
       -0.064040765 -0.08649815 -0.040913235 0.08370596
000090 55 4e 7b 3b bc 75 d5 bd f2 4e e3 bd 72 81 02 be
       0.003834625 -0.10422847 -0.11099042 -0.12744692
0000a0 c8 59 8f be 8e f7 af bd e0 03 8b bc 4a cc 64 3d
       -0.27998185 -0.08592139 -0.016969621 0.055858888
0000b0 24 eb 40 be af 07 37 3c a8 b7 ee bd a1 99 0d be
       -0.18839699 0.0111712655 -0.116561234 -0.13828136
0000c0 ff 56 29 bd 9b ec 94 bc 32 67 83 bb 54 1d d4 bd
       -0.04134273 -0.018179229 -0.0040101046 -0.103571564
0000d0 67 63 f5 bd 7a cf 67 bc ea 77 92 3b 3d 5e 0c 3e
       -0.1198185 -0.014148587 0.0044698613 0.13707824
0000e0 c4 f4 19 3e 91 81 eb 3c b6 98 f5 bd 05 3c 62 bd
       0.15034777 0.028748306 -0.11992018 -0.05523302
0000f0 ac c2 9b bd d7 24 88 bd 82 a4 e7 bc 30 ab 45 bd
       -0.0760549 -0.06647652 -0.028276686 -0.04825896
000100 da 7b 5d bd cc 61 00 3e 8c 16 15 be 5e 19 6b be
       -0.054073192 0.12537307 -0.14559382 -0.22958896
000110 c3 05 11 3d 36 a8 81 bc ee 96 ec bd b0 51 7a 3d
       0.035405885 -0.01582728 -0.11552225 0.06111306
000120 e8 e5 e8 3c de d3 91 bc 02 34 03 3c 23 ff 00 be
       0.02842994 -0.017801221 0.008008005 -0.12597327
000130 83 9d 81 3d 9f 3a 99 bd a7 5c 28 be 28 c2 f5 3c
       0.06328871 -0.07481884 -0.16441594 0.029999807
000140 10 00 f5 3c 56 3d a9 3d 96 94 2d be 87 09 2d 3d
       0.029907256 0.08263652 -0.16951212 0.042245414
000150 d5 b2 fa bc a0 2e e0 bd ed e2 8f bd 51 d2 89 bd
       -0.030602852 -0.10946393 -0.070257045 -0.06729568
000160 31 62 c0 bb b6 71 f8 bd ce c2 93 bc 54 03 fe bd
       -0.0058710803 -0.12131064 -0.018037226 -0.124029785
000170 78 a1 df bd 7b 43 13 bd 3d 8b 9b bd 64 04 fc bc
       -0.109194696 -0.035953026 -0.07594917 -0.030763812
000180 c5 83 a6 bd 81 7c a9 3d cc 1f 51 be f1 96 dd bd
       -0.08130602 0.082757 -0.20422286 -0.108198054
000190 bb da 7b bd 9d ee a0 be d2 84 64 bd 0b 93 ba bd
       -0.061487895 -0.31432047 -0.05579073 -0.091100775
0001a0 7c 8d 8b bd c9 59 65 bd ae b7 bb bd 70 e8 61 bd
       -0.068140954 -0.05599383 -0.091658935 -0.05515331
0001b0 35 96 a6 3c fd 0c b9 bd 0f 6c c0 bd 7f dc 53 3d
       0.020335296 -0.090356804 -0.093956105 0.051723953
0001c0 4a b3 1d 3c ef 74 3e bd ee 7c 03 be 55 ba cc bd
       0.009625265 -0.046498235 -0.12840626 -0.099964775
0001d0 8f 55 f6 bd c4 44 56 bd ea aa 89 bd 93 5b d4 bd
       -0.12028038 -0.052311674 -0.067220524 -0.10369029
0001e0 7a b5 26 bd d5 4a ae 3b c2 e2 19 be d0 da 14 be
       -0.040700413 0.0053189793 -0.15027907 -0.14536595
0001f0 dc 2d a2 bc 4b 1e b5 bd 6f d0 3a bc 39 f6 02 be
       -0.019797258 -0.088436686 -0.0114022335 -0.12789239
000200 c5 59 41 bd 94 a0 82 3d 8f 25 ab bd 33 0d bb 3d
       -0.04720475 0.06378284 -0.08356773 0.09133377
000210 d6 11 8a be 1a 64 4a bd a2 20 ee 3d 2f 1d 40 bd
       -0.26966733 -0.04941187 0.11627318 -0.04690283
000220 f2 a5 3c bd c1 30 59 3d 4d 16 ab bc 27 81 34 be
       -0.046056695 0.05302501 -0.020884657 -0.17627393
000230 84 0a 05 be f7 03 76 bd 28 c0 a7 bd c3 83 8a 3c
       -0.12992293 -0.060062375 -0.08190948 0.016908532
000240 b4 b9 a0 3b 56 57 ca ba 0e e0 e8 3c 9e d6 92 bd
       0.00490495 -0.0015437405 0.02842715 -0.07169841
000250 87 e0 55 bd 67 f6 15 bc f2 41 0d bd 9b 08 70 bd
       -0.05221608 -0.009152985 -0.03448672 -0.058601957
000260 b3 27 16 39 c0 3a 8f bd f1 3a ee 3d 52 35 89 bc
       0.00014319904 -0.069936275 0.11632336 -0.016749058
000270 e8 e1 84 3c f8 37 d9 ba ae 9c 6e bd 55 b4 c3 bc
       0.016221002 -0.0016572466 -0.05825489 -0.0238897
000280 80 14 0f 3e f0 a1 6f bd 8b 3a 91 bd e6 45 84 bd
       0.13972664 -0.058504045 -0.07091244 -0.064586446
000290 3e 80 71 bd 1a 9e 4b 3c 2b f0 a5 bd 90 18 77 3d
       -0.058960192 0.012427831 -0.08102449 0.06032616
0002a0 ea 99 88 3d a8 84 6e bd f4 5c 20 be 0e 7a 2d be
       0.06669982 -0.05823198 -0.15660459 -0.16941091
0002b0 ad 6f c1 3d ac 94 fe bc 01 d3 9e 3d 29 d3 ae 3d
       0.094451286 -0.031076752 0.077550896 0.08536369
0002c0 77 d4 7f 3d ac eb 95 bd 92 5e 63 be fd 15 11 be
       0.06245848 -0.073203415 -0.22204044 -0.14168544
0002d0 a8 e3 a9 3d e0 31 21 be 0e a8 db bd 45 e3 aa bd
       0.08295375 -0.15741682 -0.10725413 -0.083441295
0002e0 8b 8d 7c be 7c 81 ad 3c 47 08 dd bb 5b 4e 67 bd
       -0.2466337 0.021179907 -0.0067453715 -0.05647121
0002f0 01 6c f9 bd 2c 48 c3 bc 97 8c 32 be dd 6a 8f bc
       -0.12178803 -0.023838125 -0.17436443 -0.017507011
000300 77 7a 88 be 80 45 3d 3d 96 1e 7e bb 13 5b a8 bd
       -0.26655933 0.04620886 -0.0038775555 -0.08220496
000310 b6 e9 c4 3c 15 16 b5 bc ba cc 76 bd a8 14 d1 bd
       0.024037223 -0.022105256 -0.060253836 -0.10209018
000320 c9 1b 3e bc 86 7f 32 3d a7 01 c5 bd 5c f5 2e 3d
       -0.011603304 0.043578647 -0.09619456 0.04271446
000330 60 a6 cd bd 3a 69 06 3c a8 b7 f9 bd 0b 72 f5 3c
       -0.10041499 0.008203799 -0.12193233 0.029961606
000340 85 f4 a8 3c 4d 0d 4c bd 0c ba 84 bd 91 d5 57 bd
       0.020624408 -0.049817372 -0.06480798 -0.052693907
000350 55 6a 0f bd e1 a3 04 bd b2 eb 1f be 82 bf f4 bd
       -0.035013516 -0.03238285 -0.15617254 -0.1195059
000360 3a 32 88 bc 6e 0e b2 bd 59 03 b5 bc 5d 59 64 bd
       -0.016625512 -0.086941585 -0.022096323 -0.055749286
000370 28 a8 bb 3c d5 d7 9f bd 86 00 15 3d 64 cb 27 be
       0.022907332 -0.078048386 0.036377452 -0.16386181
000380 a0 4c 80 bd 11 45 58 3d 4e 44 61 be ac f4 84 bc
       -0.06264615 0.05280024 -0.21998712 -0.01622995
000390 47 d8 25 3d 90 26 87 bd 62 d2 85 3d 72 fb 8a bd
       0.04048946 -0.06599152 0.06534268 -0.06786241
0003a0 58 16 ae bd db 73 3e bd 5d 7e a0 3c 3d fb fb bd
       -0.085003555 -0.046497207 0.019591505 -0.12303779
0003b0 88 9a e3 3d c4 d0 d6 bc bc 0b e5 bd dc 67 01 bd
       0.11113459 -0.026222594 -0.11183879 -0.03159319
0003c0 2e 70 18 bd a9 4b 94 bc 7d 70 e4 bd a3 63 41 be
       -0.037216358 -0.018102484 -0.11154268 -0.18885665
0003d0 57 05 18 bb 86 d7 be bd a1 d2 97 bd 0e 2e a9 bc
       -0.0023196542 -0.093184516 -0.07413221 -0.020651843
0003e0 2b 08 5c 3d 4b 52 21 bd 9b 3f d2 bc 4b 04 24 3d
       0.053718727 -0.03938512 -0.025665095 0.040043157
0003f0 1e e6 a2 bd 3d 7b 14 3d f9 1e 12 be 18 a0 e1 3c
       -0.079540476 0.03625034 -0.14269628 0.027542159

fc3.weight f4 [4, 256]
000000 ff f3 e3 3d 8e d2 d7 3d e1 0d a5 bd 2a 32 34 be
       0.11130523 0.10538207 -0.08059288 -0.17597261
000010 65 83 fd be 12 12 82 bd 74 14 0d 3e 0c ff a9 be
       -0.4951431 -0.06351103 0.13777333 -0.33202398
000020 5a ff 92 3e ca e7 19 bf f3 ea 79 bd 17 53 13 3e
       0.28710443 -0.6011931 -0.06101508 0.14387165
000030 a6 4b 0a 3e ae e8 38 bc d1 03 9c 3e e1 eb 3c 3e
       0.1350542 -0.011285944 0.30471662 0.18449356
000040 25 7c 0a be ea ec cd be 08 29 08 3e e6 3e 2a 3f
       -0.1352392 -0.40219814 0.13296902 0.66502225
000050 10 3c 6e 3e 17 f2 56 3e 19 0c 7a bd 98 0b 7b 3e
       0.232651 0.20990787 -0.061046693 0.24516141
000060 b6 81 b6 be 11 8d ab 3d b9 e7 a2 bd 15 a5 89 3e
       -0.35645837 0.08376516 -0.07954354 0.2688376
000070 42 4c af 3d 6b 92 c6 3d 29 c8 48 3e ee 5b ae bd
       0.08559467 0.09695896 0.19607605 -0.08513628
000080 8b 73 89 be 62 d8 9e 3e 98 80 6b be 03 59 96 3e
       -0.26845965 0.31024462 -0.22998273 0.29364786
000090 22 10 86 3d 3a e3 42 be b4 0a a3 3e 5b 71 ad be
       0.06546046 -0.19031993 0.31844103 -0.33875546
0000a0 87 e0 33 3e 98 0a 0a bf e6 00 00 3e d5 9e cf be
       0.17566119 -0.53922415 0.12500343 -0.40550867
0000b0 15 75 0c 3f 6f 29 16 be 9f 68 03 bf f4 de 97 3e
       0.54866153 -0.14664243 -0.51331514 0.29662287
0000c0 c8 bc 85 be b4 ac cb bd 88 78 8c 3d 88 76 6a 3c
       -0.2612059 -0.0994505 0.06858927 0.014310487
0000d0 c9 15 6d be f6 56 cf 3d da ee 05 3d 5a 98 eb 39
       -0.23152842 0.10124008 0.03269849 0.00044936204
0000e0 9c 24 27 3e e7 d5 40 3e 0d 11 06 bf e7 81 1b bf
       0.16322559 0.18831597 -0.5236977 -0.6074509
0000f0 7e a5 f2 be 63 f8 51 be f0 b1 b9 bd 75 0b 17 be
       -0.47391886 -0.20504908 -0.09067142 -0.14750464
000100 58 43 de be 78 45 19 3e 7a 53 af 3e f6 5d bf 3e
       -0.43410754 0.14967906 0.34243375 0.37376374
000110 1b 77 31 3d e8 27 03 3e b5 b1 f9 3e b4 8c 8f 3e
       0.04332648 0.12808192 0.48768392 0.28037035
000120 be e5 12 3e 95 9d e1 3d 9c 5b df bd 27 fd 04 be
       0.14345452 0.110163845 -0.10906145 -0.12987195
000130 72 e9 c2 3e 8f 08 bb 3e 30 c8 5e be ad 94 85 3e
       0.3806873 0.36529967 -0.21756053 0.26089993
000140 92 5e 81 be c1 a4 05 bf bf 81 ef bc c8 c7 65 3c
       -0.25267464 -0.5220452 -0.029236672 0.014024682
000150 0b 6a 0f be 22 a4 27 be 78 43 d8 be fb 39 80 be
       -0.14005296 -0.16371205 -0.42238975 -0.25044236
000160 fd 14 25 3e aa ca f0 bd 45 29 a5 3d 5b e7 99 3d
       0.16121288 -0.11757405 0.08064512 0.07514831
000170 eb 28 ba 3e ae 94 99 3e cb 9f ef 3e ce 30 6e be
       0.36359343 0.29996246 0.468016 -0.23260805
000180 ba a7 24 bb bd 44 20 3e 18 a4 0d 3f c1 2e 97 3d
       -0.0025124387 0.15651222 0.5532851 0.073819645
000190 7c d5 d4 be 3a 43 a2 3c 01 49 86 3e fc 1f 70 bd
       -0.41569126 0.019807447 0.26227573 -0.058624253
0001a0 64 39 aa 3e 63 75 08 be c9 36 1b 3e 9d 86 f6 3d
       0.3324691 -0.1332603 0.15157618 0.12037394
0001b0 90 c6 ad bd 41 58 ae 3d a0 1d 07 bd ff 68 f4 3d
       -0.084851384 0.08512927 -0.032987237 0.11934089
0001c0 45 d3 8c bd 2c bc 59 3e 44 3b 8a bc e6 41 0f 3e
       -0.06876234 0.21263188 -0.016873963 0.13989982
0001d0 7e e3 c1 be 6e cc 8d 3e e5 3a 52 be 76 4c c1 3d
       -0.37868875 0.2769503 -0.20530279 0.09438412
0001e0 e2 df 20 bc e5 19 ad 3d 90 b3 c5 be 92 f2 bd 3e
       -0.009819003 0.084522046 -0.38613558 0.3709913
0001f0 bf 46 03 bf c3 ce 0b 3e fe cd 2b be 88 f5 41 3e
       -0.51279825 0.13653092 -0.16777799 0.18941319
000200 1b c0 95 3e f1 74 49 3d 81 51 70 bd 6c 4c 84 be
       0.29248127 0.04918379 -0.05867148 -0.25839555
000210 36 92 88 bd c6 1c 1f 3e 1e 14 37 3d bc 84 dc be
       -0.066685125 0.1553832 0.04469692 -0.43070018
000220 df 51 04 be 89 23 82 bd b2 11 11 be ce 04 e7 be
       -0.12921856 -0.06354434 -0.14166906 -0.45120853
000230 03 41 06 3e 92 1e 7b be 39 cf 96 3d 6b b3 e8 be
       0.13110738 -0.2452338 0.07363743 -0.45449385
000240 44 2d 90 be e4 d8 32 3e be d6 33 3e 30 f6 8d 3e
       -0.28159535 0.1746555 0.17562386 0.2772689
000250 82 9c bc 3e cb 7c 3a be 07 5e d2 be d3 b3 87 bc
       0.36838156 -0.18211667 -0.41087362 -0.016565239
000260 70 e1 33 3d eb b0 65 3e 20 78 2b 3d 4c bc 5f 3e
       0.043916166 0.2243077 0.041862607 0.21849173
000270 1f 49 47 3e bf 59 1d be a4 db 83 3e c6 37 9d be
       0.19461487 -0.15366267 0.2575351 -0.30706614
000280 42 7d b1 3d 0d 27 48 be 34 c2 a9 bd 04 c0 fb bc
       0.08666469 -0.19546147 -0.082889944 -0.030731209
000290 ca 41 22 3e f9 48 95 3e 7d 40 b9 3c 85 9a 03 3f
       0.15845409 0.29157236 0.022613758 0.51407653
0002a0 3e cb 21 be 4f 76 84 3e 61 f7 bf 39 ca 72 80 bd
       -0.15800187 0.25871512 0.0003661467 -0.06271894
0002b0 6c c3 26 3e a2 65 20 3e dc b1 ea be 1d 6a ed 3d
       0.16285485 0.1566377 -0.4583882 0.11592505
0002c0 cf 1f 1e bd f1 10 23 3d 07 26 b7 3e 16 53 64 3e
       -0.038604554 0.03981108 0.357712 0.2229732
0002d0 0b a1 dc 3d e5 08 05 bf a4 8d 17 bd 7d ff 1e be
       0.10772904 -0.51966697 -0.037000313 -0.15527149
0002e0 d1 26 e3 be 5c 6a 17 3e 0b 7b c2 3d d4 2b 86 3e
       -0.44365552 0.14786667 0.09496125 0.26205313
0002f0 a3 91 5b 3e 91 4b 68 be a2 c9 a7 bd c5 48 4b 3e
       0.21442275 -0.22685076 -0.08192755 0.19851978
000300 31 cf d8 3d b2 84 e7 bd 6b ad 1f 3e 7a fe 37 3e
       0.105863936 -0.113046065 0.15593497 0.17968169
000310 57 85 ae 3d fd ef 78 be b4 1f 18 be 23 7e b0 3e
       0.08521526 -0.24310298 -0.14855844 0.34471235
000320 c7 1c 6f be 82 a8 35 3e a6 dd 98 be 6a 93 9e 3d
       -0.23350821 0.17740062 -0.29856604 0.07742961
000330 41 af 39 3d 50 96 06 3e 5a a1 e8 bd 20 aa a2 be
       0.04533315 0.13143277 -0.113589 -0.3177042
000340 cc cf 8d be 0e 65 e1 be d1 ae ad be 95 4b 5d 3e
       -0.276976 -0.4402241 -0.33922437 0.21610864
000350 5c d9 6a 3c a1 78 ed be d8 64 d5 be 24 60 64 be
       0.014334049 -0.46381095 -0.416785 -0.223023
000360 57 e7 82 bd fd 86 be 3d f9 89 77 be ac 03 11 bd
       -0.06391781 0.09303091 -0.24173726 -0.035403892
000370 cb 5a 17 3d a3 bf 1e be b9 2d 09 bd 3e 8c 13 3f
       0.03695182 -0.15502791 -0.03349087 0.5763587
000380 92 56 9d 3e 39 e2 9f bd d8 ae 7a be 8f 8d d3 3c
       0.3073011 -0.078068204 -0.2448076 0.025824336
000390 a8 a6 cc 3d b2 5b bd 3e af 7b 16 be 2a 1b c8 3d
       0.09992725 0.3698402 -0.14695619 0.09770806
0003a0 35 31 cd 3e 1c e2 75 3d 1f dd 3f 3d a8 9a bf 3d
       0.40076604 0.060030088 0.046841737 0.0935567
0003b0 9d 73 5a be 8b c3 ad 3e 50 40 9b 3e 55 e4 6d be
       -0.21333165 0.3393825 0.30322504 -0.23231633
0003c0 86 a7 c0 3d 16 3a 1c bd 27 0f 9b be 9f 1a a5 3c
       0.094069526 -0.038141333 -0.30284998 0.020154295
0003d0 49 a6 8a 3e 62 e1 6c be 2e 2a a2 be 54 b4 a0 be
       0.2707999 -0.23132852 -0.31672806 -0.3138758
0003e0 37 5e e9 b9 68 1c d2 be 41 92 29 bd aa 7e f6 be
       -0.0004451142 -0.41037297 -0.041399244 -0.48143512
0003f0 89 21 be be 65 68 c5 3e 3e 1d 05 3f 3a 72 b8 be
       -0.3713496 0.3855621 0.51997745 -0.36024648

fc3.bias f4 [4]
000000 80 16 3d bb 55 ce a1 3c c5 70 00 bc c3 1d 20 bd
       -0.0028852522 0.019751707 -0.007839386 -0.039090883

bn.weight f4 [256]
000000 ca 2d 40 3f c3 41 ec 3e 62 9f 9a 3f 01 9f eb 3e
       0.7506987 0.46143922 1.207989 0.46019748
000010 63 39 86 3f 5a 57 82 3f dd 53 55 3f 03 0d 85 3f
       1.0486263 1.0182908 0.8333109 1.0394596
000020 15 51 95 3f f7 47 86 3f 7b 23 22 3f e8 96 d3 3e
       1.1665369 1.0490712 0.6333539 0.4132607
000030 7a ec 88 3f 59 02 9a 3f c0 0a 92 3f f7 36 41 3f
       1.0697167 1.2031966 1.1409531 0.75474495
000040 51 fa 31 3f c0 be 47 3f b5 07 a2 3f 25 ed 37 3f
       0.6952258 0.78025436 1.2658602 0.7184623
000050 d3 15 37 3f 05 2e 05 3f c0 a4 78 3f 2d 31 72 3f
       0.71517676 0.52023345 0.9712639 0.94606286
000060 ca 5e 8e 3f 94 48 8d 3f e6 40 eb 3e 65 82 e5 3e
       1.1122677 1.1037774 0.4594795 0.44826046
000070 55 aa 84 3f 77 e3 0e 3f 18 af ee 3e d2 9b 92 3f
       1.0364481 0.55815834 0.4661796 1.1453803
000080 f6 83 06 3f 4f 38 b3 3f 0c e0 2e 3f ea 91 08 bf
       0.52545106 1.4001559 0.6831062 -0.5334765
000090 3a cc c0 3f 13 c4 a1 3f a8 f8 4b 3f 2d 4a 66 3f
       1.5062325 1.2637962 0.79676294 0.89956933
0000a0 d0 ac 82 3f d7 6c e6 3e 1c ca 6e 3f 3d 6d 9a 3f
       1.0208988 0.45004913 0.93277144 1.2064587
0000b0 48 18 2e 3f ee 03 0a 3f 94 d0 a3 3f bc 1f 03 3f
       0.680058 0.53912246 1.2798028 0.512203
0000c0 17 6b 98 3f 71 5d 70 3f 7a 87 8f 3f 1e 3e 3a 3f
       1.1907681 0.9389258 1.1213219 0.72751033
0000d0 96 c9 9a 3f 93 bb 50 3f 72 d3 8a 3f 18 48 68 3f
       1.2092769 0.81536216 1.0845778 0.90735006
0000e0 6c 68 88 3f 66 23 54 3f 6a 1f 8c 3f e6 99 51 3f
       1.0656867 0.82866514 1.0947087 0.81875455
0000f0 87 32 e7 3e 77 a6 95 3f 81 05 a5 3f 68 eb 2d 3f
       0.45155737 1.1691426 1.2892305 0.67937326
000100 d9 29 9d 3f ba 04 20 3f 3a 7f 5c 3f 55 31 61 3f
       1.2278396 0.6250721 0.8613163 0.879659
000110 f0 3d fb 3e 8c 6f 48 3f e5 d7 60 3f 43 5d 2d 3f
       0.49070692 0.7829521 0.8782943 0.6772043
000120 65 fd e9 3e 14 14 65 3f 98 8a a6 3f 48 65 f8 3e
       0.45701137 0.8948376 1.3011045 0.4851477
000130 71 bd 67 3f ef 06 fe 3e 95 05 8c 3f e3 78 6d 3f
       0.9052344 0.49614665 1.0939204 0.92762583
000140 fe 2a 0b 3f d2 f4 91 3f 3f 05 94 3f 2b 14 1a 3f
       0.54362476 1.1402838 1.1564101 0.60187024
000150 66 65 df 3e 83 49 a2 3f 44 10 54 3f a4 60 98 3f
       0.43632048 1.2678684 0.8283732 1.1904492
000160 0a be 1b 3f 07 6f 14 3f 0f 2c 51 3f 4b 48 62 3f
       0.6083685 0.57981914 0.81707853 0.8839156
000170 52 63 53 3f 4c 96 52 3f 17 c3 00 3f 68 5a 1c 3f
       0.82573426 0.82260585 0.50297683 0.6107545
000180 cd 41 51 3f 6b e7 9a 3f ce 4c 31 3f 6f 24 4d 3f
       0.8174103 1.2101873 0.6925782 0.8013372
000190 a8 0c 62 3f d3 dd 98 3f 8c f6 97 3f 50 fa 27 3f
       0.8830056 1.1942695 1.1872115 0.6561632
0001a0 84 35 66 3f 40 2c 6a 3f c7 00 18 3f 16 ad 80 3f
       0.8992541 0.9147377 0.59376186 1.0052822
0001b0 22 59 fe 3e 3e 00 28 3f 89 29 96 3f 60 fe 4d 3f
       0.49677378 0.6562537 1.1731426 0.8046627
0001c0 06 bd 0a 3f 05 20 35 3f e0 81 03 3f 0c 9f aa 3f
       0.54194677 0.7075198 0.5137005 1.3329787
0001d0 b3 c0 8d 3f 85 4b 8f 3f 8a e7 95 3f 53 ca 5d 3f
       1.1074432 1.1194922 1.1711285 0.8663685
0001e0 8d e2 22 3f fa 90 45 3f 19 94 24 3f 26 09 ef 3e
       0.6362694 0.7717434 0.6428848 0.46686667
0001f0 f2 a6 13 3f ae 27 e9 3e 54 d1 80 3f 8e 94 31 3f
       0.57676613 0.45538086 1.0063882 0.693673
000200 99 ab 29 3f fd 0a 1f 3f 4b fc 9a 3f 98 75 a4 3f
       0.6627746 0.6212614 1.2108244 1.2848387
000210 47 8a 5f 3f 45 9a 81 3f e7 4d a4 3f 7c 12 58 3f
       0.8732037 1.0125204 1.2836274 0.84403205
000220 97 4d f2 3e 58 43 3b 3f 83 4a 70 3f ff b0 91 3f
       0.4732482 0.73149633 0.93863696 1.138214
000230 7c 96 d9 3e a2 10 23 3f e7 0c 18 3f 90 02 5f 3f
       0.42497623 0.63697255 0.5939469 0.87113285
000240 72 b8 92 3f 4b 09 76 3f 26 81 03 3f 91 a1 4c 3f
       1.1462538 0.9610793 0.5136894 0.7993403
000250 7c 99 99 3f ba a6 28 3f 06 91 8f 3f bf 3a 40 3f
       1.1999965 0.65879405 1.1216133 0.7508964
000260 6f 7f 2b 3f 06 9b 8d 3f c7 01 42 3f 19 29 f7 3e
       0.66991323 1.1062934 0.7578396 0.48273543
000270 ba f1 83 3f ed 1c 42 3f d6 61 41 3f 70 87 a0 3f
       1.0308144 0.7582539 0.7553991 1.2541332
000280 aa 93 5e 3f bf 76 17 3f c3 5f a6 3f 87 ce 9c 3f
       0.8694407 0.5916557 1.2997974 1.2250527
000290 2c ac 82 3f 2f 8c fd 3e 63 54 7b 3f ac 31 91 3f
       1.0208793 0.49521014 0.9817564 1.1343284
0002a0 9e 90 93 3f 62 5b e3 3e 43 62 81 3f 51 68 0e 3f
       1.1528509 0.44405657 1.0108112 0.55627924
0002b0 3e cc 0d 3f 6a 70 4c 3f 4e b1 99 3f 00 62 d5 3e
       0.55389774 0.7985903 1.2007234 0.4167633
0002c0 2b 6d 98 3f 7e b2 a9 3e 56 56 b1 3f dd aa 57 3f
       1.1908315 0.3314399 1.3854473 0.8424509
0002d0 ae bb 4b 3f 1e b7 98 3f 76 7f 56 3f e8 ef 0e 3f
       0.7958325 1.1930883 0.8378824 0.5583482
0002e0 e2 63 08 3f a1 01 e0 3f ff 9c 1b 3f b9 e8 f4 be
       0.5327741 1.7500497 0.6078643 -0.47833803
0002f0 94 9c 2c 3f be 5c 22 3f 0c 1d 07 3f 85 70 73 3f
       0.6742642 0.63422763 0.52778697 0.95093566
000300 cc 53 91 3f bb f4 82 3f 83 7a 85 3f 6f 1f 77 3f
       1.1353698 1.0230936 1.0428013 0.9653234
000310 da 1f 60 3f 08 51 0c 3f 38 04 22 3f 10 08 ab 3f
       0.875486 0.54811144 0.6328769 1.3361835
000320 51 43 3f 3f fe 62 75 3f b8 7d 4e 3f ac 78 2b 3f
       0.7471209 0.95854175 0.8066058 0.66981006
000330 85 8c e9 3e f9 09 a3 3f 46 5f 4e 3f a6 4e 6d 3f
       0.4561502 1.2737418 0.80614126 0.92698133
000340 1d 84 6e 3f da 9a 95 3f 5e 80 e9 3e 47 28 70 3f
       0.9317034 1.1687882 0.4560575 0.9381146
000350 46 87 6b 3f 6d 8e 67 3f 7b 48 93 3f c2 0a 11 3f
       0.92003286 0.904517 1.1506494 0.5665704
000360 23 27 90 3f cf 9c 80 3f 94 1d 14 3f 7d b2 29 3f
       1.1261944 1.0047854 0.5785763 0.66287977
000370 1e 5a 51 3f f7 f1 20 3f 18 45 71 3f ba 8d 91 3f
       0.8177813 0.6286921 0.94246054 1.1371377
000380 99 e6 26 3f 85 71 5f 3f ea 50 63 3f 7d f9 6b 3f
       0.65195614 0.8728259 0.8879534 0.92177564
000390 46 53 0a 3f ac 5c 8e 3f ed 85 44 3f 49 43 85 3f
       0.54033315 1.1122031 0.76766855 1.0411159
0003a0 b5 02 14 3f e6 1e 3d 3f 40 5e 7e 3f 00 22 83 3f
       0.5781663 0.7387527 0.99362564 1.0244751
0003b0 7f 58 96 3f 12 36 92 3f 3d 40 31 3f ea 3f 0a 3f
       1.1745757 1.1422751 0.69238645 0.54003775
0003c0 53 4e db 3e f3 39 16 3f 31 d8 02 bf 08 df 45 3f
       0.42833194 0.58682173 -0.5111113 0.77293444
0003d0 d9 26 9c 3f 78 16 8e 3f d9 52 3c 3f b7 58 90 3f
       1.2199355 1.1100607 0.73563915 1.1277074
0003e0 0b f5 79 3f 8c 65 68 3f 84 51 16 3f be a4 39 3f
       0.9763953 0.9077995 0.5871813 0.72517
0003f0 e4 e0 86 3f 64 99 05 3f 31 83 6b 3f 4d ff 43 3f
       1.0537381 0.5218718 0.9199706 0.76561433

bn.bias f4 [256]
000000 0e ed 98 3d 4e b4 5c bd 11 c0 d2 3d d8 81 a5 bb
       0.074670896 -0.05388289 0.1029054 -0.005050879
000010 6c ba 88 be 09 7a f3 3c b8 b6 52 be 40 6a c1 3d
       -0.2670473 0.029721277 -0.20577514 0.09444094
000020 0e ef eb 3c f4 0c df 3d e1 f2 47 be ec 79 5a bd
       0.028800514 0.108911425 -0.19526245 -0.05333893
000030 10 c3 49 bc 6a 64 99 3c 29 1f b0 3d 2d 0d c8 3d
       -0.012314573 0.018724639 0.08599693 0.09768138
000040 52 77 89 3c 72 09 2c be 6e 47 7f 3e 02 de 84 bc
       0.01678053 -0.16800478 0.24929592 -0.016219143
000050 39 22 9a 3d 34 d9 a2 3d 1f 14 10 3c 87 16 0c 3d
       0.07526059 0.079515845 0.00879386 0.03420117
000060 79 2d 1e 3c ec 2b 6e bd d4 d3 92 3d 4c 9e 0c bd
       0.009654396 -0.058147356 0.07169309 -0.03433065
000070 cd 65 9a bd 45 03 fc 3c 85 86 ad 3c 3c 7e cf 3d
       -0.07538948 0.030763278 0.021182308 0.10131499
000080 c0 73 e6 bc 85 f6 bf 3d 83 f6 90 bc 96 21 9f bd
       -0.028131366 0.09373192 -0.017695671 -0.07770078
000090 61 50 ab bc ab 38 0e bd fb d2 c5 3d 3c ea 37 3e
       -0.020912351 -0.03472201 0.09659382 0.17960447
0000a0 98 9d f9 3d 69 b6 a9 bc 84 ec 93 3d 81 87 f9 3d
       0.12188262 -0.020716863 0.07222846 0.121840484
0000b0 7b 0c b1 3d 84 67 5e ba da c8 2d be 09 01 b3 3d
       0.086449586 -0.0008484053 -0.1697115 0.08740432
0000c0 e5 5e 88 3d 02 6b 2a 3e 3b 31 ae bc db 85 48 3d
       0.06658725 0.16642383 -0.02126371 0.04895578
0000d0 bb b4 0c 3e 7b 0b 0e 3e 0f a1 45 bd fe 8a 48 3e
       0.13740818 0.13871567 -0.0482493 0.19584271
0000e0 5d 9c 50 bd 54 2b b6 3d e3 21 5a 3b ec 9f b8 bd
       -0.05093037 0.08894983 0.0033284358 -0.09014878
0000f0 57 2e af bc a7 b4 f0 3d d1 0c 91 3d c4 7f ac bd
       -0.021384401 0.11753207 0.07082523 -0.08422807
000100 a9 2a 80 3d b2 3d 2c 3e 34 29 1a 3e d3 4a 9f 3c
       0.06258137 0.1682041 0.1505478 0.019444859
000110 80 78 30 3c 6c c3 30 3d 52 07 bd 3d 56 27 09 bc
       0.010770917 0.04315512 0.09229912 -0.008371195
000120 30 bc c2 bc 96 c6 69 3e bf 06 75 3e 25 6f 4a bd
       -0.023771375 0.22829661 0.23928355 -0.049422402
000130 48 a9 20 3d 4f 98 f6 3d 10 6b 67 bc ff c5 98 3d
       0.03922394 0.12040769 -0.014124647 0.0745964
000140 0f a1 4e 3d 31 06 94 3d 41 de b1 3d e0 33 72 3d
       0.050446566 0.072277434 0.0868497 0.059131503
000150 bd cb f4 3b b2 fd b9 3d 99 d0 85 bd 1d f0 37 bd
       0.0074705766 0.09081592 -0.065339275 -0.044906724
000160 08 e6 a0 3d 74 1f fa 3d da 99 e9 3c 44 8c 22 bd
       0.07856375 0.122130305 0.028515745 -0.03968455
000170 de 7b 23 3d ad e8 24 3e e1 0a 38 3c 30 f6 08 3c
       0.03991305 0.16104384 0.0112330625 0.008359477
000180 7b 71 cf bc b4 fb 90 3d d3 b4 3e 3d ae e7 55 3d
       -0.025322666 0.070792586 0.046559166 0.0522229
000190 dc c7 24 3e b7 08 87 3d bd 8c e2 bd 15 4d 38 3c
       0.16091865 0.06593459 -0.11062 0.011248847
0001a0 14 a4 8b bd 6d 07 69 3e ae 43 58 3d 5b 4b dd 3d
       -0.06818405 0.22756739 0.05279892 0.108053885
0001b0 06 5a 83 bd e3 1c 45 bd af 22 16 bd db 35 40 bd
       -0.06413655 -0.04812325 -0.03665417 -0.04692636
0001c0 32 72 92 bd fb 7d 9e 3b 3c 39 43 3e d0 32 27 3e
       -0.07150687 0.0048367954 0.19064802 0.16327977
0001d0 cf 15 a7 3d 11 af 7f 3d b6 dc 18 3e 3b 0d 30 3e
       0.081584565 0.062422816 0.14927945 0.17192547
0001e0 74 53 91 3b 7a e3 70 3c 3f ba 8c bd 36 b9 44 3c
       0.004434997 0.014702672 -0.06871461 0.012007048
0001f0 6c 54 f9 bd 1c f2 02 3c 9c b9 32 3d 29 9f 92 3d
       -0.12174305 0.007992294 0.043634042 0.07159264
000200 08 d5 a7 3d 4d 32 a4 bc 34 42 95 3d 27 5e 1e 3e
       0.08194929 -0.020043517 0.07288018 0.15465604
000210 2e da 2b 3c 39 4c 19 3e ba 52 1d 3e b2 46 80 bb
       0.01048903 0.14970483 0.15363589 -0.0039146775
000220 28 6e 0c be 3f 68 94 3d 9d e5 91 3c e8 f1 83 3d
       -0.13713896 0.07246446 0.017809683 0.06442624
000230 01 bc 94 3d e2 1e ac 3d 5e d1 81 3d e6 7f 86 bd
       0.072624214 0.08404328 0.06338762 -0.065673634
000240 bd 12 06 be 63 d5 b6 3c 97 74 30 3d 91 bd 4f bd
       -0.13093086 0.022318548 0.04307994 -0.050717894
000250 73 39 a1 bd 15 7b e7 bd 10 7f 96 bb 5a 4e 61 3b
       -0.07872286 -0.11302773 -0.0045927837 0.0034378977
000260 4c 5a f6 bb 65 20 ee 3d d2 60 e6 3d 84 58 d9 3d
       -0.0075180884 0.116272725 0.11248936 0.10612586
000270 62 c4 fc bc 1f 91 64 3c 94 d1 c5 3d f4 0d dd 3b
       -0.030855361 0.013950615 0.096591145 0.006746048
000280 ac cc 14 be 11 d9 98 bd de 18 99 3c 85 a1 08 3e
       -0.14531201 -0.07463277 0.018688615 0.13342865
000290 bf 88 ef bd 72 ba 69 bb 8b 86 f1 3d 4b 52 a5 3d
       -0.11696004 -0.0035664109 0.1179324 0.08072337
0002a0 33 9c 9a bd 5d 10 c1 3d 01 dc 5b 3d a5 49 c1 3d
       -0.07549324 0.09426949 0.05367661 0.09437875
0002b0 bd b6 f7 3c 07 82 f1 3b e0 d4 cc bd 9e 2c 10 bc
       0.030238504 0.007370237 -0.1000154 -0.0087997
0002c0 31 45 35 3e f8 5f a8 bd 25 a7 2d be 0c 17 68 bc
       0.17702176 -0.082214296 -0.16958292 -0.014165651
0002d0 1d 21 a1 3d f2 82 ac 3d 2c fb 88 3d 19 74 fd 3c
       0.07867644 0.08423413 0.06688532 0.030939149
0002e0 fe 2d cc bd d4 5e ab 3c de 2c 6b bd 73 57 98 3c
       -0.0996971 0.020919241 -0.057415836 0.018596387
0002f0 30 15 a2 bc aa 14 e7 3c d0 ed 01 bc 71 29 a6 bd
       -0.019785494 0.028208096 -0.007930234 -0.08113373
000300 5b 36 95 3d 82 36 53 3d a8 dc 05 bd fe 62 41 bd
       0.07285758 0.051565655 -0.032681137 -0.047213547
000310 51 a6 35 bc 93 54 30 3d 9f da 07 3e 53 b9 2f bd
       -0.011087016 0.043049406 0.13266991 -0.04290135
000320 83 d9 c1 3a 46 ac 84 3e 4b f5 a9 3d 81 89 51 3e
       0.0014789555 0.25912684 0.08298739 0.2046261
000330 39 42 29 3c e2 04 21 3e 0b 44 4d 3d c8 97 85 3e
       0.01033073 0.15724519 0.05011372 0.26092362
000340 90 b3 31 3d 4b 8f f1 3d 08 99 1b bd 43 9d 62 bc
       0.043384135 0.11794909 -0.03798774 -0.013831439
000350 91 36 b1 bb 16 73 06 3d 12 8a 9f 3d 83 b2 ac 3c
       -0.005408116 0.0328246 0.07790007 0.021081215
000360 52 58 4d be a7 a8 ff 3c e1 e3 36 be 6c 88 43 3f
       -0.20053223 0.03120835 -0.17860366 0.7638004
000370 d1 1e 1a bd df ff 62 3c d4 51 0e 3e b2 01 39 be
       -0.037627045 0.01385495 0.13898402 -0.18067053
000380 a8 f6 53 bd 57 e7 5c 3e 31 38 ae bd 32 ea f4 3b
       -0.0517489 0.21572624 -0.085068114 0.0074742073
000390 8f 1b 7e 3d 89 0e 4a bb 44 e1 aa 3d 0c aa 88 3e
       0.062038 -0.0030831418 0.08343747 0.26692235
0003a0 59 c7 1f 3e e6 ec 08 3e 48 41 f1 bc a4 09 94 bd
       0.15603389 0.1337162 -0.029450074 -0.07228401
0003b0 71 96 c3 bc d6 21 0d bc d3 cf 16 3d fe 3b 37 bd
       -0.023875447 -0.008614024 0.03681929 -0.044734947
0003c0 60 74 eb 3c 96 86 a5 3a 13 8d 37 be 86 a5 82 3e
       0.028742015 0.0012628611 -0.1792491 0.2551691
0003d0 bf 13 28 3e 40 c0 4b bd c1 c8 05 be ed 50 a1 3d
       0.16413783 -0.04974389 -0.13064863 0.078767635
0003e0 08 9c 68 3e 39 90 68 3d 68 14 f0 3c ea 33 cf 3d
       0.22715771 0.056778166 0.029306605 0.10117324
0003f0 4c 58 53 bc 7d 7d c5 3c 40 f3 dd 3d 2d 0a 2b 3e
       -0.01289947 0.024107689 0.10837412 0.167031
