checkpoint_critic.pth (torch_old, 308943 bytes, 9 tensors)

fcs1.weight f4 [256, 33]
0	0xbe9f5daa	-0.31126148
1	0x3d077cf7	0.03307816
2	0xbdc23a53	-0.09483781
3	0x3eaa9b2c	0.33321512
4	0xbce88eb9	-0.028388368
5	0xbf01ac7c	-0.50653815
6	0xbe9cc0ed	-0.3061594
7	0x3ccac4f7	0.024752123
8	0xbe667ae2	-0.22507814
9	0xbea2d1ea	-0.31800777
10	0x3dd96332	0.10614623
11	0x3df520c7	0.119691424
12	0x3be00b6b	0.0068372986
13	0x3d7bf647	0.061514165
14	0x3e81f649	0.25383213
15	0x3e231e48	0.1592952
16	0xbe29784f	-0.165498
17	0xbe2f8c71	-0.17143418
18	0xbe1333de	-0.14375255
19	0x3cc85128	0.02445276
20	0xbe26a566	-0.16274032
21	0xbd59b2c4	-0.053149
22	0xbe35d6f4	-0.1775778
23	0x3e062bbf	0.13102625
24	0x3da71d3f	0.08159875
25	0xbb743476	-0.0037262714
26	0xbcfecbd3	-0.03110305
27	0xbe9c50a1	-0.30530265
28	0x3ccc8757	0.024966879
29	0xbbbefae0	-0.0058282465
30	0x3eac46f6	0.3364789
31	0x3d664c06	0.056224845
32	0xbddd1663	-0.107952856
33	0x3e2b5ca9	0.16734566
34	0xbd936d3a	-0.07198568
35	0x3d5125d5	0.05106147
36	0x3e2e555d	0.17024751
37	0x3e40ca60	0.188272
38	0x3e3edce5	0.18638952
39	0x3f05c473	0.5225288
40	0xbccbc852	-0.024875794
41	0xbcb46554	-0.022020973
42	0xbe0e8bcb	-0.13920514
43	0x3c92f275	0.017937878
44	0x3d3ae5d6	0.045629345
45	0x3d094d17	0.033520784
46	0xbda74810	-0.08168042
47	0x3eadde12	0.3395849
48	0x3ddeafa8	0.108733475
49	0xbef00b48	-0.46883607
50	0x3eb60a77	0.3555486
51	0xbe2d4580	-0.16921043
52	0xbef26011	-0.47338918
53	0x3c557b53	0.013029891
54	0xbce2ce27	-0.027686192
55	0xbca941a3	-0.02066118
56	0xbd27adec	-0.04093735
57	0x3d307fa8	0.043090492
58	0xbc982ae6	-0.018575143
59	0x3da751ea	0.08169921
60	0xbe7ec9ac	-0.24881619
61	0xbd89e602	-0.06733324
62	0x3d4cbc96	0.049984537
63	0x3ea13215	0.31483522
64	0x3d31f49a	0.04344616
65	0x3f01b726	0.5067009
66	0x3e1aaa93	0.15104131
67	0xbe915d82	-0.28391653
68	0x3dd43308	0.10361296
69	0xbe22ed18	-0.15910757
70	0x3f106a46	0.5641216
71	0xbecf99f8	-0.40547156
72	0x3e04c676	0.12966332
73	0xbe161734	-0.14657289
74	0x3e1f23b0	0.15540957
75	0x3e3ad7af	0.1824634
76	0x3e11c3d0	0.14234853
77	0x3d728741	0.05921102
78	0xbce4cf9e	-0.02793103
79	0x3d934c49	0.071922846
80	0x3e573686	0.21016893
81	0x3d8f0b95	0.06984631
82	0xbd23544e	-0.03987532
83	0x3e80fad6	0.25191373
84	0x3dccb3a4	0.09995201
85	0x3e69acb2	0.22819784
86	0x3d5842da	0.05279813
87	0x3d3aa26b	0.04556505
88	0xbe29a44c	-0.1656658
89	0x3d86cf5d	0.0658252
90	0x3de5e313	0.112249516
91	0xbd257e2c	-0.04040353
92	0xbcb42460	-0.021990001
93	0x3e82ee82	0.25572592
94	0xbe6cbbbe	-0.23118493
95	0xbb01e3e0	-0.0019819662
96	0xbe269a95	-0.16269906
97	0x3d3e3448	0.046436578
98	0xbee439bb	-0.44575295
99	0xbdabec37	-0.08394664
100	0x3d516b7c	0.051127896
101	0x3e2600d2	0.1621125
102	0xbc9b6a90	-0.018971711
103	0xbe7cd4be	-0.2469053
104	0x3e973312	0.2953115
105	0x3f07b5d1	0.53011805
106	0xbcb2a49c	-0.021807007
107	0xbdfa943a	-0.12235303
108	0xbe043fc0	-0.12914944
109	0x3dc18f11	0.09451116
110	0x3d3fdeff	0.046843525
111	0x3d10b51a	0.035328962
112	0x3d44031d	0.04785453
113	0x3dcb4932	0.0992607
114	0x3d347e33	0.044065665
115	0x3edcef25	0.43151203
116	0xbe9bb63b	-0.30412468
117	0x3ef6b4aa	0.4818471
118	0xbf595071	-0.8488837
119	0x3cb656e9	0.022258239
120	0x3c8b5438	0.017007932
121	0xbd924105	-0.07141308
122	0x3d9096ff	0.0706005
123	0x3d29d876	0.0414662
124	0xbbac476c	-0.0052575376
125	0xbd116fa7	-0.03550687
126	0x3d399d0a	0.04531578
127	0xbe223459	-0.15840282
128	0xbd6149e6	-0.055002116
129	0xbc6d6c61	-0.014491172
130	0xbd14ae82	-0.036299236
131	0xbf20448f	-0.6260461
132	0xbdaf5ba7	-0.08562403
133	0x3d1de03f	0.038543936
134	0xbd826883	-0.0636759
135	0xbe322322	-0.17396215
136	0x3f21bc7c	0.6317823
137	0xbcc6c3ca	-0.024263281
138	0x3e58fc15	0.21189912
139	0xbde7080f	-0.11280834
140	0x3df7f617	0.12107485
141	0x3d96065c	0.07325432
142	0x3b54acb1	0.0032451565
143	0x3d8e2e1b	0.06942388
144	0xbb31af7d	-0.0027112656
145	0xbe73043f	-0.23732089
146	0x3e2a01ac	0.166022
147	0xbde995f4	-0.114055544
148	0xbf1b5124	-0.60670686
149	0x3eb2f50e	0.34952587
150	0x3ea1a601	0.31571963
151	0x38ae77b6	8.3192645e-05
152	0xbc547ab8	-0.012968712
153	0x3c75c931	0.015001581
154	0xbd13cd5e	-0.036084525
155	0xbdced943	-0.10100033
156	0x3d3b8110	0.04577738
157	0x3bda8f73	0.0066699325
158	0x3e2ecdba	0.17070666
159	0xbe05a307	-0.13050471
160	0x3dcc5fbc	0.099791974
161	0xbc053078	-0.008129232
162	0x3da7b131	0.081880935
163	0x3c191260	0.00934276
164	0xbec20a4d	-0.37898484
165	0xbd4df611	-0.050283495
166	0x3b8d6d88	0.0043160357
167	0xbce0c76b	-0.02743884
168	0xbe71e061	-0.2362075
169	0x3d63172c	0.05544202
170	0xbdf7eea9	-0.12106068
171	0xbdf0f953	-0.11766305
172	0x3c694ba5	0.0142392265
173	0xbca8de3f	-0.020613788
174	0x3c78daba	0.015188867
175	0xbc899377	-0.01679395
176	0x3b41ac88	0.00295523
177	0xbb070d57	-0.0020607316
178	0x3c747ca8	0.0149222985
179	0x3b857507	0.0040727886
180	0xbc41aa0f	-0.01182033
181	0xbcdda6c5	-0.027057061
182	0xbcbcc318	-0.023042247
183	0x3e6b9950	0.23007703
184	0xbd627020	-0.055282712
185	0xb99a4cec	-0.0002943048
186	0xb9ee49fd	-0.00045450023
187	0x3ca382b2	0.019959781
188	0x3c4bff9e	0.012451081
189	0x3b0c3e85	0.002139957
190	0xbc46f458	-0.012143217
191	0xbd264615	-0.04059418
192	0x3dad8725	0.084730424
193	0x3db6c6a4	0.089246064
194	0x3d078ac4	0.03309132
195	0xbdd6fcde	-0.10497449
196	0xbd709ecc	-0.05874519
197	0x3ff6de97	1.9286679
198	0x3dbb1a86	0.09135918
199	0xbe739db3	-0.23790626
200	0x3e2630cc	0.16229552
201	0x3e239640	0.15975285
202	0x3e360d9b	0.17778628
203	0xbefa04e6	-0.48831862
204	0xbefe9097	-0.49719688
205	0x3dea8e61	0.11452938
206	0x3aa9369e	0.0012909954
207	0x3e055f66	0.13024673
208	0xbe07c867	-0.13260041
209	0x3b7b3919	0.0038333593
210	0x3c00257a	0.007821435
211	0xbcfae843	-0.03062833
212	0x3d961e96	0.073300526
213	0x3c887d95	0.016661445
214	0x3e158732	0.14602354
215	0xbe917431	-0.2840896
216	0x3f08122a	0.53152716
217	0x3f2e2f40	0.6804085
218	0x3c54fcd4	0.012999732
219	0xbbbce0fb	-0.0057641244
220	0x3dd08d00	0.101831436
221	0xbe1c831b	-0.15284388
222	0x3e002032	0.12512282
223	0x3d4f3fef	0.05059808
224	0xbd947d48	-0.07250458
225	0xbc9b138c	-0.01893022
226	0xbe0769f6	-0.13224015
227	0xbc86d868	-0.016460612
228	0x3cef0576	0.029177409
229	0x3ccbf52c	0.02489718
230	0x3ec64205	0.38722244
231	0xbd53a36d	-0.051669527
232	0x3e996734	0.2996155
233	0x3de63e7f	0.11242389
234	0xbe9e4c81	-0.30917743
235	0xbdf956a9	-0.12174732
236	0xbdfc942d	-0.1233295
237	0xbf01ec17	-0.5075087
238	0x3d896553	0.06708779
239	0xbd0d78e9	-0.034539137
240	0xbe145a9e	-0.14487693
241	0x3c608deb	0.013705711
242	0x3df3ae9a	0.11898537
243	0x3e573635	0.21016772
244	0x3e3253e8	0.1741482
245	0x3af17a3f	0.0018423273
246	0x3d138dff	0.03602409
247	0x3f1378d6	0.57606256
248	0x3ed06385	0.40700927
249	0x3d22f4c2	0.0397842
250	0xbe4f851e	-0.20265624
251	0xbd23114e	-0.039811425
252	0x3d840d9d	0.06447909
253	0x3c79ffd5	0.015258749
254	0x3e010fdc	0.12603706
255	0x3dd2cb1a	0.10292645

fcs1.bias f4 [256]
0	0x3e91fb9c	0.28512275
1	0x3e4de0bc	0.2010526
2	0xbd94b389	-0.07260806
3	0xbe0450aa	-0.12921396
4	0x3e3e0b94	0.18559104
5	0xbdd28ed7	-0.10281151
6	0xbe230e2f	-0.1592338
7	0xbac84ec2	-0.0015282261
8	0x3db49dc6	0.088191554
9	0xbd9af238	-0.07565731
10	0xbed4b138	-0.41541457
11	0xbbf931bb	-0.0076048053
12	0xbe8ee2a0	-0.27907276
13	0xbe046e56	-0.12932715
14	0xbd646254	-0.055757836
15	0xbe535ab6	-0.20640072
16	0xbc0b50d2	-0.008503156
17	0xbdf239a5	-0.11827401
18	0xbec11ec4	-0.37718785
19	0xbeb017c5	-0.34393135
20	0xb9dd73af	-0.00042238596
21	0xbea8ee1d	-0.32994166
22	0x3d96c0ea	0.07361014
23	0xbbbbc2a6	-0.005729991
24	0xbeab1018	-0.33410716
25	0xbe3cac53	-0.18425111
26	0xbe2cc59a	-0.16872254
27	0xbe7b9d7d	-0.24571796
28	0xbd4c56e2	-0.049887545
29	0xbe8ad507	-0.27115652
30	0xbe7fe62a	-0.24990144
31	0xbeaf4770	-0.3423419
32	0xbe41b6a8	-0.18917334
33	0xbebecd68	-0.37266088
34	0xbe696a46	-0.22794446
35	0xbd9ff1b0	-0.0780977
36	0xbe3f3944	-0.18674189
37	0xbebf7211	-0.37391713
38	0xbe06e023	-0.13171439
39	0xbe32ac6c	-0.17448586
40	0xbe9106ef	-0.28325602
41	0xbd9f8a13	-0.077900074
42	0xbe517fda	-0.20458928
43	0x3d8d28b8	0.06892532
44	0x3dcbfd34	0.09960404
45	0xbecbcdef	-0.39805552
46	0xbdbfbac8	-0.093617976
47	0xbe910905	-0.28327194
48	0xbe44f349	-0.19233431
49	0xbe85fe80	-0.2617073
50	0xbd6dabfa	-0.058025338
51	0xbe80c91b	-0.2515343
52	0xbe76ca3d	-0.24100585
53	0xbe7cc816	-0.24685702
54	0xbeaa2c13	-0.3323675
55	0xbe1f8041	-0.15576269
56	0xbea212ab	-0.31654868
57	0xbe58840a	-0.21144119
58	0xbdd9c040	-0.10632372
59	0xbe07b227	-0.13251553
60	0xbeb35571	-0.35026124
61	0xbe5f474a	-0.21804538
62	0xbda84c6a	-0.082177
63	0xbd8688f5	-0.06569091
64	0xbea948b1	-0.33063272
65	0xbe3675b6	-0.1781834
66	0x3e38ea31	0.18058087
67	0xbd8a0530	-0.06739271
68	0xbe5e31b1	-0.21698643
69	0xbe2b07c1	-0.16702177
70	0xbe3d0398	-0.18458402
71	0xbed99c19	-0.42501906
72	0xbde79363	-0.11307409
73	0xbd7cea16	-0.06174668
74	0xbe2af2ce	-0.16694185
75	0x3e72b820	0.2370305
76	0xbe3ed319	-0.18635215
77	0xbe73d718	-0.2381252
78	0xbe24943e	-0.16072175
79	0xbe389ab7	-0.18027769
80	0x3da0a902	0.07844736
81	0xbe2fd9a5	-0.17172869
82	0xbee7361c	-0.4515847
83	0xbe2922b3	-0.16517143
84	0xbe160ba8	-0.14652884
85	0xbd88d69f	-0.06681561
86	0xbeb63e7d	-0.3559455
87	0xbe9702c3	-0.29494295
88	0xbea37bb0	-0.31930304
89	0xbe1c04b4	-0.15236169
90	0xbe2ee532	-0.17079619
91	0xbe21497c	-0.15750688
92	0x3c799e2e	0.015235467
93	0x3e1664de	0.14686915
94	0xbdc7002a	-0.09716828
95	0xbecb03d1	-0.3965135
96	0xbdb30bbc	-0.087424725
97	0xbe9802d6	-0.29689664
98	0xbe7daff4	-0.24774152
99	0x3d00ca2c	0.031442806
100	0xbdca879e	-0.09889148
101	0xbdff4f22	-0.12466265
102	0xbe50b8f1	-0.2038305
103	0xbe0c0fe2	-0.13677934
104	0xbe4336f7	-0.19063936
105	0xbe6c7236	-0.23090443
106	0xbef203b6	-0.47268456
107	0xbdac49b1	-0.08412493
108	0xbde6b455	-0.11264864
109	0xbe97cfc6	-0.29650706
110	0x3dd48178	0.10376257
111	0xbca8362f	-0.02053365
112	0xbd068f8e	-0.03285175
113	0xbe9cfbbf	-0.30660817
114	0xbd80097f	-0.06251811
115	0xbdc7bf83	-0.09753325
116	0xbe690303	-0.22755055
117	0xbdebcd2e	-0.11513744
118	0xbe366c04	-0.17814642
119	0xbed09d11	-0.40744832
120	0xbe834f7a	-0.25646573
121	0xbc3a371d	-0.011365679
122	0xbea5cf4b	-0.32384714
123	0xbd099ef5	-0.03359886
124	0x3ce784b5	0.028261522
125	0xbdcb6686	-0.09931664
126	0xbe8f1d62	-0.27952105
127	0xbe90e0f9	-0.2829664
128	0xbe2ab6c3	-0.1667128
129	0xbec8b911	-0.39203694
130	0xbea45684	-0.32097256
131	0xbec92369	-0.39284828
132	0xbdd18810	-0.1023103
133	0xbe847590	-0.25870943
134	0xbe517b85	-0.20457275
135	0xbe67a38c	-0.22620982
136	0x3cfc0b51	0.030767115
137	0xbe96c05a	-0.29443628
138	0xbe5cd7be	-0.21566674
139	0xbe19382c	-0.14962834
140	0xbe5cd7fe	-0.2156677
141	0xbdfa4f75	-0.122221865
142	0xbe152dc6	-0.14568242
143	0xbe8540a7	-0.26025888
144	0xbe12d071	-0.14337327
145	0xbe1d68bc	-0.15371984
146	0xbbae2e6e	-0.0053155934
147	0xbeb30406	-0.34964007
148	0xbd990f6b	-0.07473644
149	0xbe8454af	-0.25845858
150	0xbe7d1e61	-0.2471862
151	0xbeb3872e	-0.3506407
152	0xbd8ceb61	-0.068808325
153	0xbdc8c310	-0.0980283
154	0xbe47a21f	-0.19495438
155	0x3dd2d62a	0.10294755
156	0xbe3b1513	-0.18269758
157	0xbdf9a270	-0.121891856
158	0xbe92dede	-0.2868566
159	0xbeb3d586	-0.35123843
160	0x3d287666	0.04112854
161	0xbe4862e2	-0.19568971
162	0xbe3e374b	-0.1857578
163	0xbd5b0924	-0.053475514
164	0xbe883a78	-0.26607108
165	0xbcfcc157	-0.03085391
166	0xbe52d4f6	-0.2058905
167	0xbeadbf93	-0.33935222
168	0xbedbfeab	-0.42967734
169	0xbd753658	-0.05986628
170	0x3c8877ed	0.016658748
171	0xbddfe7d7	-0.10932892
172	0xbee79c0e	-0.45236248
173	0xbe9b147b	-0.30289063
174	0xbe45bfbc	-0.19311422
175	0xbdf8c860	-0.121475935
176	0xbeb9f45e	-0.3631925
177	0xbe87fde7	-0.265609
178	0xbe6d950e	-0.23201391
179	0xbe7d2c52	-0.24723938
180	0xbe7578c4	-0.2397185
181	0xbdf1c41c	-0.11804983
182	0xbdb63665	-0.08897094
183	0xbe979a74	-0.29610026
184	0xbcdc40f0	-0.026886433
185	0x3c0dd2a9	0.008656182
186	0xbd9b214b	-0.075747095
187	0xbd6d4f07	-0.057936694
188	0xbea28bd7	-0.31747314
189	0xbe92ee9b	-0.28697667
190	0xbe833faa	-0.2563451
191	0x3cb2653f	0.021776794
192	0xbdde7cfa	-0.10863681
193	0xbdfafdd9	-0.12255449
194	0xbde51ee6	-0.11187534
195	0xbde98db6	-0.11403982
196	0xbdbf7dac	-0.09350142
197	0xbe0f401b	-0.13989298
198	0xbeda5354	-0.426417
199	0xbd543ad1	-0.051813904
200	0xbde84348	-0.11340958
201	0xbe2a430b	-0.16627137
202	0xbdbd71be	-0.0925021
203	0xbd0c6e4d	-0.03428488
204	0xbdd01dc2	-0.10161926
205	0xbe86ce5d	-0.26329318
206	0xbe0424cc	-0.12904662
207	0xbecc3c9c	-0.3988999
208	0xbd224ccf	-0.03962403
209	0xbd7dacc7	-0.06193235
210	0xbeb95d48	-0.3620398
211	0xbdfa1aca	-0.12212141
212	0xbedeaac8	-0.4348967
213	0xbe043ad5	-0.12913068
214	0xbd5e8710	-0.054328024
215	0xbd240486	-0.040043376
216	0xbe1ac432	-0.15113905
217	0xbe0cb948	-0.13742554
218	0xbea22706	-0.31670398
219	0xbe3fd589	-0.18733801
220	0xbe8136c5	-0.25237098
221	0xbe3855aa	-0.18001428
222	0xbe90e5ae	-0.28300232
223	0xbe785fd3	-0.24255304
224	0xbeaab890	-0.33343935
225	0xbedcaf85	-0.4310266
226	0xbdb6cbaf	-0.08925568
227	0xbe0674b9	-0.13130464
228	0xbea65bd5	-0.32491937
229	0xbe026263	-0.12732844
230	0xbdb8201e	-0.08990501
231	0xbe8cf09e	-0.27527326
232	0xbe8d44f2	-0.27591664
233	0xbdb1498e	-0.086566076
234	0xbe70747d	-0.23481937
235	0xbe66b1e8	-0.22528803
236	0xbdb75e40	-0.08953524
237	0xbe3e0a7f	-0.18558691
238	0xbe87cc09	-0.26522854
239	0xbccda459	-0.025102781
240	0xbed3275c	-0.41240966
241	0xbd7307fe	-0.059333794
242	0xbe43e296	-0.19129404
243	0xbdf74173	-0.1207303
244	0xbe2ad5b8	-0.1668309
245	0xbe1e6546	-0.1546832
246	0xbe15c892	-0.14627293
247	0xbe558398	-0.2085098
248	0xbe96e4f2	-0.29471546
249	0xbe1f692c	-0.15567464
250	0xbdf9c91b	-0.12196561
251	0xbeb5d64e	-0.35515064
252	0xbe1443e5	-0.14479025
253	0xbe0475a2	-0.12935498
254	0xbe44228d	-0.19153805
255	0xbc4b06e9	-0.012391784

fc2.weight f4 [256, 260]
0	0x3e86e6f4	0.26348078
1	0x3e90fda0	0.283185
2	0x3e27f267	0.16401063
3	0x3e47cd5a	0.19511929
4	0xbe15c8b6	-0.14627346
5	0xbe538a49	-0.2065822
6	0xbeab3e50	-0.33445978
7	0xbcc290df	-0.02375072
8	0x3c98bca3	0.018644636
9	0xbd35e736	-0.044409953
10	0x3bfc6aad	0.0077031464
11	0x3cae432f	0.02127227
12	0xbe39e587	-0.18153964
13	0xbe3b0850	-0.1826489
14	0xbe59a2cc	-0.21253508
15	0x3dc4b937	0.096056394
16	0xbd450e3b	-0.048109274
17	0xbeb5dd83	-0.35520563
18	0xbe29ff33	-0.16601257
19	0x3e63de38	0.22252738
20	0x3e25e521	0.16200687
21	0xbc95d330	-0.018289179
22	0x3d920ff1	0.07131947
23	0xbe663ad9	-0.22483386
24	0xbdbef2e0	-0.093236685
25	0x3d167e8d	0.036741782
26	0xbd9aa1f0	-0.075504184
27	0xbbd9eeec	-0.006650796
28	0xbe631661	-0.22176506
29	0xbe2c195e	-0.16806552
30	0xbe83d7d6	-0.25750607
31	0x3ccc763d	0.024958724
32	0x3d2dcccd	0.04243164
33	0xbf683b01	-0.9071503
34	0xbe077262	-0.13227227
35	0x3d7c57e9	0.061607275
36	0x3de37b4d	0.11107502
37	0xbcf45b60	-0.029828727
38	0xbd90f34c	-0.07077655
39	0xbe4fd58d	-0.20296307
40	0xbf1bb1e4	-0.60818315
41	0xbd12fa9c	-0.03588353
42	0xbdbda7e3	-0.092605375
43	0xbe372b33	-0.17887573
44	0xbc73bf35	-0.01487713
45	0x3dcbef84	0.09957793
46	0xbdb52b6a	-0.08846171
47	0xbe68820d	-0.2270586
48	0xbd3cb000	-0.046066284
49	0x3d15fcfc	0.036618218
50	0xbe321999	-0.17392577
51	0x3d50aa8b	0.050943892
52	0xbc3bf1ca	-0.011471221
53	0xbd6d224d	-0.05789404
54	0xbe3e5e90	-0.1859076
55	0xbe097d58	-0.13426721
56	0xbe922516	-0.2854392
57	0xbe2bd74c	-0.16781348
58	0x3dfc0e5e	0.12307428
59	0x3dd613cd	0.104529954
60	0x3d3c3ed6	0.045958363
61	0x3c8eee49	0.017447608
62	0xbdf4c054	-0.11950746
63	0xbe752111	-0.23938395
64	0xbe4a455e	-0.19753024
65	0x3d1e23a8	0.038608223
66	0xbc8c9712	-0.01716188
67	0xbd65d1d1	-0.0561083
68	0x3e0711ec	0.1319043
69	0xbdc27b5a	-0.09496184
70	0xbde5c90d	-0.11219988
71	0xbd69c3d2	-0.057071514
72	0xbace7528	-0.0015751468
73	0x3bd77b7c	0.006576
74	0x3cb5835c	0.022157364
75	0xbea7d605	-0.3278047
76	0xbf1e51b7	-0.61843437
77	0xbc917a17	-0.017758412
78	0xbe0215e8	-0.12703669
79	0xbc444684	-0.011979703
80	0xbe909b59	-0.2824352
81	0x3d84b0f4	0.06479064
82	0xbc5c16a2	-0.01343313
83	0x3df687fb	0.12037655
84	0xbd5ef49b	-0.054432493
85	0xbea8629f	-0.32887742
86	0xbde7d703	-0.11320307
87	0x3ceffb60	0.02929467
88	0xbcddfd16	-0.02709822
89	0xbe8269f5	-0.25471464
90	0x3d4d8273	0.050173234
91	0xbe1f8ceb	-0.155811
92	0xbea0dab7	-0.31416866
93	0xbdb0009b	-0.085938655
94	0x3cd687c9	0.026187794
95	0xbe18e216	-0.14929995
96	0xbe84bbf4	-0.25924647
97	0xbe9b2462	-0.30301195
98	0xbeb490ac	-0.35266626
99	0xbdc5e807	-0.09663396
100	0xbef78d34	-0.48349917
101	0x3e1490d0	0.14508367
102	0x3df8ff1a	0.12158032
103	0xbc77c919	-0.015123629
104	0xbd3d1af3	-0.04616828
105	0x3d5d6e4c	0.054060265
106	0xbcf00f72	-0.02930424
107	0x3dbdcce5	0.09267596
108	0x3db60158	0.08886975
109	0xbe4374b6	-0.1908749
110	0xbe4cafbe	-0.19988915
111	0x3eb2651b	0.34842762
112	0xbe16c80c	-0.1472475
113	0xbef5d37f	-0.4801292
114	0x3a954159	0.0011387273
115	0xbee750b8	-0.4517877
116	0xbe738fee	-0.23785374
117	0xbe820d52	-0.25400788
118	0x3e68c0d8	0.22729814
119	0x3e782dde	0.24236247
120	0x3d6190ee	0.055069856
121	0xbda7dd9b	-0.08196565
122	0xbf1a02fa	-0.6016079
123	0xbea5489b	-0.32281956
124	0x3e053569	0.13008656
125	0xbe084dd7	-0.13310944
126	0x3d1453f5	0.03621288
127	0x3c512513	0.012765187
128	0xbdcd6177	-0.100283556
129	0xbe1cdb70	-0.15318084
130	0x3d84fd74	0.06493655
131	0x3d17b8a1	0.03704131
132	0xbd8c6aae	-0.06856285
133	0xbdf5a6b3	-0.11994686
134	0x3e053368	0.13007891
135	0x3de0d655	0.109783806
136	0x3c48e678	0.012261979
137	0xbf1cb67d	-0.61215955
138	0x3eb8473d	0.3599185
139	0xbeb32f00	-0.34996796
140	0xbd22b6bf	-0.03972506
141	0x3e7ac330	0.2448852
142	0x3aa59a9f	0.0012634582
143	0xbd07fa66	-0.033197783
144	0xbea40d2c	-0.320413
145	0xbdba7ce8	-0.09105855
146	0xbd083078	-0.03324935
147	0x3e07a494	0.13246375
148	0xbf1f5ee7	-0.62254184
149	0xbe1e3df8	-0.15453327
150	0x3ce57f90	0.028014928
151	0xbd151220	-0.03639424
152	0xbe2b7546	-0.16743955
153	0xbd1ca3c0	-0.0382421
154	0xbe700d0d	-0.23442478
155	0x3db419b1	0.08793963
156	0xbd862450	-0.06549895
157	0xbdf46bd2	-0.119346276
158	0xbd728d98	-0.059217066
159	0xbcd49ceb	-0.02595373
160	0xbe2b1a12	-0.16709164
161	0xbd0947e8	-0.03351584
162	0x3e2dae0f	0.1696093
163	0xbde93b82	-0.11388303
164	0xbdc84b19	-0.09779949
165	0xbdcc75c2	-0.09983398
166	0xbdb1df6b	-0.08685192
167	0x3e83ca4c	0.25740278
168	0xbe56976d	-0.20956202
169	0x3d5c6913	0.053811144
170	0x3e81ce89	0.25352886
171	0xbe220053	-0.15820436
172	0x3de5565b	0.111981116
173	0x3e4cfaeb	0.20017593
174	0xbd8b9683	-0.06815817
175	0xbd934140	-0.0719018
176	0xbed3dad5	-0.41377893
177	0xbe0f7ceb	-0.14012496
178	0xbd6aa78d	-0.057288695
179	0xbbfd578a	-0.0077313827
180	0xbd7ba364	-0.06143512
181	0xbe4e494b	-0.20145147
182	0xbddf9a53	-0.10918107
183	0x3d40dc6d	0.047085214
184	0xbe26bf9c	-0.1628403
185	0x3e06e6a3	0.13173918
186	0x3dd06679	0.10175795
187	0xbe34a6b9	-0.17641725
188	0xbdb95937	-0.090502195
189	0xbe78e876	-0.24307427
190	0x3a9e84dd	0.001209404
191	0x3cbd3c6d	0.023100102
192	0xbe09fdc9	-0.13475718
193	0xbd2cabb1	-0.042155925
194	0x3e8d5a31	0.27607873
195	0x3baf9a51	0.005358972
196	0xbea7738e	-0.3270535
197	0xbde6636b	-0.11249431
198	0x3e2aa072	0.16662768
199	0xbeee76f5	-0.46575132
200	0x3dd8c078	0.105835855
201	0xbe5594a1	-0.20857479
202	0x3cc8c585	0.024508247
203	0xbb3933f4	-0.0028259726
204	0x3aac36e2	0.0013138915
205	0x3e0cec6e	0.13762066
206	0x3b1125fe	0.002214789
207	0x3e690397	0.22755276
208	0x3e778abf	0.24174021
209	0xbd7811c2	-0.06056381
210	0x3dbdda10	0.09270108
211	0xbe6cb827	-0.23117124
212	0xbee32b9a	-0.44369203
213	0x3daf3b4e	0.08556233
214	0xbeb5b2c0	-0.35487938
215	0x3dd31167	0.103060536
216	0xbdbc6032	-0.09198035
217	0xbe5a5dbe	-0.21324822
218	0x3dbaca51	0.0912062
219	0xbc693428	-0.014233626
220	0x3de253f0	0.11051166
221	0xbd93ece6	-0.07222919
222	0x3cc10f49	0.023566859
223	0xbdfd06b8	-0.12354797
224	0xbdce0d9e	-0.10061191
225	0x3ca2ab5e	0.019857105
226	0xbe497cfc	-0.19676584
227	0xbd380a9a	-0.044931985
228	0xbe11dde6	-0.14244804
229	0xbd5ab0ac	-0.053391144
230	0xbe420e1c	-0.18950695
231	0xbea04bf5	-0.3130795
232	0x3e2e6d94	0.17033988
233	0x3e10df80	0.14147758
234	0x3e6ae3e4	0.22938496
235	0xbbf52038	-0.0074806474
236	0x3c829355	0.015939394
237	0xbe2699d0	-0.16269612
238	0x3d371625	0.044698853
239	0x3e2cdfdc	0.1688227
240	0x3b4ee588	0.0031569917
241	0xbe86bc64	-0.26315606
242	0xbec83e1d	-0.3910989
243	0x3e285fd0	0.164428
244	0xbe2c3a97	-0.16819225
245	0xbea48791	-0.3213468
246	0xbf0214d0	-0.5081301
247	0xbebbb237	-0.36659405
248	0x3e64c20c	0.22339648
249	0x3db2ab9f	0.087241404
250	0xbd879329	-0.066198654
251	0xbd9438d1	-0.07237399
252	0x3cc2b84e	0.023769524
253	0x3dd2dcb3	0.10296001
254	0xbddb0b07	-0.10695463
255	0x3c9802ed	0.018556083

fc2.bias f4 [256]
0	0xbe7e910a	-0.24860016
1	0x3d34fb85	0.04418518
2	0x3dd0ff97	0.10205
3	0x3ca675db	0.02031987
4	0xbe49a8e1	-0.19693328
5	0xbd995bc7	-0.07488208
6	0x3e9ce13d	0.30640593
7	0xbe8b60ae	-0.27222198
8	0xbe9d8186	-0.3076288
9	0xbe822c54	-0.25424445
10	0xbd4156a1	-0.047201756
11	0xbe974fea	-0.29553157
12	0xbe54010f	-0.20703529
13	0x3e3dcc69	0.18535008
14	0xbd8e0b1a	-0.06935711
15	0xbe6070fc	-0.219181
16	0xbe3fc6bd	-0.18728156
17	0xbe67f963	-0.22653727
18	0xbdf89f63	-0.121397756
19	0xbe97cc93	-0.29648265
20	0xbe669eb8	-0.22521484
21	0xbe91cab1	-0.28474954
22	0xbe522fa1	-0.20525981
23	0xbe4c5ad1	-0.19956519
24	0x3d33b4e6	0.04387369
25	0x3dc1c9cd	0.094623186
26	0x3d3d2e75	0.046186883
27	0xbe8b6a7e	-0.27229685
28	0xbe8bc6eb	-0.273002
29	0x3e732466	0.23744354
30	0xbe8b32e7	-0.27187273
31	0xbc3ee42d	-0.011651081
32	0xbe768c32	-0.24076918
33	0xbe403aa9	-0.18772377
34	0x3d274e5f	0.040846225
35	0x3e76f1a4	0.24115616
36	0xbe7b4fa5	-0.245421
37	0x3d7344fd	0.059391964
38	0xbe885f22	-0.2663508
39	0xbc0f447d	-0.008744356
40	0x3ce186f9	0.02753018
41	0xbe5a5568	-0.21321642
42	0x3e42ca2d	0.19022436
43	0x3eac7874	0.33685648
44	0xbebec253	-0.37257633
45	0xbe92a0b0	-0.2863822
46	0xbee9fe4c	-0.45701826
47	0xbe8c7417	-0.2743232
48	0x3e469472	0.19392565
49	0xbea5d7b2	-0.32391125
50	0x3e3f3170	0.18671203
51	0x3f04d543	0.5188791
52	0x3ea968e4	0.33087838
53	0xbe3255d4	-0.17415553
54	0x3e3e5c2b	0.18589847
55	0x3e9eeab3	0.31038436
56	0xbd9ca358	-0.07648343
57	0x3dd6e789	0.104933806
58	0x3eb8e770	0.36114073
59	0xbe2e0565	-0.16994245
60	0xbe3cdf23	-0.18444495
61	0xbe374c53	-0.17900209
62	0x3e989507	0.298012
63	0xbe5fd8f8	-0.21860111
64	0x3e3f9749	0.18710054
65	0xbe3805fd	-0.17971034
66	0x3b9af58f	0.00472898
67	0xbe941820	-0.28924656
68	0x3b6d63ea	0.0036222884
69	0xbe52daf7	-0.20591341
70	0xbe9fb11f	-0.3118982
71	0xbe8d1d69	-0.275615
72	0x3e3e38f5	0.18576415
73	0xbcc40d4a	-0.023932118
74	0x3d7fe086	0.06246998
75	0x3f2581ae	0.64651
76	0xbeab9900	-0.33515167
77	0xbe678e22	-0.22612813
78	0xbd7569f8	-0.059915513
79	0xbe7953f4	-0.24348432
80	0xbcb968c9	-0.022632973
81	0xbeacb401	-0.33731082
82	0xbe52c52f	-0.20583032
83	0xbe7196e9	-0.23592724
84	0xbdadf1e8	-0.084934056
85	0xbe4bbca4	-0.1989618
86	0xbe1e85b6	-0.15480694
87	0x3dd794c9	0.105264254
88	0xbe14c264	-0.14527279
89	0x3e0c53e9	0.13703884
90	0xbe1e2a57	-0.15445839
91	0xbde9bbdd	-0.11412785
92	0xbe438b4c	-0.19096106
93	0x3e569ba0	0.20957804
94	0xbdc3bf17	-0.09557932
95	0xbea5e04d	-0.3239769
96	0xbdd1e0ce	-0.10247956
97	0x3d9b7672	0.07590951
98	0xbe331a68	-0.17490542
99	0x3e7ca274	0.24671346
100	0xbe4fce33	-0.20293503
101	0xbe085a2f	-0.13315652
102	0xbe581130	-0.21100307
103	0xbe9f3aaf	-0.3109946
104	0xbe835e64	-0.25657952
105	0x3d9becad	0.07613502
106	0xbc782c39	-0.015147262
107	0x3e0d1e46	0.1378108
108	0x3e262477	0.16224848
109	0xbe9900bd	-0.29883376
110	0xbe49d8a6	-0.19711551
111	0xbd9d66e8	-0.076856434
112	0xbeb8bd21	-0.36081794
113	0xbe9dcefe	-0.30821985
114	0xbcf9cf7c	-0.030494444
115	0x3e05b4f2	0.13057306
116	0xbe86c516	-0.2632224
117	0xbe0fe011	-0.14050318
118	0xbcd8a81c	-0.026447348
119	0xbda37a14	-0.07982269
120	0xbe6ad730	-0.2293365
121	0x3dcddc83	0.10051825
122	0xbe89a6a1	-0.2688494
123	0xbe88fc13	-0.26754817
124	0x3df5ab8a	0.11995609
125	0xbb18c954	-0.002331336
126	0xbeb021dd	-0.34400836
127	0xbe877b39	-0.264612
128	0xbe89663e	-0.26835817
129	0xbe4de848	-0.2010814
130	0xbe424fa7	-0.18975697
131	0xbe934574	-0.28763926
132	0xbe92c25d	-0.28663912
133	0xbe8649c2	-0.26228148
134	0xbe7bbc48	-0.24583542
135	0x3d8bbbff	0.06822967
136	0xbe61d474	-0.220537
137	0xbe4a6a1f	-0.19767044
138	0xbe82fa3d	-0.25581542
139	0xbe1b1374	-0.1514414
140	0x3e4f9210	0.20270562
141	0xbe5685d1	-0.20949484
142	0xbdaaf21f	-0.08346962
143	0x3df76bf2	0.12081136
144	0xbe6ab03f	-0.22918795
145	0xbe5fd0dc	-0.21857017
146	0x3d67238d	0.05643039
147	0xbce2c349	-0.02768101
148	0xbe797b12	-0.24363354
149	0xbe784c67	-0.24247895
150	0xbe3e4cb4	-0.18583947
151	0xbe8b18ec	-0.2716745
152	0xbe8f5208	-0.27992272
153	0xbe9ae225	-0.3025066
154	0xbe2204b8	-0.15822113
155	0xbd0ed9b2	-0.03487558
156	0xbe2bec25	-0.167893
157	0xba810154	-0.0009842315
158	0xbe6ef376	-0.2333506
159	0xbe9dc189	-0.30811718
160	0xbe497b83	-0.19676022
161	0xbe758530	-0.23976588
162	0x3dff3d5e	0.12462877
163	0xbe349bf3	-0.17637615
164	0xbe8e79ca	-0.27827293
165	0x3da352c1	0.079747684
166	0xbe825aab	-0.254598
167	0xbed71f81	-0.42016223
168	0xbecee422	-0.40408427
169	0xbea02db2	-0.31284863
170	0xbe3045fb	-0.17214195
171	0x3e3f6759	0.18691768
172	0x3e189d5e	0.14903781
173	0xbe9acaf0	-0.30232954
174	0xbe7e6616	-0.2484363
175	0x3d8e0973	0.06935396
176	0xbe8d594a	-0.27607185
177	0xbc35cffd	-0.011096952
178	0xbdb103e6	-0.08643322
179	0xbe8e931f	-0.2784662
180	0xbde52b30	-0.11189878
181	0x3cd5fc2c	0.026121221
182	0xbe12618b	-0.14295022
183	0x3e16500e	0.14678976
184	0x3c1c039e	0.009522347
185	0xbe613e34	-0.21996385
186	0xbe57ee5c	-0.2108702
187	0xbed33af6	-0.4125592
188	0xbe8810cd	-0.26575318
189	0xbe723139	-0.2365159
190	0x3eb4ae8f	0.35289428
191	0xbe6e89da	-0.23294774
192	0xbe96a6c0	-0.29424095
193	0x3edeb324	0.43496048
194	0xbe06ffbf	-0.13183497
195	0xbe817ae2	-0.25289065
196	0xbe5e2ef0	-0.21697593
197	0x3da335a7	0.07969218
198	0xbe49d771	-0.1971109
199	0xbe23e9f2	-0.16007212
200	0x3e16a43b	0.14711086
201	0xbcb19e2b	-0.021681866
202	0xbd91296c	-0.07087979
203	0xbe5fffb6	-0.2187489
204	0xbe683ac3	-0.22678666
205	0x3e3dc077	0.18530451
206	0x3e3f8295	0.18702157
207	0xbe19f6df	-0.1503558
208	0xbee69611	-0.45036367
209	0xbe7a66f7	-0.2445334
210	0x3e7bf22d	0.24604101
211	0x3d854eb8	0.06509155
212	0xbdabd054	-0.08389345
213	0xbddeb705	-0.10874752
214	0x3e62ffdb	0.22167914
215	0xbe6fa807	-0.23403941
216	0x3e0a7084	0.13519484
217	0x3d17150c	0.036885306
218	0x3c2607d5	0.010133703
219	0xbe2f9a1d	-0.17148633
220	0xbe195cb8	-0.14976776
221	0xbe8d20c2	-0.27564055
222	0xbe0665c9	-0.13124765
223	0xbe6d56a0	-0.23177576
224	0xbeb26d76	-0.34849137
225	0xbd9e87b8	-0.0774073
226	0x3dbadb70	0.09123886
227	0xbe13a980	-0.14420128
228	0x3e2f0f0f	0.17095588
229	0xbeac7f2a	-0.33690768
230	0x3e5bf382	0.2147961
231	0xbded5203	-0.11587908
232	0xbeb4a173	-0.35279426
233	0x3edad1d3	0.42738208
234	0xbe890932	-0.26764828
235	0xbdce65c3	-0.10078003
236	0xbe8ad643	-0.27116594
237	0x3e68bff2	0.22729471
238	0x3ebd0e8e	0.36925167
239	0xbe3179cc	-0.17331618
240	0xbe38cc3c	-0.18046659
241	0x3e969932	0.29413754
242	0xbe0ccba4	-0.13749558
243	0x3e3882bb	0.1801862
244	0xbe94028b	-0.2890819
245	0xbe983d40	-0.2973423
246	0xbe5e64ed	-0.21718188
247	0x3e1bcbe3	0.15214495
248	0xbe757c48	-0.23973191
249	0xbe8fc84b	-0.280825
250	0xbe82d131	-0.25550225
251	0xbe858cab	-0.26083884
252	0x3e72a286	0.2369481
253	0xbda34a95	-0.0797321
254	0xbe86c1ea	-0.2631982
255	0xbd931ff2	-0.071838275

fc3.weight f4 [1, 256]
0	0xbea341ea	-0.31886226
1	0x3da65bae	0.08122955
2	0x3d7777e2	0.060417064
3	0x3d426191	0.047456328
4	0xbe4fff54	-0.20312244
5	0x3dae0154	0.08496347
6	0x3d3bc9e5	0.04584684
7	0xbefb9a8c	-0.49141347
8	0xbe3334f4	-0.17500669
9	0xbdf584c0	-0.11988211
10	0x3d32ccc8	0.043652326
11	0xbef74f20	-0.48302555
12	0xbef50b0f	-0.4786
13	0x3d0c7a71	0.034296457
14	0x3d836cda	0.06417246
15	0xbe6fba1c	-0.23410839
16	0xbeb2a95d	-0.3489484
17	0xbe9d744c	-0.3075279
18	0x3ded6df9	0.11593241
19	0xbf5329e2	-0.82485783
20	0x3dee6667	0.116406254
21	0xbf190e31	-0.5978728
22	0xbee9b5e3	-0.4564658
23	0xbefd0e18	-0.49424815
24	0x3dfe6735	0.12422029
25	0x3d4b4087	0.049622085
26	0x3db95710	0.09049809
27	0xbea45fc2	-0.32104307
28	0xbe973740	-0.2953434
29	0x3d17d99d	0.037072767
30	0xbe0b214d	-0.13586922
31	0x3df0e273	0.11761942
32	0xbe13d9fd	-0.14438625
33	0xbe018fb1	-0.1265247
34	0x3d7cfe42	0.061765917
35	0x3d1e9d3b	0.038724165
36	0xbe18e774	-0.14932042
37	0x3d6d114e	0.05787783
38	0xbe978b3d	-0.29598418
39	0x3d313e48	0.043272287
40	0x3d0c7c74	0.034298375
41	0xbe680be3	-0.22660784
42	0x3d2409cb	0.0400484
43	0x3d8da79e	0.06916736
44	0xbdb650fc	-0.08902165
45	0xbe1c3da2	-0.15257886
46	0xbf02831b	-0.509813
47	0xbf1da32e	-0.6157712
48	0x3d29de7d	0.041471947
49	0xbf0cb416	-0.5496229
50	0x3d2f0163	0.04272593
51	0x3dd8fe9f	0.1059544
52	0x3d6dc0a7	0.058045056
53	0x3e443df2	0.19164255
54	0x3d42e08b	0.047577422
55	0x3cdf9060	0.027290523
56	0x3dc792fb	0.09744831
57	0x3db7bca5	0.08971528
58	0x3d9e8aee	0.077413425
59	0xbeeafeee	-0.4589762
60	0xbeccaa3b	-0.39973626
61	0xbf01899f	-0.5060062
62	0x3d1cebf2	0.038310952
63	0xbf0697ea	-0.5257555
64	0x3d6b31de	0.057420604
65	0xbe18970c	-0.1490137
66	0x3da4bd40	0.08043909
67	0xbf25b72c	-0.64732623
68	0x3d678214	0.056520537
69	0xbf0d8fbb	-0.5529744
70	0xbf599252	-0.8498889
71	0xbe83c9f5	-0.25740018
72	0x3d57f5b0	0.05272454
73	0x3d885a2a	0.066578224
74	0x3d97c1c2	0.07410003
75	0x3e27d350	0.16389203
76	0xbeec1533	-0.46109924
77	0xbf578ec2	-0.84202206
78	0x3dc2815c	0.094973296
79	0xbe788c08	-0.24272168
80	0x3d8a2260	0.06744838
81	0xbf3cad0a	-0.73701537
82	0xbd7ec27d	-0.062197197
83	0xbe3f2ac0	-0.18668652
84	0x3d873702	0.06602289
85	0xbdd79544	-0.10526517
86	0x3e559b19	0.20859946
87	0x3d3c8276	0.046022855
88	0x3e095c2c	0.13414067
89	0x3d86fb30	0.06590879
90	0x3da549ea	0.080707386
91	0x3e41ed33	0.1893814
92	0xbf041255	-0.5159047
93	0x3d34a311	0.044100825
94	0x3df7af98	0.12094039
95	0xbf3d8265	-0.7402709
96	0x3d4f3463	0.05058707
97	0x3d6a494a	0.0571988
98	0xbf260bba	-0.64861643
99	0x3d5aedb5	0.05344935
100	0xbf3be08a	-0.73389494
101	0x3e1b42b6	0.15162167
102	0xbe8f6ac2	-0.28011137
103	0xbf408666	-0.75205076
104	0xbe3aeec4	-0.18255144
105	0x3d7a90b2	0.06117315
106	0x3e098366	0.13429031
107	0x3d9419c9	0.07231481
108	0x3d2a9d93	0.04165418
109	0xbe6428ea	-0.22281232
110	0xbe90d1d5	-0.2828509
111	0x3ddbc0cb	0.10730132
112	0xbf34de49	-0.7065168
113	0xbe4b448c	-0.19850367
114	0x3dac9ab5	0.084279455
115	0x3d524dad	0.05134361
116	0xbec5a2b1	-0.38600686
117	0x3e0093da	0.12556401
118	0x3da9ea4f	0.08296644
119	0x3e4b6ae2	0.19864991
120	0xbea59d2a	-0.3234647
121	0x3d2c7b2d	0.042109657
122	0xbed7f9af	-0.4218268
123	0xbf0ca5bd	-0.54940397
124	0x3d811f2b	0.06304773
125	0x3deca5c8	0.11555058
126	0xbe9e9801	-0.30975345
127	0xbdabec81	-0.08394719
128	0xbeeba085	-0.46020904
129	0xbf0029db	-0.50063866
130	0xbedddc2b	-0.43332037
131	0xbec56106	-0.38550586
132	0xbe9576bd	-0.29192153
133	0xbeb63fb6	-0.35595483
134	0xbefb0008	-0.4902346
135	0x3d130dbb	0.035901766
136	0xbd727b34	-0.059199527
137	0xbebb8273	-0.36622962
138	0xbede3656	-0.4340083
139	0x3dfdeb8f	0.12398445
140	0x3d6dcf5a	0.058059074
141	0x3e57010a	0.2099649
142	0x3dbfbea1	0.093625315
143	0x3d19595c	0.037438735
144	0x3e095e76	0.1341494
145	0xbf43b391	-0.7644587
146	0x3d9db843	0.07701161
147	0x3dd99f43	0.1062608
148	0xbf0c310b	-0.54762334
149	0xbed90b46	-0.42391413
150	0xbe92571f	-0.28582093
151	0xbf2d75dc	-0.67757964
152	0xbe4db875	-0.20089896
153	0xbeefa017	-0.46801826
154	0xbe95292d	-0.29132977
155	0x3dc8f0b4	0.098115355
156	0xbe6e4798	-0.23269498
157	0x3d9a70a5	0.075410165
158	0xbf0bc90e	-0.5460366
159	0xbf06fbd9	-0.5272804
160	0xbf097c21	-0.5370503
161	0xbed500a9	-0.41602066
162	0x3d428521	0.047490243
163	0xbf04b6e2	-0.5184156
164	0xbe8d7bd0	-0.27633524
165	0x3d586510	0.052830756
166	0xbde99df7	-0.114070825
167	0xbe95276f	-0.29131648
168	0xbe09053f	-0.13380907
169	0xbf3156f0	-0.6927328
170	0xbd5b8a53	-0.053598713
171	0x3d46da85	0.04854824
172	0x3da27e80	0.07934284
173	0xbeadb79c	-0.33929145
174	0xbf30aa3f	-0.69009775
175	0x3d25ac68	0.040447623
176	0xbddea4c3	-0.108712696
177	0x3dc2139c	0.094763964
178	0x3dffa409	0.12482459
179	0xbe518bd6	-0.204635
180	0x3e0ae27f	0.13562964
181	0x3d452fb8	0.04814121
182	0x3e13b192	0.14423206
183	0x3d875ef7	0.0660991
184	0x3d86900a	0.06570442
185	0xbde7ab0e	-0.11311923
186	0xbe7b9267	-0.24567567
187	0xbdadea5c	-0.08491966
188	0xbf3f0a24	-0.7462485
189	0xbf20abe0	-0.6276226
190	0x3d5cd4df	0.053913947
191	0xbece8fa6	-0.4034397
192	0xbe9a0674	-0.30083048
193	0x3d8a0563	0.06739309
194	0xbd605c8e	-0.054775767
195	0xbf1b67d3	-0.607053
196	0x3e536477	0.20643793
197	0x3d7800bf	0.060547587
198	0xbe459b88	-0.19297612
199	0x3e09d622	0.13460591
200	0x3d86419c	0.06555483
201	0x3d7776ff	0.060416218
202	0x3dbfbedc	0.093625754
203	0xbe458a26	-0.1929098
204	0xbf064121	-0.5244313
205	0x3d36bf63	0.044616114
206	0x3d2df286	0.042467616
207	0xbd6be1da	-0.057588436
208	0xbe269b83	-0.1627026
209	0xbed56bc1	-0.41683772
210	0x3d11ec9f	0.03562605
211	0x3da261f0	0.07928836
212	0x3d68be6b	0.05682222
213	0x3dc4b78e	0.09605323
214	0x3d825cf6	0.06365387
215	0xbe7fc524	-0.24977547
216	0x3dbe169f	0.092816584
217	0x3d4fe7f7	0.05075833
218	0x3d2821af	0.04104775
219	0xbe7f06ce	-0.2490494
220	0xbe2bd884	-0.16781813
221	0xbedaa7ef	-0.42706248
222	0x3dd16154	0.10223642
223	0xbf140164	-0.5781462
224	0xbee487ba	-0.446348
225	0x3dc22876	0.094803736
226	0x3d3f133a	0.046649195
227	0xbda75824	-0.08171108
228	0x3d0af9a5	0.033929486
229	0xbeb2da74	-0.34932292
230	0x3da43b57	0.08019131
231	0x3d8b779c	0.06809923
232	0xbe0a3e8e	-0.13500425
233	0x3d01b605	0.031667728
234	0xbe75e379	-0.24012555
235	0x3dd6d234	0.10489312
236	0xbf16b1b6	-0.58864915
237	0x3d4b4973	0.049630594
238	0x3d94f8b2	0.07273997
239	0xbe0cb6a9	-0.13741554
240	0xbf2834dd	-0.6570566
241	0x3d2577c1	0.04039741
242	0x3dfb511c	0.1227133
243	0x3d86815d	0.06567643
244	0xbee5da06	-0.448929
245	0xbf0cfe1a	-0.5507523
246	0xbf187c17	-0.59564346
247	0x3d502ae5	0.050822157
248	0xbf105a11	-0.5638743
249	0xbecd4093	-0.4008833
250	0xbe89b1ff	-0.26893613
251	0xbf00f70f	-0.5037698
252	0x3d6043a2	0.054752
253	0xbde1f741	-0.11033488
254	0xbeb41d98	-0.35178828
255	0x3dae0140	0.08496332

bn.weight f4 [256]
0	0x3ec16a3b	0.3777636
1	0x3f2d0ae7	0.6759476
2	0x3f231773	0.63707656
3	0x3f4d98d3	0.80311316
4	0x3f0b4735	0.5440553
5	0x3fa286e5	1.2697417
6	0x3ebb0c4a	0.36532813
7	0x3ea12965	0.31476894
8	0x3f3e65a7	0.7437386
9	0x3f1da7a1	0.61583906
10	0x3f9762e7	1.1827058
11	0x3efcab2a	0.49349338
12	0x3f0b76ce	0.54478157
13	0x3ee5a17e	0.4484977
14	0x3e13f859	0.14450206
15	0x3eadb6ca	0.3392852
16	0x3f1868fc	0.59535193
17	0x3ee9bc9c	0.4565171
18	0x3ed7e5a8	0.421674
19	0x3eeee67f	0.4666023
20	0x3efff595	0.49992052
21	0x3eeb7f83	0.4599572
22	0x3f2810e3	0.6565077
23	0x3f6ba12b	0.920428
24	0x3f083479	0.53205067
25	0x3f47f533	0.7810852
26	0x3ec52adf	0.3850927
27	0x3ef20368	0.47268224
28	0x3ef6750a	0.4813617
29	0x3f157fb5	0.5839799
30	0x3f123a41	0.5712014
31	0x3f394426	0.7236961
32	0x3eb84020	0.35986423
33	0x3f953551	1.1656896
34	0x3ee0fe63	0.43944082
35	0x3f0b1404	0.54327416
36	0x3f3bd993	0.73378867
37	0x3f4be7cc	0.7965057
38	0x3f0b9104	0.5451815
39	0x3f1d036b	0.6133334
40	0x3f200986	0.6251453
41	0x3f321d54	0.69576
42	0x3eb81874	0.35956156
43	0x3f0573e3	0.52129954
44	0x3f16f43c	0.5896642
45	0x3efb060a	0.49028045
46	0x3f041633	0.51596373
47	0x3ee2ca5a	0.44295007
48	0x3ea33d09	0.31882504
49	0x3f364e65	0.7121337
50	0x3f096e87	0.53684276
51	0x3f0abc81	0.54193884
52	0x3f0018bc	0.5003774
53	0x3ee021f2	0.43775898
54	0x3f0b4511	0.5440226
55	0x3f0ee29e	0.5581454
56	0x3eb3418f	0.35010955
57	0x3e474ecd	0.19463654
58	0x3f1ef9b0	0.6209974
59	0x3eb24b09	0.34822872
60	0x3eebda62	0.4606505
61	0x3eb8a77d	0.36065283
62	0x3f23bc19	0.6395889
63	0x3f1ad3ba	0.6047932
64	0x3f18d1bf	0.5969505
65	0x3f044e1a	0.51681674
66	0x3ef54371	0.47903016
67	0x3f1dbeda	0.6161934
68	0x3d90c1fa	0.07068248
69	0x3ef3711c	0.47547233
70	0x3f1f0922	0.6212331
71	0x3ca0f3e9	0.019647555
72	0x3f2f0735	0.6837037
73	0x3f4a73bb	0.7908284
74	0x3f82619a	1.0186036
75	0x3efd4f28	0.49474454
76	0x3f128d7c	0.5724714
77	0x3f33b080	0.7019119
78	0x3f5004f9	0.8125759
79	0x3e6f59be	0.23374078
80	0x3f1dc5d3	0.6162998
81	0x3df4a0d5	0.11944739
82	0x3f0ca20c	0.54934764
83	0x3f2a3d71	0.665
84	0x3f058e40	0.5217018
85	0x3f149dea	0.5805346
86	0x3f014f96	0.50512064
87	0x3f512406	0.8169559
88	0x3f054cc4	0.5207026
89	0x3e879f3e	0.2648868
90	0x3f04a5e4	0.5181563
91	0x3efc330c	0.49257696
92	0x3f1e55fb	0.61849946
93	0x3eb5c609	0.3550265
94	0x3e1fe35a	0.15614071
95	0x3f368f34	0.7131226
96	0x3f1c7118	0.6111007
97	0x3f2a4f9d	0.6652773
98	0x3ed93e24	0.42430222
99	0x3eea17c3	0.45721254
100	0x3ec8cf37	0.39220592
101	0x3ebaf8ee	0.36518043
102	0x3f1ae881	0.6051102
103	0x3e72ae6d	0.2369935
104	0x3eb9e400	0.36306763
105	0x3f65f98c	0.89833903
106	0x3f0c652c	0.54841876
107	0x3ec8c342	0.3921147
108	0x3ed0d540	0.40787697
109	0x3ef518a9	0.47870377
110	0x3e512d98	0.20427549
111	0x3edfaa52	0.43684632
112	0x3f295fa3	0.66161555
113	0x3f3c6897	0.7359709
114	0x3ee4499f	0.44587418
115	0x3ebef293	0.37294444
116	0x3ed12728	0.40850186
117	0x3ef56fde	0.4793691
118	0x3f167530	0.58772564
119	0x3c19c4ee	0.009385331
120	0x3eceb94a	0.4037574
121	0x3f0e8be6	0.5568222
122	0x3f1d8e57	0.6154532
123	0x3ed40bad	0.41415158
124	0x3f0e90d2	0.5568973
125	0x3eaa5c7c	0.33273685
126	0x3ef09bf4	0.46993983
127	0x3f2da951	0.6783648
128	0x3ef99bea	0.48751765
129	0x3f36e058	0.7143607
130	0x3f8a416f	1.0801219
131	0x3eeed718	0.46648479
132	0x3f01ac2b	0.5065333
133	0x3f36cc89	0.71405846
134	0x3eafcce0	0.34335995
135	0x3ed1ca87	0.4097483
136	0x3f35149d	0.7073458
137	0x3ef72e3a	0.48277456
138	0x3eed4307	0.463402
139	0x3f304c57	0.68866485
140	0x3ee48df8	0.44639564
141	0xbee50684	-0.44731534
142	0x3f22dacb	0.636151
143	0x3f21359d	0.6297243
144	0x3eb42cdb	0.35190472
145	0x3f150412	0.58209336
146	0x3f19733f	0.59941477
147	0x3f21d67d	0.6321791
148	0x3f2a6583	0.66561145
149	0x3ebb5f75	0.36596265
150	0x3f50aaa0	0.81510353
151	0x3f2cb65f	0.67465776
152	0x3f69b467	0.912909
153	0x3ec33da7	0.38132975
154	0x3f23e55b	0.64021844
155	0x3d9b74c8	0.07590634
156	0x3eacc011	0.33740285
157	0x3f18a422	0.59625447
158	0x3f77a044	0.9672892
159	0x3ee08d35	0.43857732
160	0x3ed496d3	0.4152132
161	0x3f370560	0.71492577
162	0x3f0b49ed	0.54409677
163	0x3ef19d7e	0.4719047
164	0x3f26670c	0.6500099
165	0x3f114a56	0.5675405
166	0x3e86f2bf	0.26357076
167	0x3ee520b1	0.44751504
168	0x3f0cdeaf	0.5502729
169	0x3ee18e05	0.44053665
170	0x3eb28963	0.34870443
171	0x3f22d727	0.63609546
172	0x3f0a2a94	0.5397122
173	0x3ecfa378	0.40554404
174	0x3efd8879	0.49518183
175	0x3eff6ee7	0.498893
176	0x3f06eb91	0.52703196
177	0x3ed434f9	0.41446665
178	0x3f0fc96e	0.5616673
179	0x3f4c7d71	0.7987891
180	0x3f0e2d1c	0.5553758
181	0x3f264ac2	0.6495782
182	0x3e9cf6f7	0.3065717
183	0x3f40ceee	0.7531575
184	0x3f0223a9	0.50835663
185	0x3f028a46	0.5099224
186	0x3f0ad8f9	0.54237324
187	0x3f4bbc37	0.7958407
188	0x3ef28a29	0.47371033
189	0x3f11e469	0.5698915
190	0x3ed928a4	0.4241382
191	0x3e8c93d5	0.27456537
192	0x3f0a973c	0.54137015
193	0x3e94081a	0.2891243
194	0x3efb3077	0.49060413
195	0x3fb02101	1.3760072
196	0x3f153023	0.58276576
197	0x3f822c89	1.0169841
198	0x3e558358	0.20850885
199	0x3f631ae2	0.88712895
200	0x3f58b0c0	0.846447
201	0x3f165cd2	0.5873538
202	0x3f190472	0.5977241
203	0x3f36b266	0.71365964
204	0x3f1dcd6b	0.6164157
205	0x3ea8fa9a	0.33003694
206	0x3f0fe2b7	0.56205314
207	0x3f403df1	0.75094515
208	0x3f11432e	0.56743133
209	0x3f134c80	0.57538605
210	0x3eee0ae9	0.464927
211	0x3f283fd8	0.6572242
212	0x3ee837b8	0.4535501
213	0x3efcad27	0.49350855
214	0x3f036225	0.5132163
215	0x3fb490a4	1.4106641
216	0x3f0c12e0	0.547163
217	0x3f0146e0	0.5049877
218	0x3eea189c	0.457219
219	0x3eef29a5	0.4671146
220	0x3f139dc8	0.5766263
221	0x3f264cfc	0.6496122
222	0x3e7ebe25	0.24877222
223	0x3f9a234f	1.2042025
224	0x3ef9fa60	0.48823833
225	0x3f688c38	0.90838957
226	0x3f0e3a51	0.55557734
227	0x3ed5fe39	0.4179552
228	0x3f2c4ab5	0.67301494
229	0x3f0d78bb	0.55262345
230	0x3ecbd259	0.3980892
231	0x3eff08a0	0.49811268
232	0x3f3a1625	0.7269004
233	0x3ed6a5df	0.41923425
234	0x3e341b79	0.17588605
235	0x3f5b3d60	0.85640526
236	0x3f852772	1.0402663
237	0x3d847244	0.06467107
238	0x3f46d9cf	0.776761
239	0x3f28bbc1	0.6591149
240	0x3ec6f98f	0.38862273
241	0x3f1ace9c	0.6047151
242	0x3f0fbe2c	0.56149554
243	0x3ed57fd1	0.4169908
244	0x3f31c606	0.69442785
245	0x3ecfd505	0.40592209
246	0x3f375af0	0.71623135
247	0x3f58379e	0.84459865
248	0x3ef05d53	0.469462
249	0x3eab666d	0.33476582
250	0x3f08fc08	0.5350957
251	0x3f9cfc6d	1.2264534
252	0x3eccfa72	0.40034825
253	0x3f0037cd	0.50085145
254	0x3f568ff3	0.838134
255	0x3ef6a830	0.48175192

bn.bias f4 [256]
0	0x3d4e1e8f	0.05032211
1	0x3e315aec	0.1731984
2	0x3e8f1240	0.2794361
3	0xbc9de041	-0.019271972
4	0x3c2d318f	0.010570898
5	0x3dde42e4	0.10852602
6	0x3ec5deaa	0.38646442
7	0x3e338478	0.17531002
8	0x3e10fdb6	0.14159283
9	0x3ddec7ce	0.108779535
10	0x3e1ab48e	0.15107939
11	0x3db1bf47	0.086790614
12	0x3e726058	0.23669565
13	0x3e3dfb96	0.18553004
14	0x3ea5eb66	0.32406157
15	0x3a15e567	0.00057180825
16	0x3eb4a4ce	0.35281986
17	0x3e071c4d	0.1319439
18	0x3e1b8180	0.15186119
19	0xbc97f2ef	-0.018548457
20	0xbea1aa93	-0.3157545
21	0x3e140681	0.14455606
22	0x3dcddeec	0.100522846
23	0x3e5b8183	0.21436124
24	0x3e4ea1be	0.20178887
25	0x3cee91b5	0.029122213
26	0x3e4ac2f4	0.19800931
27	0xbe504354	-0.20338184
28	0x3cabcf10	0.020972759
29	0x3e32e5c3	0.1747046
30	0x3f073ee9	0.5283037
31	0x3dc520d2	0.096254006
32	0xbdeb6ea7	-0.11495715
33	0x3edc357c	0.43009555
34	0x3ef3529f	0.47523972
35	0x3be6bf5a	0.007041854
36	0x3e859439	0.26089647
37	0x3e9ec882	0.3101235
38	0x3dad705d	0.08468697
39	0x3dd89f0b	0.1057721
40	0x3df8b320	0.121435404
41	0x3e2a047a	0.1660327
42	0xbdfdfc9a	-0.124016955
43	0xbdfba27c	-0.12286851
44	0xbdc97db0	-0.09838426
45	0x3e863a44	0.26216328
46	0x3dc5afce	0.09652673
47	0x3edc2e49	0.43004063
48	0xbdedf91c	-0.116197795
49	0x3e5a2e34	0.21306688
50	0xbcaa71cd	-0.020806218
51	0x3d76aa8f	0.06022125
52	0x3ddd26bf	0.10798406
53	0x3d7962d2	0.060885258
54	0x3dabdce2	0.083917394
55	0x3e039d6d	0.12853022
56	0x3eaa794b	0.33295664
57	0x3d3a8b95	0.045543272
58	0x3ea9cf85	0.33166137
59	0xbe2daccf	-0.16960452
60	0xbda60263	-0.08105924
61	0xbe029b64	-0.1275459
62	0x3e22d936	0.15903172
63	0x3de0d48b	0.10978039
64	0x3e5b9081	0.21441843
65	0xbc5f14c1	-0.013615788
66	0x3dec8ffd	0.11550901
67	0x3ec9228e	0.39284176
68	0xbf076a4b	-0.52896565
69	0x3e14cec9	0.14532007
70	0x3d46a5cb	0.048497956
71	0x3ebd394a	0.3695777
72	0x3e565c8c	0.20933741
73	0x3de604ac	0.1123136
74	0x3eadf6b7	0.3397729
75	0x3e03dbd9	0.12876834
76	0x3ec38ce9	0.38193443
77	0x3deb98d7	0.11503761
78	0x3dca7fd7	0.09887665
79	0x3ce3f7a7	0.02782805
80	0x3e7368fa	0.23770514
81	0x3f02b05d	0.5105036
82	0x3ed29bd9	0.41134527
83	0x3e5ceb97	0.21574245
84	0x3d445733	0.047934722
85	0x3e4d40ac	0.20044202
86	0x3eb36014	0.3503424
87	0x3d96a14e	0.07354985
88	0x3e3cfd11	0.18455912
89	0x3ec7c0b2	0.39014202
90	0x3e582abf	0.21110056
91	0xbcfae2bb	-0.030625692
92	0x3da072c8	0.07834393
93	0x3d81e2e0	0.06342101
94	0xbebcdf08	-0.3688891
95	0x3d86577d	0.06559656
96	0x3ea109ad	0.31452695
97	0x3d8e262c	0.069408745
98	0x3ed6f3de	0.4198293
99	0xbe5a8fb4	-0.21343881
100	0x3dacaac8	0.084310114
101	0xbe787964	-0.24265057
102	0x3e2bff0d	0.16796513
103	0x3ee5ad20	0.44858646
104	0x3da4f5d6	0.08054702
105	0x3ebc4241	0.36769298
106	0x3eacfc3f	0.33786198
107	0xbd816e08	-0.06319815
108	0xbda1301b	-0.078705035
109	0x3d93b688	0.072125494
110	0x3ed72d5c	0.42026794
111	0xbe0cc0bd	-0.13745399
112	0x3e34c08b	0.17651574
113	0x3e1dc37f	0.15406607
114	0xbc965aee	-0.018353906
115	0x3da7dd1d	0.08196471
116	0xbd2501ca	-0.04028491
117	0x3d836455	0.06415621
118	0x3e7f248a	0.24916282
119	0xbf227985	-0.63466674
120	0xbdf71bbe	-0.12065838
121	0x3de863ce	0.11347161
122	0x3ebb805c	0.36621368
123	0x3e72c76b	0.23708884
124	0xbdfba13f	-0.122866146
125	0x3e0e398f	0.13889144
126	0x3dbd5fa7	0.0924676
127	0x3d66a52b	0.05630986
128	0x3da66018	0.08123797
129	0x3e7aa93a	0.24478617
130	0x3ed17538	0.40909743
131	0x3d472588	0.048619777
132	0x3e2f865d	0.171411
133	0x3e396288	0.18103993
134	0xbbf53ffd	-0.0074844346
135	0x3dc1a445	0.0945516
136	0x3e2cbba4	0.16868454
137	0x3dca925b	0.09891196
138	0x3d88ae4f	0.06673872
139	0x3ea12c91	0.31479314
140	0x3e31d978	0.17368114
141	0xbe8b40c8	-0.27197862
142	0xbe544d84	-0.20732695
143	0x3e7b78f4	0.24557859
144	0xbd900216	-0.07031648
145	0x3e8e08e4	0.27741158
146	0x3ded6576	0.11591618
147	0x3de786b1	0.11304987
148	0x3db663a4	0.08905724
149	0x3e2612c2	0.16218093
150	0x3e171811	0.14755274
151	0xbca61a68	-0.020276263
152	0xbd8c44aa	-0.06849034
153	0x3df89ad7	0.12138908
154	0x3e7aab3c	0.24479383
155	0xbf01a1ec	-0.506377
156	0x3ee8310a	0.45349914
157	0x3e8bb4f0	0.27286482
158	0x3e35bc60	0.1774764
159	0x3d9821d3	0.074283265
160	0x3e2983bf	0.16554163
161	0x3e0b8436	0.13624653
162	0x3e74d948	0.23911011
163	0x3e9ac204	0.30226147
164	0xbe1dd637	-0.15413748
165	0x3dedb49c	0.11606714
166	0xbe0f9144	-0.14020258
167	0x3dc3ba1e	0.095569834
168	0x3e57ab21	0.21061374
169	0x3e0ad119	0.13556327
170	0xbe25af27	-0.16180097
171	0x3eac6924	0.33673966
172	0x3e3da925	0.18521555
173	0x3d789f5a	0.060698844
174	0x3e1a2c11	0.15055872
175	0x3e90408c	0.28174245
176	0x3e4fa559	0.20277919
177	0x3dea75d5	0.11448256
178	0x3d42b308	0.04753402
179	0x3e9561d2	0.29176193
180	0x3ccfa020	0.025344908
181	0x3df73f09	0.1207257
182	0x3c8d9289	0.017281787
183	0x3ea8c8dc	0.32965744
184	0x3ee93cc2	0.45554167
185	0x3dca010f	0.09863483
186	0x3e3db591	0.18526293
187	0x3e3ca891	0.18423678
188	0x3e94d3ce	0.29067844
189	0x3e716544	0.23573786
190	0x3e8386f4	0.256889
191	0x3ccd473c	0.025058381
192	0xbe4ff3dc	-0.20307869
193	0xbd945de9	-0.072444744
194	0x3e35e3ba	0.17762652
195	0x3e2ce99a	0.16885987
196	0x3e744a14	0.23856384
197	0x3e980e0b	0.29698214
198	0xbe823fe3	-0.25439367
199	0x3eef712f	0.4676604
200	0x3e9074b8	0.2821405
201	0x3e3d7b6b	0.18504111
202	0x3e9e57ee	0.3092646
203	0x3d83cb98	0.06435317
204	0xbe25ea2e	-0.16202614
205	0x3e79b52d	0.2438552
206	0x3e426255	0.18982823
207	0x3e19be5b	0.15014021
208	0xbdb4c6ed	-0.088270046
209	0xbe2cc07f	-0.16870306
210	0xbe4232d5	-0.18964703
211	0xbb2d472a	-0.0026440122
212	0x3e8933fe	0.2679748
213	0x3c6395c8	0.013890691
214	0x3e497ad1	0.19675757
215	0xbc49df42	-0.012321295
216	0x3e2041ff	0.15650176
217	0x3dcccec2	0.100003734
218	0x3e5d3e75	0.21605857
219	0x3e48663a	0.19570246
220	0x3b0fc5b3	0.0021937906
221	0x3df0f1c0	0.1176486
222	0xbe1dd4c9	-0.15413202
223	0x3e28bceb	0.16478316
224	0x3d797e9f	0.06091177
225	0x3f007e14	0.5019238
226	0x3e06cd46	0.13164243
227	0x3df627a8	0.120192826
228	0x3df80f20	0.1211226
229	0xbe0acc22	-0.13554433
230	0xbd34df7b	-0.04415844
231	0x3de1e22b	0.11029466
232	0x3d38f8e6	0.045159243
233	0xbe2248c7	-0.15848075
234	0xbeb8d655	-0.36101022
235	0x3cfd4251	0.030915411
236	0x3eaf79f1	0.3427272
237	0x3f2b7a41	0.6698342
238	0x3e171135	0.14752658
239	0x3c9bc15b	0.019013098
240	0x3d9f13f0	0.07767475
241	0x3e287f7b	0.1645488
242	0x3bdb6e1b	0.006696475
243	0xbd0aedd3	-0.033918213
244	0x3e112b00	0.1417656
245	0x3e85d4a5	0.26138797
246	0x3f06b975	0.52626735
247	0x3ed544c5	0.4165403
248	0xbd0cc4af	-0.03436726
249	0x3eab054f	0.33402488
250	0x3d5ac53c	0.053410754
251	0x3c112508	0.008858927
252	0xbdc2692b	-0.094927154
253	0x3ea3d185	0.31995788
254	0x3e61f1fb	0.22064964
255	0x3e16ad16	0.14714465
