checkpoint_critic.pth (torch_old, 308943 bytes, 9 tensors)

fcs1.weight f4 [256, 33]
-0.099580094 -0.083796516 0.07751297 0.1454674 0.054093212 -0.00217789 -0.26533034 0.06312738
-0.066463195 -0.09156268 0.042167034 -0.057600573 0.1303763 0.03029666 -0.110529356 -0.0049245064
0.023359526 -0.039575163 -0.09022645 -0.045789335 0.003595418 -0.08003058 -0.20908837 -0.0015453371
-0.047481276 -0.07972884 0.012525784 0.05983415 0.005867811 -0.0058282465 -0.028659262 0.056224845
0.060667865 -0.021353327 -0.013862868 -0.041942228 -0.17998971 0.12547684 0.09691406 0.1734125
-0.103932135 0.032010403 -0.022443252 -0.04578098 -0.06618817 -0.09282698 -0.09201842 -0.11283436
-0.039745126 -0.023700707 -0.1681008 -0.078646235 -0.0160024 -0.04127962 0.041327428 -0.020250145
-0.009160295 -0.048543006 -0.032591186 0.074070275 0.12573226 -0.033407167 0.049984537 -0.059725292
0.04344616 0.34750104 0.060806926 -0.09476678 0.060842644 -0.113065824 0.2568652 -0.07731191
-0.009337758 0.03444684 -0.1672467 -0.06663953 0.053954154 -0.013468644 0.008527477 -0.016451338
-0.015755823 -0.107519485 0.12960434 0.12641661 -0.16807985 0.03750818 0.014271614 -0.034247175
0.02894249 -0.05720397 -0.021791078 -0.061172977 0.049792003 0.25952327 -0.021564597 -0.0019819662
-0.16650088 0.046436578 -0.37753934 -0.12117639 0.059264746 0.03332464 -0.027605273 -0.09410238
-0.052236203 0.11295237 -0.053913005 0.026137784 -0.028963778 -0.04866857 0.031006664 -0.027383247
0.055013333 -0.058723498 -0.07199962 0.015926808 -0.19387472 -0.0556871 -0.26302028 0.014330341
-0.011016243 -0.040972643 0.019593969 0.010569791 -0.042012837 0.12554167 0.12562802 -0.008359544
-0.055002116 -0.09480238 -0.036299236 -0.29231492 0.018510725 0.075837635 -0.06943765 -0.026018541
0.0700471 -0.25078446 -0.049820814 -0.050467677 0.059896372 0.056670904 0.13562304 0.035335977
-0.058682818 0.04052715 0.022291847 0.055115487 -0.2123175 0.065576896 0.23980616 -0.0031505006
-0.005560929 -0.0122531885 -0.045985464 0.14406566 0.04295266 0.028389795 0.021097051 0.13389926
0.04133151 -0.008129232 -0.18252 0.00934276 -0.05233486 -0.10263671 -0.037453808 -0.04044208
-0.22031362 0.17609172 -0.010725032 -0.20208757 0.010736835 0.016856825 0.10961828 -0.030061847
-0.009978796 -0.002518852 0.027255522 0.032518424 0.016443681 0.076197766 -0.16820347 -0.0050969175
0.11568173 -0.00096733816 -0.0025601448 0.00913345 0.018935286 0.0036898747 0.0030490318 0.057974983
0.07784266 -0.032717492 0.03309132 -0.098086804 -0.05874519 0.6509869 -0.04604859 -0.003154254
-0.023942206 0.029833168 0.100251 -0.2836962 -0.26711476 -0.023349125 0.32253018 0.0056249877
-0.080666944 0.07156617 -0.03751452 -0.16717696 -0.059704382 0.006202725 0.13819027 -0.17144799
0.13899438 0.24977721 0.027749138 -0.058233276 -0.023743069 0.0034087894 -0.031560604 -0.041358817
-0.022872685 0.03308641 0.0147592 -0.016460612 -0.022839144 0.02489718 -0.033338122 -0.025554154
0.15186433 0.08246621 -0.15736042 -0.014497999 -0.39766124 -0.20060878 0.015685614 0.055203576
-0.08952745 -0.015910804 -0.037894376 -0.0139328735 -0.1064426 -0.049592312 -0.05326772 0.10641688
0.090492785 0.013889771 -0.052094102 -0.024433073 -0.026459856 0.011812562 -0.063892104 0.0261965
00000000: a6f0 cbbd 829d abbd 1fbf 9e3d 68f5 143e
00000010: d890 5d3d eeba 0ebb 61d9 87be ee48 813d
00000020: db1d 88bd 3785 bbbd 57b7 2c3d 94ee 6bbd
00000030: 5d81 053e b330 f83c 375d e2bd c15d a1bb
00000040: 7a5c bf3c 9119 22bd a5c8 b8bd 998d 3bbd
00000050: 1ba1 6b3b 13e7 a3bd 431b 56be e98c caba
00000060: ba7b 42bd e048 a3bd f238 4d3c a714 753d
00000070: c446 c03b e0fa bebb d4c6 eabc 064c 663d
00000080: de7e 783d 2ced aebc 1521 63bc 9dcb 2bbd
00000090: 394f 38be 007d 003e e17a c63d 0c93 313e
000000a0: 5fda d4bd 571d 033d e9da b7bc d684 3bbd
000000b0: aa8d 87bd 121c bebd 2774 bcbd b315 e7bd
000000c0: c9cb 22bd fc27 c2bc 9e22 2cbe 4711 a1bd
000000d0: 7717 83bc d214 29bd f346 293d a2e3 a5bc
000000e0: 1015 16bc 08d5 46bd 567e 05bd 28b2 973d
000000f0: f5bf 003e f4d5 08bd 96bc 4c3d 82a2 74bd
00000100: 9af4 313d a8eb b13e af10 793d 1615 c2bd
00000110: 2336 793d 0e8f e7bd d683 833e b555 9ebd
00000120: 65fd 18bc 2118 0d3d b842 2bbe 4e7a 88bd
00000130: 08ff 5c3d 96ab 5cbc d5b6 0b3c f5c4 86bc
00000140: 5b12 81bc 2d33 dcbd 00b7 043e 5b73 013e
00000150: 201d 2cbe 2da2 193d 7dd3 693c c446 0cbd
00000160: cd18 ed3c b64e 6abd 3483 b2bc 8490 7abd
00000170: b3f2 4b3d 3ce0 843e 3da8 b0bc e0e3 01bb
00000180: 357f 2abe 4834 3e3d d64c c1be 542b f8bd
00000190: 97bf 723d 6b7f 083d 7424 e2bc c0b8 c0bd
000001a0: a1f5 55bd 9253 e73d e2d3 5cbd e81e d63c
000001b0: 7245 edbc b258 47bd b001 fe3c d552 e0bc
000001c0: a955 613d 0d88 70bd 8974 93bd f078 823c
000001d0: 1887 46be 2818 64bd 98aa 86be cec9 6a3c
000001e0: 797d 34bc eed2 27bd 8883 a03c eb2c 2d3c
000001f0: a715 2cbd ff8d 003e a2a4 003e 78f6 08bc
00000200: e649 61bd c027 c2bd 82ae 14bd 4daa 95be
00000210: cea3 973c c350 9b3d 5435 8ebd d624 d5bc
00000220: db74 8f3d d266 80be e910 4cbd 32b7 4ebd
00000230: e655 753d c01f 683d c4e0 0a3e 75bc 103d
00000240: 655d 70bd ccff 253d 649d b63c c7c0 613d
00000250: c269 59be 2e4d 863d bf8f 753e a178 4ebb
00000260: 7438 b6bb 99c1 48bc 415b 3cbd f385 133e
00000270: 21ef 2f3d b791 e83c b9d3 ac3c e31c 093e
00000280: 3b4b 293d 7830 05bc 86e6 3abe 6012 193c
00000290: 145d 56bd 3233 d2bd 2a69 19bd 98a6 25bd
000002a0: e599 61be 6351 343e 0bb8 2fbc 0bf0 4ebe
000002b0: 8de9 2f3c 5317 8a3c 8c7f e03d 4344 f6bc
000002c0: 1b7e 23bc 5313 25bb f946 df3c 0a32 053d
000002d0: e6b4 863c 930d 9c3d 883d 2cbe 0b04 a7bb
000002e0: 8bea ec3d f794 7dba 1ac8 27bb 77a4 153c
000002f0: 2c1e 9b3c d3d1 713b 44d2 473b 2d77 6d3d
00000300: f96b 9f3d c702 06bd c48a 073d bce1 c8bd
00000310: cc9e 70bd 14a7 263f 729d 3cbd 9ab7 4ebb
00000320: 7222 c4bc b064 f43c 6550 cd3d a140 91be
00000330: 44c3 88be aa46 bfbc ad22 a53e d151 b83b
00000340: b634 a5bd 4991 923d d3a8 19bd 7030 2bbe
00000350: 958c 74bd 3b40 cb3b c081 0d3e 1090 2fbe
00000360: 8b54 0e3e 99c5 7f3e 2952 e33c 0486 6ebd
00000370: d380 c2bc ff65 5f3b b145 01bd dd67 29bd
00000380: 7f5f bbbc 9e85 073d 92d0 713c 68d8 86bc
00000390: 2819 bbbc 2cf5 cb3c 8e8d 08bd f256 d1bc
000003a0: 5382 1b3e 0be4 a83d 1723 21be 0489 6dbc
000003b0: 419a cbbe 636c 4dbe 1e7f 803c 251d 623d
000003c0: 2b5a b7bd 6057 82bc 2237 1bbd b546 64bc
000003d0: 94fe d9bd 4f21 4bbd 412f 5abd 18f1 d93d
000003e0: 4854 b93d ec91 633c a060 55bd de27 c8bc
000003f0: 57c2 d8bc 7a89 413c ddd9 82bd 0b9a d63c

fcs1.bias f4 [256]
-0.08001659 -0.17349604 -0.07640893 -0.20952672 -0.07881029 -0.095923886 -0.21124627 -0.09772994
0.066816084 0.08549987 -0.23287146 0.08206433 -0.11008453 -0.026683528 0.022800798 0.121235006
-0.10904353 -0.102321796 -0.29279637 -0.18832697 -0.0034862529 -0.2147913 -0.123683035 0.12402757
-0.22411284 0.07741138 0.08805679 -0.016963417 -0.033717513 -0.12023152 -0.15715425 -0.16868132
-0.05329812 -0.27127442 -0.19207987 0.18154846 -0.13551314 -0.19131126 -0.09162285 0.019423876
-0.19231747 0.07318698 -0.045192305 0.09910317 0.06733071 -0.2247121 -0.045212176 -0.07762591
-0.023507724 -0.025156213 -0.1490102 -0.14096238 -0.14067532 -0.1817396 -0.1669336 -0.14228748
-0.036923412 -0.08874966 -0.16028027 0.016974432 -0.09532466 -0.06528501 -0.083377644 -0.09776275
-0.2149102 -0.18444051 0.1654978 -0.1819599 0.058532435 -0.18743472 -0.03890654 -0.25023296
-0.24464893 0.046400383 -0.10996435 0.10613679 -0.14870942 -0.058908656 -0.17520896 -0.05033709
0.10497793 -0.11607506 -0.17553528 0.031020194 -0.10733639 -0.056909148 -0.16984574 -0.27853057
-0.11985454 -0.15923795 -0.1665799 0.05159031 0.12700222 0.11448895 0.029808171 -0.039167777
-0.04075994 -0.29705128 -0.25448725 -0.049135532 -0.099026956 -0.1389638 0.11010322 -0.021955911
0.05657384 -0.13764182 -0.22316901 -0.043780368 0.07376463 0.008792752 0.23239453 -0.065013885
-0.0021807158 -0.29611823 0.08197055 -0.106742956 -0.1013132 -0.07678141 0.04342062 -0.13184595
-0.021289317 -0.076886445 -0.16450848 0.011029551 0.1274999 -0.066789515 -0.091836065 -0.14815919
-0.20004207 -0.1270881 -0.19770585 -0.1789519 -0.030132566 -0.015628548 -0.09766775 -0.093206376
-0.009523325 -0.16812685 -0.20587826 -0.015311132 -0.04971015 -0.1347447 0.0038912822 -0.11772697
-0.15497205 -0.08594673 0.038018256 -0.09979844 0.05103857 -0.16996965 -0.2581056 -0.1081424
-0.05154702 -0.10215305 -0.029602151 -0.10938343 -0.25805867 -0.10108224 -0.19859193 -0.14348117
-0.018045496 -0.19152856 -0.08220756 -0.022534879 -0.017935678 -0.13714409 -0.21900761 -0.17006262
-0.13535328 -0.08402812 0.070749775 0.052788433 -0.16071947 -0.14296956 -0.03229598 0.09843748
-0.18598604 -0.15356506 -0.22612235 -0.15726842 -0.12897651 -0.07310347 -0.05507878 -0.19364019
0.036753483 0.0014947951 0.014926862 -0.123476155 -0.32225707 -0.073788606 -0.05869908 0.050356332
0.09915428 -0.076842874 -0.06085718 -0.13697554 -0.026459252 -0.07247239 -0.24876373 0.09283526
0.0543912 0.020160785 0.0033440879 0.19048294 0.00045309484 -0.12198156 -0.22891328 -0.28440294
-0.107614286 -0.0043523894 -0.16830884 -0.08886519 -0.16952094 0.11583552 -0.16025445 -0.052640207
-0.11956047 -0.27078533 -0.18581532 0.013334192 -0.12992318 -0.23806944 -0.08845394 -0.16688336
-0.000108058186 -0.22882482 -0.19831075 -0.26071015 -0.12174954 0.024481876 -0.020789633 -0.12581131
-0.23270345 0.010520187 -0.07425271 -0.092382066 0.008546249 -0.00159358 -0.28121266 -0.085694835
-0.1783594 0.03268925 -0.13077918 -0.08643583 0.08451934 -0.19080226 0.054833286 -0.025478624
-0.14117593 0.080610074 -0.14569297 -0.2637044 -0.11788042 -0.050649095 -0.1732092 -0.15189892
00000000: bddf a3bd f2a8 31be 497c 9cbd 2c8e 56be
00000010: 4a67 a1bd be73 c4bd f150 58be a326 c8bd
00000020: dfd6 883d 8e1a af3d db75 6ebe 5811 a83d
00000030: 0074 e1bd 6a97 dabc bdc8 ba3c 0f4a f83d
00000040: 3752 dfbd 178e d1bd 68e9 95be c9d8 40be
00000050: 9e79 64bb 40f2 5bbe 884d fdbd 2b02 fe3d
00000060: d67d 65be dc89 9e3d 1e57 b43d ddf6 8abc
00000070: 601b 0abd f13b f6bd 0bed 20be ccba 2cbe
00000080: 214f 5abd 7be4 8abe 96b0 44be d7e7 393e
00000090: f5c3 0abe 19e7 43be c3a4 bbbd d21e 9f3c
000000a0: dfee 44be 0ee3 953d 911b 39bd 9af6 ca3d
000000b0: afe4 893d ee1a 66be 6730 39bd 55fa 9ebd
000000c0: 4593 c0bc 6714 cebc 2196 18be 7158 10be
000000d0: 310d 10be f219 3abe a4f0 2abe cfb3 11be
000000e0: 013d 17bd 62c2 b5bd 8320 24be f70d 8b3c
000000f0: 9339 c3bd 26b4 85bd e6c1 aabd d637 c8bd
00000100: 6b11 5cbe f9dd 3cbe 4178 293e b253 3abe
00000110: b5bf 6f3d e3ee 3fbe 775c 1fbd 891e 80be
00000120: 4085 7abe 540e 3e3d fd34 e1bd 3f5e d93d
00000130: 4847 18be 344a 71bd fa69 33be 442e 4ebd
00000140: abfe d63d c3b8 edbd 85bf 33be 101e fe3c
00000150: 2ed3 dbbd 9119 69bd 0bec 2dbe 8f9b 8ebe
00000160: 4c76 f5bd 460f 23be ec93 2abe 5c50 533d
00000170: df0c 023e 2f79 ea3d 4430 f43c 646e 20bd
00000180: e5f3 26bd 1b17 98be 274c 82be 5742 49bd
00000190: a5ce cabd 874c 0ebe cc7d e13d e2dc b3bc
000001a0: f9b9 673d faf1 0cbe 6b86 64be 0b53 33bd
000001b0: e911 973d 7a0f 103c d5f8 6d3e 0026 85bd
000001c0: 57ea 0ebb cf9c 97be 2de0 a73d 0d9c dabd
000001d0: 4c7d cfbd 923f 9dbd d2d9 313d a002 07be
000001e0: ef66 aebc a476 9dbd e974 28be 4ab5 343c
000001f0: 558f 023e f1c8 88bd 8c14 bcbd 0bb7 17be
00000200: d4d7 4cbe 6223 02be 6773 4abe 2b3f 37be
00000210: 92d8 f6bc 7107 80bc 0806 c8bd fce2 bebd
00000220: b807 1cbc 7229 2cbe c0d1 52be 8bdb 7abc
00000230: df9c 4bbd 84fa 09be e204 7f3b d61a f1bd
00000240: feb0 1ebe d704 b0bd 08b9 1b3d 2063 ccbd
00000250: d20d 513d 860c 2ebe 6b26 84be c379 ddbd
00000260: f822 53bd 9e35 d1bd 3680 f2bc 6b04 e0bd
00000270: 4420 84be 3504 cfbd af5b 4bbe baec 12be
00000280: 26d4 93bc 1020 44be 705c a8bd 119b b8bc
00000290: d8ed 92bc 806f 0cbe 8843 60be e524 2ebe
000002a0: 0d9a 0abe ef16 acbd 42e5 903d af38 583d
000002b0: a593 24be 9d66 12be ca48 04bd 9799 c93d
000002c0: 2073 3ebe 2940 1dbe 9e8c 67be f90a 21be
000002d0: 6b12 04be 46b7 95bd 499a 61bd 9d49 46be
000002e0: d28a 163d 00ed c33a cc8f 743c 11e1 fcbd
000002f0: e1fe a4be 7b1e 97bd 726e 70bd 7142 4e3d
00000300: 6611 cb3d cc5f 9dbd 6145 79bd 5143 0cbe
00000310: 13c1 d8bc 686c 94bd ebbb 7ebe 6a20 be3d
00000320: 4fc9 5e3d 3b28 a53c 7c28 5b3b f60d 433e
00000330: 5c8d ed39 78d1 f9bd 3e68 6abe 439d 91be
00000340: e164 dcbd 7d9e 8ebb 2759 2cbe f4fe b5bd
00000350: e696 2dbe 2c3b ed3d be19 24be 429d 57bd
00000360: 1fdc f4bd 60a4 8abe 5f46 3ebe a877 5a3c
00000370: 950a 05be 7ac8 73be 5727 b5bd 79e3 2abe
00000380: 4c9d e2b8 0e51 6abe f911 4bbe cd7b 85be
00000390: d357 f9bd 378e c83c 054f aabc aed4 00be
000003a0: d049 6ebe dd5c 2c3c ce11 98bd cf32 bdbd
000003b0: 9105 0c3c acdf d0ba 1bfb 8fbe c680 afbd
000003c0: d9a3 36be 2ae5 053d faea 05be 4505 b1bd
000003d0: 7a18 ad3d ab61 43be de98 603d 8cb8 d0bc
000003e0: 6c90 10be e516 a53d 8a30 15be 4304 87be
000003f0: 4a6b f1bd 6d75 4fbd c15d 31be 648b 1bbe

fc2.weight f4 [256, 260]
-0.07492622 0.026184022 -0.0065642395 0.09435032 -0.038176797 -0.05165191 0.09130723 -0.035853643
0.069012195 -0.075469285 0.0637663 0.09408159 -0.057340372 -0.06905301 -0.12009409 0.0663045
-0.15663737 -0.0825194 -0.014884899 0.07891272 0.0690379 -0.0050259302 -0.06988132 -0.02972945
0.05859447 -0.023170544 0.089715205 -0.022446979 0.03491824 -0.11034981 -0.119690455 -0.051263623
0.12925398 -0.101092696 -0.114740595 -0.067539975 -0.04442553 -0.01190734 -0.08268118 -0.022979965
-0.08404616 -0.011729577 0.025513 -0.033987984 -0.07684186 0.094684 0.03991422 -0.061902232
0.12899262 -0.18587798 -0.13342117 0.14563277 -0.037345354 -0.019179612 -0.07037587 -0.024614003
-0.038409077 -0.020719288 0.058097024 -0.09165403 0.06078202 -0.09763821 -0.012465522 0.047779646
0.059655994 0.07600151 -0.16630359 -0.04611357 0.012521977 -0.0008146956 0.013627368 0.074481085
-0.047090586 -0.060071256 0.03129226 -0.18858159 -0.02145833 -0.01730832 -0.1529902 -0.07300186
0.023808038 0.007044947 0.026530823 0.026717318 -0.033904403 -0.071616404 -0.113371015 -0.12569776
0.037547 -0.004078169 -0.03944015 -0.0057125306 0.012998114 -0.015978785 0.00828154 0.044251386
0.07021163 -0.017220914 -0.021038001 -0.10959695 0.06278132 0.0949438 0.05099062 0.040571496
0.041281372 0.021145118 -0.05852202 0.09221071 0.09936887 0.0046632686 0.037014443 0.09173633
0.029342376 -0.1908144 -0.035273056 -0.089239575 -0.09149994 -0.09281598 0.016816303 0.13755442
0.067380615 -0.102788605 0.011027733 -0.044250548 0.05335472 0.0014717195 -0.03290208 -0.12746285
0.037111435 -0.028226515 0.015852854 -0.15005872 6.444038e-05 -0.14581208 0.0594988 -0.08201184
-0.08034729 0.0043593943 0.027041 -0.059296038 0.014453793 0.021965425 -0.009432738 -0.21291386
0.030479135 0.016245887 0.0027688828 0.11670084 0.068192065 -0.09322133 -0.090875104 -0.059437055
-0.06621485 0.07943175 -0.12573819 0.013443376 -0.021978822 -0.0046814084 0.057057988 0.0036808092
-0.021665469 0.020076463 0.090145536 -0.020836983 0.023938848 0.042600807 -0.18487123 0.036160756
0.10236522 0.06634971 0.13268155 -0.086873926 0.043753315 0.031232066 0.061940473 -0.024068682
-0.09972332 -0.041405242 0.08167717 -0.0006651421 -0.06813888 0.09673207 0.0900973 -0.12392596
-0.0041568778 -0.143087 -0.041336846 -0.15570535 -0.08296094 -0.024206951 -0.063650034 0.08192454
-0.10733317 -0.017631896 0.070103996 0.07949314 -0.08830427 -0.0072498103 -0.009565691 0.024714341
-0.021868927 -0.018329218 -0.025817152 -0.078449056 -0.004121682 -0.11186882 -0.04643972 0.073024005
0.039696537 0.08388414 0.056045923 -0.09779843 0.064227685 0.09267048 -0.012681098 -0.007550796
-0.0015064214 -0.102258496 0.07271776 0.017891802 -0.08532152 -0.16463041 0.08704233 -0.104541816
-0.04972606 0.053982653 -0.14005804 -0.1407332 -0.03935053 -0.09194419 0.046985723 0.09535485
-0.0862738 -0.106905736 0.056553334 0.0071194684 -0.042446334 -0.12994355 -0.067927696 -0.045487516
-0.016219426 -0.050724804 -0.06149449 -0.071248285 -0.07476741 -0.002360044 -0.11449634 -0.03780944
0.05719394 0.06645399 -0.05526425 -0.07612679 -0.014263865 -0.12191587 0.0052369284 -0.08138345
00000000: eb72 99bd e07f d63c d518 d7bb be3a c13d
00000010: 465f 1cbd f490 53bd 49ff ba3d 45db 12bd
00000020: 4456 8d3d a48f 9abd e897 823d d9ad c03d
00000030: bddd 6abd aa6b 8dbd e4f3 f5bd a7ca 873d
00000040: 8c65 20be eeff a8bd cbdf 73bc fe9c a13d
00000050: be63 8d3d 8fb0 a4bb f01d 8fbd 2d8b f3bc
00000060: c100 703d 27d0 bdbc 9bbc b73d bae2 b7bc
00000070: 6e06 0f3d 15ff e1bd 4520 f5bd cef9 51bd
00000080: 285b 043e b009 cfbd 1efd eabd 6652 8abd
00000090: 8bf7 35bd 0117 43bc c054 a9bd 7b40 bcbc
000000a0: 6520 acbd 692d 40bc a400 d13c fc36 0bbd
000000b0: 445f 9dbd afe9 c13d 187d 233d 328d 7dbd
000000c0: a416 043e cc56 3ebe 8f9f 08be c220 153e
000000d0: 71f7 18bd 901e 9dbc 3921 90bd 4ea3 c9bc
000000e0: d652 1dbd 7fbb a9bc 25f7 6d3d 1cb5 bbbd
000000f0: 91f6 783d 8bf6 c7bd 303c 4cbc 97b4 433d
00000100: d859 743d aea6 9b3d 7d4b 2abe 95e1 3cbd
00000110: fa28 4d3c 4c91 55ba 5345 5f3c 8a89 983d
00000120: 0fe2 40bd 470d 76bd 502c 003d 881b 41be
00000130: 61c9 afbc 2eca 8dbc 77a9 1cbe 0082 95bd
00000140: 1309 c33c 4cd9 e63b 2b57 d93c 47de da3c
00000150: 58df 0abd 9fab 92bd 102f e8bd eab6 00be
00000160: e2ca 193d 29a2 85bb ff8b 21bd 2e30 bbbb
00000170: 0bf6 543c f1e5 82bc 4caf 073c f140 353d
00000180: 1dcb 8f3d e012 8dbc e357 acbc 5e74 e0bd
00000190: 7e93 803d e571 c23d 8adb 503d 4c2e 263d
000001a0: a816 293d 8738 ad3c c9b4 6fbd f8d8 bc3d
000001b0: e881 cb3d 55ce 983b 759c 173d 42e0 bb3d
000001c0: 6c5f f03c da64 43be 7b7a 10bd 3dc3 b6bd
000001d0: 5264 bbbd 4e16 bebd 58c2 893c 11db 0c3e
000001e0: d9fe 893d d582 d2bd aaad 343c 1040 35bd
000001f0: 7b8a 5a3d b6e6 c03a 55c4 06bd 9f85 02be
00000200: 2902 183d 4b3b e7bc d8dd 813c fea8 19be
00000210: 2a24 8738 c34f 15be 04b5 733d d3f5 a7bd
00000220: 1f8d a4bd 40d9 8e3b 1685 dd3c 67e0 72bd
00000230: 9acf 6c3c d6f0 b33c c58b 1abc 1706 5abe
00000240: 61af f93c 1816 853c 2576 353b da00 ef3d
00000250: 48a8 8b3d d3ea bebd ba1c babd 4574 73bd
00000260: a79b 87bd 1dad a23d 83c1 00be 9b41 5c3c
00000270: ee0c b4bc 8066 99bb a3b5 693d bb39 713b
00000280: c87b b1bc 6577 a43c 399e b83d 52b2 aabc
00000290: 671b c43c 2f7e 2e3d e24e 3dbe 4d1d 143d
000002a0: dba4 d13d 5be2 873d acdd 073e f5ea b1bd
000002b0: ad36 333d 64da ff3c 4bb5 7d3d af2b c5bc
000002c0: bd3b ccbd 8b98 29bd 5c46 a73d ee5c 2eba
000002d0: 668c 8bbd 771b c63d ef84 b83d e5cc fdbd
000002e0: 6b36 88bb 6685 12be d350 29bd 3971 1fbe
000002f0: 6de7 a9bd a84d c6bc f35a 82bd 0ec8 a73d
00000300: 7ed1 dbbd c470 90bc af92 8f3d 4dcd a23d
00000310: ded8 b4bd d18f edbb 6bb9 1cbc bb75 ca3c
00000320: 7726 b3bc 2827 96bc 7e7e d3bc e6a9 a0bd
00000330: 2d0f 87bb 7b1b e5bd 9337 3ebd 9c8d 953d
00000340: d698 223d 73cb ab3d 6990 653d 8b4a c8bd
00000350: ce89 833d 05ca bd3d 61c4 4fbc ab6c f7bb
00000360: 1d73 c5ba e76c d1bd 0ded 943d d491 923c
00000370: 0dbd aebd e094 28be 4043 b23d 051a d6bd
00000380: 8ead 4bbd ea1c 5d3d 606b 0fbe 5d1c 10be
00000390: 052e 21bd 3c4d bcbd 1a74 403d 6749 c33d
000003a0: 51b0 b0bd 65f1 dabd 78a4 673d 6e4a e93b
000003b0: 35dc 2dbd ec0f 05be ad1d 8bbd 1e51 3abd
000003c0: 9ade 84bc d0c4 4fbd a5e1 7bbd 9fea 91bd
000003d0: a81f 99bd f8aa 1abb 0f7d eabd 12de 1abd
000003e0: 3144 6a3d 0819 883d c45c 62bd 5de8 9bbd
000003f0: fcb2 69bc 07af f9bd 8a9a ab3b 5eac a6bd

fc2.bias f4 [256]
-0.1357193 -0.020249436 -0.006547201 -0.0473245 -0.09827123 -0.06985923 0.077819645 -0.1542354
-0.1231544 -0.21431065 -0.09877911 -0.15395707 -0.13103984 0.010403821 -0.08401934 -0.12242749
-0.074019775 -0.1077058 -0.070228875 -0.17290047 -0.112057395 -0.13498633 -0.13784918 -0.1287767
0.012939261 -0.005567959 -0.06401206 -0.13246243 -0.123309284 0.09553535 -0.1277058 -0.0073794993
-0.05123028 -0.112456396 0.0015232473 0.025809443 -0.10848235 -0.022710582 -0.13834578 -0.1366709
-0.13147627 -0.15196438 -0.05721985 0.049888395 -0.14535855 -0.15540022 -0.18603642 -0.14157404
-0.014854332 -0.23815535 0.017925493 0.057863977 -0.051680945 -0.05444068 0.016192526 0.045196664
-0.054045733 -0.003989913 0.0685527 -0.087916195 -0.10936434 -0.09258796 0.029137176 -0.14881319
0.009083311 -0.12061252 0.013671288 -0.19299893 -0.12672935 -0.06972166 -0.16747528 -0.12012423
-0.034546852 -0.042070076 0.03559721 0.08851642 -0.18994483 -0.0863971 -0.1426654 -0.07987226
-0.037851963 -0.15662473 -0.113200516 -0.17225663 -0.077459574 -0.07032711 -0.11083033 -0.027148454
-0.1004456 -0.0027185252 -0.082998656 -0.059015833 -0.09960789 -0.028771374 -0.018716527 -0.13917385
-0.10390544 0.022422018 -0.1110875 0.0017832227 -0.12672004 -0.11779172 -0.0993451 -0.17068264
-0.1574887 -0.020042265 0.029478472 -0.041406725 -0.04870399 -0.18232028 -0.07616745 -0.046090465
-0.12620689 -0.15900393 -0.070626736 0.023857152 -0.16208255 -0.13896441 -0.009612047 -0.04118453
-0.15201151 -0.111410774 -0.1584152 -0.10270012 -0.123178676 -0.06979756 -0.14705993 -0.114018045
-0.13964784 -0.1130127 -0.11486282 -0.13471077 -0.17980637 -0.12724431 -0.0949667 -0.1078477
-0.17560975 -0.06863679 -0.1734197 -0.12804396 0.018554706 -0.11490569 -0.13820061 -0.07937655
-0.1907661 -0.08064011 -0.065163076 -0.023808137 -0.14059786 -0.11740898 -0.09281547 -0.16132754
-0.072992265 -0.2615017 -0.091055006 -0.010835673 -0.08641841 -0.040909108 -0.11545785 -0.19562277
-0.10774084 -0.08866411 -0.030537944 -0.05831863 -0.11826551 -0.07246176 -0.11237142 -0.23368903
-0.17326435 -0.17193441 -0.10809338 0.045643263 -0.00085994496 -0.1251301 -0.16104399 -0.06690647
-0.08903257 -0.03534503 -0.04955691 -0.1466913 -0.10430785 -0.03901984 -0.12148604 -0.045695502
-0.081260204 -0.12911882 -0.0832516 -0.16917503 -0.12121916 -0.11813544 0.0017291718 -0.055756275
-0.1344239 0.013290142 -0.08533029 -0.14420788 -0.22714175 0.01306197 -0.0851142 -0.04896721
0.006541593 -0.115041606 -0.10087538 -0.12064253 -0.09370333 0.048683744 -0.028585965 -0.051415313
-0.2293717 -0.101263724 0.048044864 0.013215571 -0.095046744 -0.09097224 -0.024886986 -0.12213866
0.0033406268 -0.09705848 -0.10251932 -0.065097325 -0.10054698 -0.15280269 -0.0910566 -0.121888064
-0.1652681 -0.11255554 0.0076979324 -0.087822095 -0.0561218 -0.16259007 0.024910318 -0.10457643
-0.19735163 0.07864237 -0.18947999 -0.036384996 -0.13331324 -0.0086273365 0.081334755 -0.1423115
-0.0919229 0.044414677 -0.10872707 0.04335187 -0.17593858 -0.12506549 -0.16071427 0.033146426
-0.10719943 -0.16416167 -0.17092252 -0.12176141 0.064683706 -0.08352914 -0.15811025 -0.09322889
00000000: 00fa 0abe 25e2 a5bc e789 d6bb 56d7 41bd
00000010: 6d42 c9bd 5b12 8fbd e85f 9f3d e2ef 1dbe
00000020: 6038 fcbd 4074 5bbe b44c cabd eca6 1dbe
00000030: 4f2f 06be ca74 2a3c 5512 acbd 44bb fabd
00000040: ae97 97bd dc94 dcbd 28d4 8fbd d20c 31be
00000050: 597e e5bd db39 0abe 5628 0dbe 0ade 03be
00000060: 32ff 533c 6d73 b6bb c118 83bd 3ba4 07be
00000070: 9489 fcbd 0aa8 c33d 4fc5 02be bacf f1bb
00000080: d8d6 51bd 8a4f e6bd b3a7 c73a 536e d33c
00000090: ff2b debd 8b0b babc 84aa 0dbe 75f3 0bbe
000000a0: b7a1 06be 8d9c 1bbe 5d5f 6abd c657 4c3d
000000b0: dfd8 14be 3c21 1fbe 5580 3ebe c9f8 10be
000000c0: 965f 73bc ffde 73be 7cd8 923c c702 6d3d
000000d0: 66af 53bd 31fd 5ebd 30a6 843c 2320 393d
000000e0: 0f5f 5dbd d1bd 82bb 5c65 8c3d 680d b4bd
000000f0: 69fa dfbd c29e bdbd 16b1 ee3c 7c62 18be
00000100: 2bd2 143c b203 f7bd 8afd 5f3c 83a1 45be
00000110: 57c5 01be 3bca 8ebd a47e 2bbe b103 f6bd
00000120: 0081 0dbd ac51 2cbd 61ce 113d 1948 b53d
00000130: e680 42be f6f0 b0bd e116 12be 1194 a3bd
00000140: a90a 1bbd 3c62 20be acd5 e7bd 0b64 30be
00000150: 20a3 9ebd a907 90bd 03fb e2bd 6f66 debc
00000160: 6cb6 cdbd 4929 32bb 33fb a9bd 96ba 71bd
00000170: 39ff cbbd f2b1 ebbc 6753 99bc 9783 0ebe
00000180: 60cc d4bd 61ae b73c d881 e3bd 06bb e93a
00000190: e6c2 01be c93c f1bd 7275 cbbd 6ec7 2ebe
000001a0: b844 21be ad2f a4bc d67c f13c 199a 29bd
000001b0: d67d 47bd 2bb2 3abe aefd 9bbd 5bc9 3cbd
000001c0: 613c 01be edd1 22be c0a4 90bd 1370 c33c
000001d0: f8f8 25be b04c 0ebe d97b 1dbc 1cb1 28bd
000001e0: e8a8 1bbe 552b e4bd 9837 22be 7154 d2bd
000001f0: 1a45 fcbd 06f2 8ebd e196 16be 4b82 e9bd
00000200: d8ff 0ebe 3473 e7bd 333d ebbd 9ff1 09be
00000210: 291f 38be 554c 02be e77d c2bd 41df dcbd
00000220: 0bd3 33be 7291 8cbd ef94 31be f51d 03be
00000230: 0a00 983c ad53 ebbd 7684 0dbe 2c90 a2bd
00000240: 3058 43be a426 a5bd 3874 85bd 4809 c3bc
00000250: e3f8 0fbe 1f74 f0bd 0a16 bebd 0c33 25be
00000260: f87c 95bd 8de3 85be 0c7b babd 1b88 31bc
00000270: 23fc b0bd 4f90 27bd 2a75 ecbd 5651 48be
00000280: 3ba7 dcbd 8795 b5bd b62a fabc 84df 6ebd
00000290: 3035 f2bd d566 94bd fd22 e6bd 2d4c 6fbe
000002a0: 366c 31be 930f 30be 1060 ddbd 6ef4 3a3d
000002b0: ee6d 61ba 1b22 00be b7e8 24be 4206 89bd
000002c0: b556 b6bd f3c5 10bd 30fc 4abd 3f36 16be
000002d0: 5b9f d5bd 45d3 1fbd accd f8bd 352b 3bbd
000002e0: c06b a6bd b937 04be d17f aabd 383c 2dbe
000002f0: c041 f8bd fef0 f1bd 61a5 e23a b160 64bd
00000300: 6ba6 09be e5be 593c a6c1 aebd 3bab 13be
00000310: d997 68be df01 563c 5b50 aebd d791 48bd
00000320: dc5a d63b ef9a ebbd c097 cebd 6e13 f7bd
00000330: 88e7 bfbd 9b68 473d 1d2d eabc dd98 52bd
00000340: 6ae0 6abe 5b63 cfbd b1ca 443d 1f86 583c
00000350: dea7 c2bd a74f babd cbdf cbbc d523 fabd
00000360: 6bee 5a3b 99c6 c6bd a6f5 d1bd bf51 85bd
00000370: 93eb cdbd 4f78 1cbe e27b babd 73a0 f9bd
00000380: 0a3c 29be 8583 e6bd f03e fc3b 12dc b3bd
00000390: f9df 65bd 037e 26be b910 cc3c 2b2c d6bd
000003a0: 8c16 4abe 400f a13d 0b07 42be 6f08 15bd
000003b0: 4483 08be ac59 0dbc d692 a63d 1bba 11be
000003c0: 1342 bcbd 2aec 353d 4cac debd bb91 313d
000003d0: 3e29 34be 2b11 00be 4892 24be 8cc4 073d
000003e0: 608b dbbd ff19 28be 5006 2fbe 0c5e f9bd
000003f0: e478 843d 5311 abbd a7e7 21be caee bebd

fc3.weight f4 [1, 256]
-0.071757905 0.06901801 0.043308653 0.049866635 -0.05955733 0.06500414 0.048391353 -0.13269101
-0.051586743 -0.10897509 0.07242364 -0.052548375 -0.121506706 0.07554851 0.06909697 -0.09413689
-0.0712562 -0.09799074 0.06525118 -0.0713612 0.12694539 -0.08712111 -0.06413165 -0.096790664
0.08188831 0.053722303 0.04930431 -0.12259902 -0.07785613 0.035135217 -0.1084609 0.06581551
-0.05546348 -0.095711716 0.1015802 0.035386134 -0.11129643 0.064051114 -0.06348011 0.07186692
0.087902114 -0.09362511 0.04320376 0.03357858 -0.072688 -0.16160586 -0.051701676 -0.051911946
0.027301654 -0.2555427 0.04278072 0.032708917 0.048995323 0.11939321 0.038447764 0.047946326
0.058779765 0.062153704 0.05576021 -0.17288303 -0.11917034 -0.1287111 0.05394009 -0.07362863
0.05340953 -0.092928626 0.048749413 -0.0747201 0.086311534 -0.053852174 -0.07000829 -0.086595684
0.052891828 0.07766891 0.066375874 0.03647575 -0.0765041 -0.08615376 0.10350705 -0.077016264
0.03822282 -0.050231457 -0.06337277 -0.10792474 0.075263485 -0.09593316 0.10767371 0.066342354
0.15036812 0.0837349 0.087476365 0.0792288 -0.0984656 0.030193541 0.056720234 -0.09901807
0.098950185 0.04922099 -0.12981479 0.046716236 -0.078162655 0.05275142 -0.0871652 -0.08290891
-0.15573063 0.08834446 0.03174018 0.07316451 0.07905322 -0.11173282 -0.07482667 0.058880176
-0.047409203 -0.14862476 0.06601844 0.04007766 -0.084118776 0.07142672 0.072829865 0.083224125
-0.11474833 0.080738746 -0.10629858 -0.13248506 0.051654823 0.06830846 -0.049210016 -0.13212653
-0.079717316 -0.090642735 -0.060498185 -0.047424313 -0.09304962 -0.05494852 -0.070047766 0.12245208
-0.07992623 -0.08212049 -0.13810514 0.103561774 0.03399762 0.089671545 0.12412293 0.09483077
0.13396068 -0.07489135 0.078215204 0.057165235 -0.060294133 -0.1046299 -0.096985705 -0.091515645
-0.06590159 -0.10990182 -0.07815467 0.041716274 -0.104650475 0.06191409 -0.079099946 -0.120316885
-0.07376689 -0.10622938 0.06181888 -0.11905549 -0.09696079 0.06170288 -0.058871415 -0.147697
-0.10944408 -0.15366004 -0.0607679 0.045493938 0.07326207 -0.06953596 -0.12348646 0.059412472
-0.1001988 0.054910254 0.051974047 -0.11642771 0.20500708 0.08176861 0.10871717 0.054812044
0.09893891 -0.07332213 -0.076393045 -0.12047641 -0.07312627 -0.072778076 0.050337344 -0.07946282
-0.083971255 0.03721087 -0.13550244 -0.10524439 0.23930375 0.054900497 -0.056588873 0.13070378
0.056486033 0.07749543 0.09038414 -0.069254965 -0.118193895 0.04404722 0.05636069 -0.06302328
-0.049657 -0.09441362 0.043204777 0.05234346 0.07760858 0.07848215 0.05133313 -0.12449193
0.06306115 0.045786165 0.07775531 -0.05371567 -0.09830999 -0.060871135 0.18974106 -0.0833537
-0.10107933 0.059475105 0.03902332 -0.05487002 0.05103449 -0.12438577 0.058285996 0.06095644
-0.094215736 0.056720108 -0.09538997 0.061278958 -0.2325338 0.037716497 0.06141003 -0.07625845
-0.13311219 0.03930553 0.063285775 0.04528688 -0.11220974 -0.0487647 -0.083328456 0.052710447
-0.061832644 -0.07382428 -0.09063269 -0.06111699 0.043866947 -0.058601614 -0.1162686 0.14618571
00000000: cff5 92bd 5059 8d3d 6a64 313d f540 4c3d
00000010: 63f2 73bd e420 853d 0336 463d 27e0 07be
00000020: 9f4c 53bd 552e dfbd d852 943d f73c 57bd
00000030: 82d8 f8bd 2db9 9a3d b682 8d3d d7ca c0bd
00000040: c5ee 91bd 5eaf c8bd 69a2 853d d225 92bd
00000050: f9fd 013e 8d6c b2bd 7457 83bd 2f3a c6bd
00000060: 0fb5 a73d eb0b 5c3d 51f3 493d 3215 fbbd
00000070: 0973 9fbd f2e9 0f3d c020 debd 48ca 863d
00000080: ad2d 63bd 8104 c4bd 4809 d03d 0df1 103d
00000090: 62ef e3bd 3b2d 833d dc01 82bd f72e 933d
000000a0: 0606 b43d 86be bfbd 6df6 303d b189 093d
000000b0: 72dd 94bd 027c 25be 23c5 53bd 9fa1 54bd
000000c0: b8a7 df3c 7ed6 82be d63a 2f3d c9f9 053d
000000d0: 52af 483d 6d84 f43d 677b 1d3d 5e63 443d
000000e0: 0dc3 703d e294 7e3d d164 643d 4008 31be
000000f0: 940f f4bd d8cc 03be 49f0 5c3d 9bca 96bd
00000100: f4c3 5a3d 5d51 bebd 77ad 473d da06 99bd
00000110: 1ac4 b03d 1994 5cbd 8260 8fbd 1459 b1bd
00000120: 1aa5 583d e110 9f3d 13f0 873d 9967 153d
00000130: 2eae 9cbd 6271 b0bd 81fb d33d b4ba 9dbd
00000140: 888f 1c3d 80bf 4dbd 95c9 81bd a507 ddbd
00000150: be23 9a3d 9b78 c4bd 0984 dc3d 80de 873d
00000160: 1afa 193e 347d ab3d cf26 b33d b642 a23d
00000170: 55a8 c9bd 7258 f73c 7a53 683d fcc9 cabd
00000180: 65a6 ca3d f39b 493d 2bee 04be 8659 3f3d
00000190: be13 a0bd df11 583d ab83 b2bd 26cc a9bd
000001a0: da77 1fbe f1ed b43d fe01 023d 46d7 953d
000001b0: a8e6 a13d 2dd4 e4bd ba3e 99bd 572c 713d
000001c0: 2730 42bd 1731 18be ad34 873d 7928 243d
000001d0: 7746 acbd 2c48 923d d327 953d 6971 aa3d
000001e0: 2c01 ebbd 5b5a a53d 12b3 d9bd 2aaa 07be
000001f0: 0294 533d 4ee5 8b3d 7190 49bd 2d4c 07be
00000200: d542 a3bd e6a2 b9bd f2cc 77bd ff3f 42bd
00000210: cd90 bebd b311 61bd 3475 8fbd 28c8 fa3d
00000220: 5db0 a3bd ca2e a8bd 6f6b 0dbe 3218 d43d
00000230: 1741 0b3d b7a5 b73d 2a34 fe3d a236 c23d
00000240: fd2c 093e a360 99bd 4b2f a03d 1826 6a3d
00000250: fbf6 76bd 3348 d6bd 71a0 c6bd 8e6c bbbd
00000260: 6af7 86bd 3514 e1bd 8e0f a0bd afde 2a3d
00000270: fd52 d6bd a199 7d3d 27ff a1bd b368 f6bd
00000280: 1813 97bd ca8e d9bd cb35 7d3d 5dd3 f3bd
00000290: 6193 c6bd 29bc 7c3d 2723 71bd e23d 17be
000002a0: 3824 e0bd 0f59 1dbe c3e7 78bd da57 3a3d
000002b0: 6d0a 963d df68 8ebd 78e6 fcbd 7e5a 733d
000002c0: 0735 cdbd 93e9 603d bde2 543d a771 eebd
000002d0: 60ed 513e 4d76 a73d 1ca7 de3d 9882 603d
000002e0: 7ca0 ca3d ea29 96bd f573 9cbd 56bc f6bd
000002f0: 3ac3 95bd ac0c 95bd 882e 4e3d 67bd a2bd
00000300: 1ff9 abbd 6d6a 183d 27c1 0abe 5f8a d7bd
00000310: 0b0c 753e 58df 603d bcc9 67bd 36d7 053e
00000320: e65d 673d edb5 9e3d 521b b93d 8cd5 8dbd
00000330: a40f f2bd dc6a 343d 78da 663d 5912 81bd
00000340: 2365 4bbd ee5b c1bd 7ef7 303d 1966 563d
00000350: 3ff1 9e3d 40bb a03d b042 523d a0f5 febd
00000360: 3426 813d 468a 3b3d 2d3e 9f3d f604 5cbd
00000370: bf56 c9bd 0354 79bd 7b4b 423e 58b5 aabd
00000380: ae02 cfbd 2b9c 733d ebd6 1f3d 63bf 60bd
00000390: 8b09 513d f7bd febd 4cbd 6e3d 76ad 793d
000003a0: 2ef4 c0bd 5853 683d d15b c3bd a5ff 7a3d
000003b0: 571d 6ebe 9d7c 1a3d 1589 7b3d 642d 9cbd
000003c0: 904e 08be d6fe 203d f99b 813d bc7e 393d
000003d0: 38ce e5bd 7ebd 47bd 1ca8 aabd e9e6 573d
000003e0: 3a44 7dbd 2f31 97bd a29d b9bd cf55 7abd
000003f0: d4ad 333d 3f08 70bd 3b1e eebd b5b1 153e

bn.weight f4 [256]
0.17200173 0.59586537 0.5136638 0.83020586 0.49219152 0.86865956 0.5067648 0.3817239
0.6208134 0.44267842 0.8152183 0.6470266 0.39262557 0.57292503 0.35910028 0.5021437
0.7376081 0.5100453 0.56763 0.5700313 0.15546687 0.67998564 0.71325445 0.6924542
0.4689648 0.8468315 0.29239395 0.7302898 0.44152322 0.8408761 0.30090514 0.6330352
0.15041715 0.8602708 0.58788174 0.5242779 0.5572131 0.6798732 0.29631332 0.68239397
0.36544442 0.5392986 0.34370112 0.55777186 0.60615647 0.48810068 0.66738456 0.3954757
0.19757353 0.82861495 0.45536798 0.69389427 0.643889 0.540572 0.5738093 0.40358713
0.30980974 0.43809545 0.30389026 0.21061547 0.63870394 0.24176086 0.5639743 0.5652778
0.66195625 0.7984882 0.63775957 0.47688642 0.10174225 0.32823882 0.55378544 0.32790723
0.7644088 0.717397 0.9398342 0.62432414 0.382234 0.72666186 0.7101595 0.6463826
0.63815707 0.3095335 0.6099845 0.6725506 0.33423895 0.6869785 0.71244544 0.5720063
0.5499504 0.24279605 0.3667992 0.26708904 0.6593239 0.3530534 0.1079111 0.6696358
0.6647897 0.5854794 0.29217464 0.377686 0.2909611 0.18097952 0.78553516 0.17112075
0.5545684 0.7203755 0.686334 0.5559133 0.52339095 0.38611683 0.3038122 0.41988534
0.7777514 0.43781787 0.46789563 0.25288227 0.3507391 0.64715517 0.78950685 0.09477668
0.6111405 0.79911405 0.39462614 0.41855252 0.39015755 0.58824533 0.3744548 0.8213178
0.36011177 0.6974939 0.6047047 0.913759 0.55213404 0.7329731 0.28815442 0.6545819
0.6214402 0.6796003 0.49269316 0.5555956 0.71657604 -0.30672184 0.41928923 0.59224683
0.4789016 0.6285856 0.638038 0.65747243 0.5895395 0.59334964 0.74477845 0.71643054
0.7705275 0.35477167 0.562193 0.20119764 0.23515117 0.5269206 0.8449592 0.4532987
0.6336864 0.62378 0.5884154 0.40323895 0.32918364 0.55638903 0.25888577 0.41594824
0.39041448 0.38808483 0.27515644 0.49609518 0.6200247 0.3431029 0.67151517 0.6801547
0.5970265 0.43777272 0.75465304 0.5221081 0.26191327 0.41345218 0.69417226 0.5639246
0.6293767 0.3374498 0.4472533 0.6165104 0.3125243 0.37414405 0.27118772 0.35057104
0.5727195 0.51129246 0.78145415 1.0256139 0.5696367 0.84598076 0.23690103 0.77259725
0.6484656 0.45687035 0.46189412 0.8137377 0.65377027 0.29577833 0.57039493 0.61894435
0.6895949 0.6182032 0.40893236 0.62040645 0.5204952 0.5324056 0.6163456 0.9842482
0.7481163 0.4110654 0.5065291 0.5085559 0.39976782 0.77621144 0.21980692 0.97104394
0.41978106 0.786646 0.29333353 0.25448394 0.77571833 0.5944588 0.61481863 0.3957736
0.5472276 0.26702484 0.17322047 0.6736619 0.926871 0.1778138 0.4504464 0.7594355
0.6112899 0.6452471 0.46825415 0.43811893 0.6655696 0.49285725 0.62170935 0.6206931
0.30738634 0.35304567 0.39152813 0.39326018 0.6907497 0.65392804 0.57931864 0.70594233
00000000: 3921 303e a28a 183f 797f 033f 5f88 543f
00000010: 8700 fc3e 7960 5e3f 57bb 013f 5171 c33e
00000020: a1ed 1e3f bfa6 e23e 26b2 503f 89a3 253f
00000030: 3806 c93e 37ab 123f fedb b73e 7d8c 003f
00000040: e2d3 3c3f 5492 023f 3350 113f 92ed 113f
00000050: b532 1f3e 8a13 2e3f d897 363f ae44 313f
00000060: 271c f03e f3c9 583f a9b4 953e 46f4 3a3f
00000070: 550f e23e a843 573f 3d10 9a3e 980e 223f
00000080: f406 1a3e b53a 5c3f 6b7f 163f 1437 063f
00000090: 85a5 0e3f 2c0c 2e3f 61b6 973e 5fb1 2e3f
000000a0: 881b bb3e 790f 0a3f 98f9 af3e 23ca 0e3f
000000b0: 122d 1b3f 55e8 f93e b7d9 2a3f ca7b ca3e
000000c0: b750 4a3e 1c20 543f fe25 e93e 0ea3 313f
000000d0: e9d5 243f ed62 0a3f 2be5 123f f9a2 ce3e
000000e0: 629f 9e3e 0c4e e03e 8197 9b3e 95ab 573e
000000f0: 1a82 233f 2990 773e 9f60 103f 0cb6 103f
00000100: f775 293f b969 4c3f 3644 233f 752a f43e
00000110: 3e5e d03d eb0e a83e e2c4 0d3f 75e3 a73e
00000120: 4cb0 433f 54a7 373f f998 703f b5d3 1f3f
00000130: 2db4 c33e 8306 3a3f 03cd 353f 5479 253f
00000140: 435e 233f 2d7b 9e3e f227 1c3f 472c 2c3f
00000150: 5e21 ab3e d3dd 2f3f d362 363f 016f 123f
00000160: 8dc9 0c3f 879f 783e 1bcd bb3e e5bf 883e
00000170: 73c9 283f 6ac3 b43e 7f00 dd3d 406d 2b3f
00000180: a82f 2a3f fae1 153f ea97 953e 0f60 c13e
00000190: daf8 943e b252 393e d518 493f 473a 2f3e
000001a0: 32f8 0d3f 876a 383f 96b3 2f3f 5650 0e3f
000001b0: f3fc 053f 1bb1 c53e 468d 9b3e 36fb d63e
000001c0: b71a 473f aa29 e03e 0490 ef3e c979 813e
000001d0: 1394 b33e f6ab 253f 1f1d 4a3f 471a c23d
000001e0: b473 1c3f bd92 4c3f 700c ca3e 844c d63e
000001f0: bbc2 c73e 3f97 163f 8ab8 bf3e e241 523f
00000200: 9260 b83e f68e 323f edcd 1a3f 1cec 693f
00000210: a858 0d3f 20a4 3b3f fa88 933e ae92 273f
00000220: b416 1f3f 49fa 2d3f 4742 fc3e 833b 0e3f
00000230: 8771 373f a50a 9dbe 14ad d63e 7d9d 173f
00000240: 9732 f53e fcea 203f 7556 233f 1d50 283f
00000250: 10ec 163f c3e5 173f cda9 3e3f fe67 373f
00000260: 4a41 453f a2a4 b53e e1eb 0f3f c106 4e3e
00000270: 78cb 703e 45e4 063f 3f4f 583f c416 e83e
00000280: 4639 223f 0cb0 1f3f 64a2 163f 5675 ce3e
00000290: c28a a83e 836f 0e3f ad8c 843e 2bf7 d43e
000002a0: 68e4 c73e 0eb3 c63e 4ee1 8c3e 3000 fe3e
000002b0: f0b9 1e3f 2fab af3e 6be8 2b3f 9e1e 2e3f
000002c0: bbd6 183f bf23 e03e f130 413f e0a8 053f
000002d0: 7f19 863e 01b0 d33e 46b5 313f 5d5d 103f
000002e0: d51e 213f 38c6 ac3e 62fe e43e a0d3 1d3f
000002f0: 2f03 a03e cf8f bf3e 1ed9 8a3e 0c7e b33e
00000300: bf9d 123f 10e4 023f 610d 483f 5147 833f
00000310: b6d3 113f 3292 583f 2f96 723e efc8 453f
00000320: d701 263f e9ea e93e 637d ec3e 1d51 503f
00000330: 7d5d 273f 4270 973e 6705 123f 2373 1e3f
00000340: 4b89 303f 9142 1e3f 955f d13e f5d2 1e3f
00000350: 2c3f 053f bc4b 083f d3c8 1d3f b1f7 7b3f
00000360: 8d84 3f3f 2a77 d23e e4ab 013f b830 023f
00000370: 5eae cc3e cbb5 463f 1115 613e 5696 783f
00000380: 8bed d63e a261 493f d02f 963e b84b 823e
00000390: 7a95 463f 742e 183f c164 1d3f d6a2 ca3e
000003a0: 1c17 0c3f 7bb7 883e b560 313e 1b75 2c3f
000003b0: 6b47 6d3f d214 363e e9a0 e63e 5d6a 423f
000003c0: 7f7d 1c3f ea2e 253f 02bf ef3e 2051 e03e
000003d0: c562 2a3f c957 fc3e 5828 1f3f bee5 1e3f
000003e0: be61 9d3e 67c2 b43e 6076 c83e 6659 c93e
000003f0: f9d4 303f d467 273f 3a4e 143f a3b8 343f

bn.bias f4 [256]
-0.0004684082 0.07468745 0.1864483 -0.10190893 -0.04596492 0.10229203 0.23276122 0.1525061
0.18475205 0.116316274 0.07811079 0.08389172 -0.007574314 0.22942509 0.20353882 0.032550074
0.25525776 0.09461601 0.0026628522 -0.027106376 -0.109906375 0.18161635 0.11511622 0.27735648
0.1121942 0.08399832 -0.023271758 -0.13916677 -0.044796202 0.18207219 0.28641474 0.042182863
-0.05260907 0.18569979 0.23264624 0.056724057 0.1296228 0.12002047 -0.025158798 0.0058197035
0.07837928 0.11487557 -0.05415678 -0.05606506 -0.084373474 0.14415681 0.10275368 0.2176929
-0.123923115 0.22991692 0.03667333 0.061793428 0.18590796 0.10527162 0.030415086 0.061527908
0.1203953 0.04047168 0.14593081 -0.071876384 -0.05189195 -0.1222281 0.083930984 -0.03266879
0.14738584 0.074523024 0.05907353 0.22075509 -0.22829929 0.0420794 0.020650277 0.12856382
0.18746808 0.13518663 0.19826955 0.1873239 0.1944618 0.040987827 0.1021651 0.02367595
0.10423822 0.24245134 0.22306705 0.15699604 0.022530986 0.17327903 0.3265563 0.0034460542
0.07303466 0.14772052 0.07834176 -0.027444689 0.021031592 0.011290895 -0.101027384 -0.035922237
0.19604331 0.0015160805 0.14984277 -0.099421285 0.034996856 -0.19633575 0.11441591 0.09050334
0.13010052 0.105056785 0.24395794 0.06657251 0.011690109 0.0043922313 0.22226724 -0.040292177
0.10422283 -0.0041923127 0.10908962 -0.011745788 -0.041309126 0.09939619 0.18377724 -0.3236367
0.045674197 -0.0035205255 0.18543497 0.058391534 -0.07301967 0.061054133 0.005654385 0.0060368315
-0.0146920495 -0.032506704 0.24491383 0.08854063 0.11248891 0.10218274 0.03986143 0.10452151
0.14325246 0.05558957 -0.07471494 0.070843056 0.12080039 -0.09968961 -0.05988706 0.10435783
-0.03758715 0.22407994 0.2594524 -0.030200781 0.03744359 0.093679525 0.10604372 -0.06524258
-0.06680756 0.09328585 0.19101617 -0.2569182 0.16701128 0.23441455 0.100129455 0.11218813
0.20808643 0.0061431034 0.11388745 0.15856017 -0.18465441 0.09012541 0.02175676 0.094614744
0.10111112 -0.0782212 -0.03712043 0.18753125 0.11057662 0.17843845 0.077165745 0.17002419
0.14902504 0.15581405 0.08282728 0.12743512 -0.0557258 0.027877163 0.09005223 0.17368472
0.12223347 0.05596416 0.11416803 0.1964434 0.08773257 0.09017347 0.1151499 0.007948126
-0.022222172 -0.028658083 0.16820623 0.16521029 0.19594061 0.15283436 -0.11408591 0.27507168
0.1391793 0.06088208 0.24758667 0.17868344 -0.11979865 0.115211055 0.19275326 0.04768369
0.018469581 -0.020319773 -0.046252806 0.022521283 0.16542593 0.07054424 0.07467327 0.054013673
0.18193837 0.14225969 0.019091735 0.048993424 -0.0049268533 0.077326246 -0.0702901 0.1564215
0.010851884 0.24930775 0.061123922 0.031044815 0.13698883 -0.041256066 -0.07942652 0.13963893
0.04087925 -0.15187171 -0.21699467 0.08567339 0.18999606 0.29622325 0.12009232 0.0061936383
0.14841479 0.10868209 -0.019898904 0.054733355 0.20810732 0.09001405 0.17228806 0.13179743
0.0088262465 0.12446918 0.11674131 -0.013348456 -0.09137211 0.24904351 -0.006668022 0.14827126
00000000: af94 f5b9 bcf5 983d 4eec 3e3e a1b5 d0bd
00000010: b645 3cbd 7c7e d13d f558 6e3e 8f2a 1c3e
00000020: a42f 3d3e 3a37 ee3d 8df8 9f3d 6ccf ab3d
00000030: f331 f8bb 69ee 6a3e 7b6c 503e 3a53 053d
00000040: 25b1 823e 0ac6 c13d 3f83 2e3b 310e debc
00000050: 9816 e1bd a3f9 393e 0ec2 eb3d ab01 8e3e
00000060: 13c6 e53d 5007 ac3d 6aa4 bebc bc81 0ebe
00000070: 397c 37bd 2271 3a3e f4a4 923e f0c7 2c3d
00000080: 9c7c 57bd 1628 3e3e d13a 6e3e 7c57 683d
00000090: d7bb 043e 4bcd f53d d319 cebc 36b3 be3b
000000a0: 5185 a03d e243 eb3d 80d3 5dbd 7aa4 65bd
000000b0: 00cc acbd d89d 133e 8570 d23d e3ea 5e3e
000000c0: 67cb fdbd 576f 6b3e c636 163d 1b1b 7d3d
000000d0: a85e 3e3e a698 d73d 0f29 f93c b004 7c3d
000000e0: d091 f63d a2c5 253d e36e 153e ed33 93bd
000000f0: a78c 54bd ba52 fabd 02e4 ab3d b6cf 05bd
00000100: 50ec 163e 879f 983d 16f7 713d 9f0d 623e
00000110: 4ac7 69be 735b 2c3d c52a a93c 3ca6 033e
00000120: a2f7 3f3e 5d6e 0a3e 2c07 4b3e d6d1 3f3e
00000130: fe20 473e dae2 273d f03b d13d 11f4 c13c
00000140: d97a d53d 2a45 783e b06b 643e 92c3 203e
00000150: e792 b83c 0f70 313e 6332 a73e 32d7 613b
00000160: 3293 953d 0c44 173e a571 a03d afd3 e0bc
00000170: 724a ac3c 72fd 383c 72e7 cebd 3223 13bd
00000180: 94bf 483e 38b7 c63a 6270 193e 639d cbbd
00000190: dd58 0f3d 3d0c 49be e352 ea3d d159 b93d
000001a0: 1239 053e 0328 d73d 1cd0 793e 2b57 883d
000001b0: df87 3f3c b5ec 8f3b 069a 633e 6909 25bd
000001c0: c772 d53d ab5f 89bb 616a df3d 6871 40bc
000001d0: c233 29bd 3b90 cb3d 1a30 3c3e b6b3 a5be
000001e0: de14 3b3d 9eb8 66bb aae2 3d3e f62b 6f3d
000001f0: 568b 95bd e613 7a3d 6b48 b93b 9dd0 c53b
00000200: ecb6 70bc c025 05bd b1ca 7a3e ca54 b53d
00000210: 9660 e63d 2f45 d13d bd45 233d 600f d63d
00000220: c6b0 123e e4b1 633d 2504 99bd 2a16 913d
00000230: 3266 f73d 112a ccbd 224c 75bd 8fb9 d53d
00000240: fcf4 19bd 3675 653e f2d6 843e a167 f7bc
00000250: 735e 193d 0ddb bf3d 732d d93d e79d 85bd
00000260: 67d2 88bd a70c bf3d be99 433e c88a 83be
00000270: 0105 2b3e 5e0a 703e ac10 cd3d e4c2 e53d
00000280: 9c14 553e 164c c93b d33d e93d 995d 223e
00000290: 0c16 3dbe ac93 b83d 3c3b b23c 60c5 c13d
000002a0: 5913 cf3d 7032 a0bd 980b 18bd 3108 403e
000002b0: ff75 e23d 92b8 363e 1309 9e3d d21a 2e3e
000002c0: 059a 183e b88d 1f3e 59a1 a93d 5a7e 023e
000002d0: bd40 64bd a65e e43c 4e6d b83d 68da 313e
000002e0: 8b55 fa3d ad3a 653d eed0 e93d 7528 493e
000002f0: 22ad b33d deac b83d b6d3 eb3d db38 023c
00000300: 460b b6bc 5bc4 eabc 413e 2c3e e32c 293e
00000310: a8a4 483e 9c80 1c3e e0a5 e9bd 32d6 8c3e
00000320: 0585 0e3e 7d5f 793d 5c87 7d3e cbf8 363e
00000330: ff58 f5bd c6f3 eb3d 1c61 453e f94f 433d
00000340: 854d 973c a775 a6bc 9573 3dbd 8e7e b83c
00000350: 6a65 293e 8079 903d 4dee 983d 713d 5d3d
00000360: 0d4e 3a3e 86ac 113e 4566 9c3c 54ad 483d
00000370: 7171 a1bb 395d 9e3d 42f4 8fbd f52c 203e
00000380: 1acc 313c 884a 7f3e 145d 7a3d b251 fe3c
00000390: cd46 0c3e 1ffc 28bd 5faa a2bd 82fd 0e3e
000003a0: 0071 273d 4284 1bbe da33 5ebe 8875 af3d
000003b0: 548e 423e 93aa 973e f6f2 f53d 01f4 ca3b
000003c0: 0cfa 173e b794 de3d 0703 a3bc 1530 603d
000003d0: 161a 553e 4959 b83d 486c 303e e8f5 063e
000003e0: f69b 103c b3e9 fe3d 1116 ef3d 7bb3 5abc
000003f0: 4d21 bbbd 4305 7f3e 6c7f dabb 6cd4 173e

bn.running_mean f4 [256]
0.44220647 0.30412874 0.16038917 0.21429573 0.24167356 0.13138388 0.25121528 0.043339547
0.2538665 0.15849054 0.114105485 0.11711234 0.1592431 0.08952691 0.08115059 0.15732741
0.22027816 0.090421975 0.06661494 0.14810348 0.24592635 0.09873996 0.16865541 0.42053744
0.13341385 0.4145492 0.19897875 0.1770365 0.4544033 0.08914189 0.05154977 0.11791042
0.13051715 0.037924975 0.13117658 0.35854292 0.14998801 0.12053107 0.17273225 0.17581518
0.10632172 0.27683395 0.34348863 0.15885778 0.49232978 0.08685388 0.17753656 0.16664298
0.24098253 0.25097433 0.26285365 0.12876377 0.08052571 0.08448671 0.13630229 0.1347873
0.18604828 0.12235015 0.13583775 0.40406954 0.1062417 0.1170705 0.0784355 0.12969433
0.07384498 0.17913431 0.31061396 0.05419643 0.47967884 0.11712188 0.116116785 0.06040778
0.13429655 0.1786458 0.11647888 0.2920116 0.26752642 0.24267758 0.13400403 0.13353403
0.1500922 0.08719178 0.17048606 0.16492848 0.09545256 0.13108133 0.12960856 0.108867034
0.11556492 0.18359074 0.10157548 0.33260033 0.16560191 0.1822735 0.2737544 0.28711635
0.33108377 0.051414825 0.088115335 0.30657628 0.09126376 0.27209046 0.1967558 0.21429719
0.23604657 0.08266125 0.07831539 0.64912224 0.18453956 0.18237063 1.0438224 0.12778221
0.324592 0.08041218 0.26488993 0.12075813 0.32029942 0.1881444 0.1783171 0.07910956
0.24512115 0.1666713 0.060622793 0.14307688 0.2470672 0.082829855 0.16649525 0.1652612
0.19494411 0.21465051 0.09206208 0.17045943 0.06936271 0.21069978 0.16085027 0.18395352
0.14373696 0.08267501 0.16786753 0.12041889 0.20230217 0.08418148 0.21500517 0.1377947
0.26557308 0.32981175 0.2993952 0.10585314 0.16462386 0.20896873 0.108759515 0.10832266
0.15425019 0.11938848 0.106282115 0.20746961 0.26585153 0.113778174 0.13086587 0.1110928
0.1252936 0.152963 0.22991993 0.19016093 0.45115408 0.23332763 0.3457617 0.15202603
0.1788064 0.42016456 0.25509614 0.15032548 0.104165114 0.08550263 0.16856529 0.22386657
0.1705745 0.1408006 0.05888608 0.10396837 0.21981797 0.1720924 0.18097112 0.18190831
0.20005503 0.5548568 0.3510229 0.30581835 0.14745834 0.14651273 0.22757167 0.21527311
0.14140767 0.12384916 0.18411799 0.14623383 0.12422067 0.14392231 0.048975073 0.16779636
0.067971565 0.29165286 0.3240124 0.1882851 0.30893263 0.11159143 0.13745658 0.041021924
0.11042226 0.13750805 0.13599195 0.1194324 0.13459043 0.19684783 0.16946512 0.22229709
0.1719853 0.15064806 0.07572578 0.16548496 0.11554198 0.17054765 0.10976338 0.15857081
0.27039394 0.10495447 0.13690946 0.17583369 0.23414226 0.1416736 0.2046916 0.06848384
0.06797072 0.26853493 0.31426784 0.12407723 0.24861749 0.6926823 0.030505542 0.18046544
0.12046435 0.17434229 0.102220766 0.08069053 0.27670947 0.10695405 0.27776238 0.08721607
0.064513296 0.1937808 0.23571841 0.05776242 0.31310508 0.20048857 0.18613085 0.16574857
00000000: e368 e23e c3b6 9b3e 0f3d 243e 5770 5b3e
00000010: 4679 773e 7f89 063e 4a9f 803e cf84 313d
00000020: cafa 813e 584b 223e 23b0 e93d 98d8 ef3d
00000030: a010 233e e259 b73d 4832 a63d 701a 213e
00000040: 9990 613e 282f b93d 6a6d 883d 70a8 173e
00000050: 1ed4 7b3e 2d38 ca3d 01b4 2c3e af50 d73e
00000060: a49d 083e cb3f d43e 16c1 4b3e 0e49 353e
00000070: 8da7 e83e 0690 b63d da25 533d 057b f13d
00000080: 4aa6 053e 3857 1b3d 2753 063e f092 b73e
00000090: 7596 193e fed8 f63d b9e0 303e e508 343e
000000a0: 34bf d93d 2ebd 8d3e bedd af3e 9dab 223e
000000b0: a612 fc3e 72e0 b13d 25cc 353e 75a4 2a3e
000000c0: 20c4 763e b57f 803e c194 863e a6da 033e
000000d0: aaea a43d 5e07 ad3d d492 0b3e af05 0a3e
000000e0: 7183 3e3e b792 fa3d 0d19 0b3e 34e2 ce3e
000000f0: 4095 d93d a9c2 ef3d cba2 a03d 97ce 043e
00000100: 093c 973d fc6e 373e cb08 9f3e 13fd 5d3d
00000110: 7798 f53e 99dd ef3d a3ce ed3d 266e 773d
00000120: 0985 093e edee 363e 7b8c ee3d 8b82 953e
00000130: 39f9 883e 7980 783e 5a38 093e 25bd 083e
00000140: c5b1 193e 9b91 b23d e693 2e3e 03e3 283e
00000150: a27c c33d 2f3a 063e 1bb8 043e aef5 de3d
00000160: 4dad ec3d 36ff 3b3e ce06 d03d 974a aa3e
00000170: 8c93 293e e8a5 3a3e 8929 8c3e ea00 933e
00000180: d083 a93e 5a98 523d d075 b43d 91f7 9c3e
00000190: 7fe8 ba3d 714f 8b3e 5a7a 493e b970 5b3e
000001a0: 31b6 713e 4d4a a93d d263 a03d e02c 263f
000001b0: f0f7 3c3e 5ebf 3a3e f99b 853f 57d9 023e
000001c0: ec30 a63e 24af a43d a79f 873e 0a50 f73d
000001d0: 49fe a33e eda8 403e c298 363e 3104 a23d
000001e0: 0a01 7b3e e2ab 2a3e 9b4f 783d bf82 123e
000001f0: 2fff 7c3e b3a2 a93d bb7d 2a3e 3b3a 293e
00000200: 6e9f 473e 58cd 5b3e 0b8b bc3d eb8c 2e3e
00000210: 090e 8e3d afc1 573e efb5 243e 505e 3c3e
00000220: c82f 133e 8451 a93d 77e5 2b3e 2e9e f63d
00000230: 4d28 4f3e 5767 ac3d 512a 5c3e 0e1a 0d3e
00000240: 32f9 873e 16dd a83e 544a 993e 88c9 d83d
00000250: 2893 283e e6fb 553e 4fbd de3d 45d8 dd3d
00000260: c3f3 1d3e f381 f43d 70aa d93d ea72 543e
00000270: b11d 883e 8804 e93d b401 063e 9f84 e33d
00000280: f74c 003e 55a2 1c3e 2170 6b3e 8cb9 423e
00000290: abfd e63e 70ed 6e3e ad07 b13e b6ac 1b3e
000002a0: 0619 373e cf1f d73e f69b 823e ecee 193e
000002b0: 8554 d53d 011c af3d 619c 2c3e 473d 653e
000002c0: 15ab 2e3e 082e 103e 8832 713d 5eed d43d
000002d0: f617 613e fd38 303e 7e50 393e 2c46 3a3e
000002e0: 3adb 4c3e 180b 0e3f 46b9 b33e 3994 9c3e
000002f0: 52ff 163e 6f07 163e 8c08 693e 8e70 5c3e
00000300: 2ccd 103e a1a4 fd3d 6d89 3c3e 52be 153e
00000310: 6867 fe3d 5f60 133e 169a 483d cfd2 2b3e
00000320: ad34 8b3d 8653 953e f4e4 a53e cfcd 403e
00000330: 6b2c 9e3e 0c8a e43d 6bc1 0c3e 9b06 283d
00000340: 1125 e23d e9ce 0c3e 7941 0b3e f998 f43d
00000350: 13d2 093e 7a92 493e 4488 2d3e d9a1 633e
00000360: ea1c 303e 7c43 1a3e 1e16 9b3d e474 293e
00000370: 46a1 ec3d 0ba4 2e3e 9fcb e03d 6360 223e
00000380: 1371 8a3e 5ff2 d63d fe31 0c3e bf0d 343e
00000390: fdc2 6f3e e212 113e ad9a 513e 4141 8c3d
000003a0: 3c34 8b3d 697d 893e b7e7 a03e 341c fe3d
000003b0: 9595 7e3e a153 313f c2e6 f93c efcb 383e
000003c0: 03b6 f63d c986 323e 1f59 d13d 1441 a53d
000003d0: ddac 8d3e ba0a db3d df36 8e3e 579e b23d
000003e0: 8c1f 843d 796e 463e 2b60 713e 4a98 6c3d
000003f0: 4f4f a03e e04c 4d3e 1699 3e3e feb9 293e
