checkpoint_actor.pth (torch_old, 307928 bytes, 10 tensors)

fc1.weight f4 [256, 33]
00000000: 90c0 a43e 1812 94bd f176 69bd 2e3b 613e
00000010: c023 db3e 1781 7b3e 593d 323f 3f69 7a3d
00000020: 0b6c 3a3e cdc2 2ebd be86 483d db28 62bd
00000030: 429a 38bd af24 f83d 5eb5 203d 7a82 a0bc
00000040: 3fdd 343f 944d 26be 7dea 2fbe 2487 c83e
00000050: 92c6 67bd d852 0d3e 9006 fb3b 4bd9 fb3d
00000060: 3821 d4bc da5f 5fbd c79d 19be c0cc 743e
00000070: 8985 81bd 5e6f 60bd cb95 8cbe e07e fa3b
00000080: e5e2 e03e 30ef 6bbe af78 a33d c06a 6ebe
00000090: 9294 783a ccb1 553d 9103 393e dba4 c2bd
000000a0: d19c 413e 36a7 8c3d 895d b3bd 2fb3 7abd
000000b0: 2b74 99bc f3af 01bc bc16 133e 73b4 8ebe
000000c0: 8a7e 233e 4639 d43c 4840 e43d 12ab ddbd
000000d0: f5fd 2a3e eea1 20be 2263 a6be e7bd 4ebe
000000e0: 0eee 3b3d ceff 35be c65d 073c 6d9f 703c
000000f0: 2182 4f3e 0b09 983e e8d9 7b3d 06e0 03be
00000100: 32b0 19bd 2c9b 4cbd 8e6e 1bbe 4aab 8c3d
00000110: 0fd6 9ebd a951 563e 9a72 df3e c89e 92be
00000120: 5931 d1bd 9f99 9f3b 8e05 f83c 6669 a23d
00000130: 3bab dfbc b95c 89bd ecc3 d6bd d4ae bdbd
00000140: 2aeb d73d ba2a 7b3d 0475 6c3d 3e03 803e
00000150: 8b54 2f3c 9aca 20bf 5832 043d 3c1c 75bc
00000160: 1440 6ebd 3bfd 17bd 6f8b 5a3d c59f efbc
00000170: 02d5 b53d 77fd b73e 2f30 e43d 5846 1ebd
00000180: 5b96 a4be 5801 5cbd e343 4d3f 09c4 01be
00000190: 82e2 33be c435 343e 484f 1c3e b1f9 aabe
000001a0: 579a 83be 8f49 403f 789e 0dbd 3c03 10be
000001b0: 46fa 7bbe 878e 38bc b343 b7bd f733 653e
000001c0: 5a0d 1fbe c9dd 9fbc 5039 143e 3b32 9abe
000001d0: 999f 163f 21dd bc3c 1cbb 303d 4e56 a93d
000001e0: a051 a1bd 316f 1c3e a5dc b73c 1947 0cbd
000001f0: 0e8d a73c 8640 613e 5689 213e 19ad 9f3d
00000200: f233 573d 828c acbd 181d 583d 635a a03b
00000210: f3ed b23e e9fa 09be b04b c83e 6b67 4cbd
00000220: 86ab 02bf 4d2d 543e 4ef0 6d3d 727b 113d
00000230: 3d2b 953d 6906 523e 2c9b e63d 3635 8f3d
00000240: 9e48 203d eb7f 7a3d 7839 273e 8b52 5ebd
00000250: d6ae 4ebe fb35 a1be 1a17 7a3e 9a83 99be
00000260: 3fb9 033d e9b3 a8bd 6626 d7bd d7c1 0abc
00000270: 7ec8 873c 2477 4ebd a54d a2bd 1017 873e
00000280: 0597 2c3e 6004 8abc 16be 39be 8850 78bd
00000290: d2fd 9abd 5588 bd3c 1ecd f8bd 5f5e adbd
000002a0: e013 cd3d 2f3f e43c 4573 34be 92f5 c2be
000002b0: 7b9d 853d a8e1 d3bc 0723 5abe f946 133d
000002c0: 07e0 c63b be78 72bb 3279 37be ec05 5f3e
000002d0: dfbe f83c b572 6cbd 0f79 303f 2e78 303f
000002e0: e429 1bbe 8fc7 b2bd a900 a8bc 09d9 91bd
000002f0: 13a7 2fbd a077 ff3c e58f c93d 23d9 083e
00000300: 4bc2 66bd 4edb 553d 96ed 2a3d b5ae 9b3d
00000310: 98dc 153d 4bde 3b3f fda7 9b3c c669 5e3e
00000320: 88ed cfbd 0a39 66be 6ae8 a03c ecc6 c1be
00000330: eb69 ae3e e983 01bc 39e4 12be 03ed 15be
00000340: 618f 2abd 0d05 9e3c 3dd5 dc39 f95e f43c
00000350: 1db3 33be 5134 00bd b34a 443e d15b a53e
00000360: 2307 afbf 1c00 b83e 0e18 623c 4a20 bebc
00000370: 6944 683d b438 d93d 4acb 7a3d cf3a a0bd
00000380: 4fca cc3d 612c e63d a152 a3bd b0b8 023d
00000390: 141e e3bd 6088 a0bc 7529 5bbe 1d56 d5bc
000003a0: fd66 0f3e 4e42 863d b905 69be e43c eabe
000003b0: f26c b53e d3da 413c f064 d13d c7c0 b6bd
000003c0: caf2 70bc 528c f7bc b72a 46bd 10bd 22bc
000003d0: 7537 6b3e 1554 05be 84cf eebd c7f7 bd3e
000003e0: f49c 363e 8f3b 86be fcf9 7c3e 5906 683d
000003f0: f6c1 8dbd 0b5d fb3d 47ce f23d 7c00 1dbd
0.32178164 -0.072300136 -0.056998197 0.21995232 0.42800713 0.24560963 0.6962486 0.061135527
0.18205278 -0.042666245 0.048956625 -0.055214744 -0.045068987 0.12116372 0.039235465 -0.019593466
0.70650095 -0.16240531 -0.17179294 0.39165604 -0.056585856 0.13801134 0.0076606944 0.12297305
-0.025894746 -0.05453477 -0.15001594 0.23906231 -0.06324298 -0.054793708 -0.27458033 0.007644519
0.43923107 -0.23040462 0.07982003 -0.2328291 0.0009482588 0.052171513 0.18067767 -0.095041
0.18907477 0.068678305 -0.08758075 -0.06120604 -0.018732151 -0.007915485 0.14364141 -0.27872047
0.1596624 0.025906216 0.11145073 -0.10823645 0.1669844 -0.15686771 -0.32497507 -0.2018963
0.045881324 -0.17773363 0.008262103 0.014686448 0.20264484 0.296944 0.06148711 -0.12878427
-0.03752155 -0.04995267 -0.15178892 0.06868608 -0.07755672 0.20929588 0.43642122 -0.28636765
-0.102144904 0.004870608 0.030276086 0.079302594 -0.027303329 -0.067071386 -0.10486588 -0.092618614
0.10542901 0.061320044 0.057728782 0.25002474 0.010701309 -0.62809145 0.032274574 -0.014960345
-0.05816658 -0.037106734 0.05335563 -0.029250989 0.08878519 0.35935566 0.11142003 -0.038641304
-0.32145962 -0.05371222 0.8018171 -0.12672438 -0.17566875 0.17598635 0.15264618 -0.33393624
-0.2570369 0.7511224 -0.034574956 -0.14063734 -0.2460719 -0.01126445 -0.089484595 0.22383104
-0.15532437 -0.019514935 0.14474988 -0.30116448 0.58837277 0.023054661 0.04314719 0.082684144
-0.07876897 0.15276791 0.022444079 -0.03424749 0.020453002 0.2199727 0.15775046 0.07796688
0.052539773 -0.08425237 0.05276212 0.0048935874 0.34947166 -0.13474621 0.39120245 -0.049903315
-0.51042974 0.20720406 0.0580905 0.035518117 0.07283638 0.20510258 0.112600654 0.06992571
0.039131753 0.06115715 0.16330516 -0.054277938 -0.20183882 -0.31486496 0.24422875 -0.29983217
0.032159086 -0.0823744 -0.10505371 -0.008469067 0.016575094 -0.05040659 -0.07924966 0.26384783
0.16854484 -0.01684779 -0.18138918 -0.060623676 -0.07567944 0.023136297 -0.12148498 -0.084652655
0.100135565 0.02786216 -0.17622097 -0.3807798 0.06524178 -0.025864437 -0.21302424 0.035956357
0.0060691866 -0.0036998237 -0.17917326 0.21779603 0.030364452 -0.05772658 0.6893472 0.6893338
-0.15152699 -0.08729469 -0.020508127 -0.07121474 -0.042883944 0.031184971 0.09841899 0.13364081
-0.056337636 0.0522111 0.041730486 0.07601682 0.036587328 0.7338607 0.019001001 0.21720037
-0.10152727 -0.22482696 0.019642074 -0.37847078 0.34065184 -0.007904985 -0.14344873 -0.14641194
-0.041640643 0.019289518 0.00042120545 0.029830443 -0.17548795 -0.031299893 0.1916912 0.32296613
-1.3674053 0.35937583 0.01379968 -0.023208756 0.056705866 0.106065184 0.061229028 -0.07823717
0.09999525 0.11238933 -0.079747446 0.031914413 -0.11089721 -0.019596279 -0.21402533 -0.026042039
0.1400413 0.06555615 -0.2275609 -0.4574958 0.3543468 0.011831957 0.102243304 -0.08923488
-0.014706323 -0.030218277 -0.04838058 -0.009932771 0.22970374 -0.13020356 -0.11660674 0.37103102
0.1783331 -0.26217315 0.24704736 0.05664668 -0.06921761 0.12273606 0.118557505 -0.03833054

fc1.bias f4 [256]
00000000: 61e4 a6be fc0b 87be 6003 34be 9e19 1abe
00000010: a4e8 16be 0086 dd3d 28c8 6abe b3be 90be
00000020: c5ee 82bd b664 b93d 2abb 95be bb26 293e
00000030: 4c7e 84be 3443 0a3e deb9 99be 8e75 563e
00000040: 16f2 d6be a01b 16be 410f 33be 1eff a8bd
00000050: dbd7 703d 7225 bcbe 18b6 d1be 4d4e 66bd
00000060: 54b5 0abe ab46 07be 33d9 08be 6bf1 babe
00000070: d871 ffbd 6cdb 91be e1fd 3bbe 7f60 293e
00000080: 51d6 bfbe 1343 66be a494 80be 59f2 71be
00000090: cd00 5fbe 36e5 8cbe 8e7b 30be 2c0b 9abe
000000a0: b15c 11be c950 17be cccd 55be f832 6cbd
000000b0: d225 50be fd5c 8ebe 8d71 dfbd fae4 13be
000000c0: 523c 23be 70f9 1e3d 6d11 18be 548c 42be
000000d0: 47d4 38be 7790 b5be 1e02 c3be f0f7 93be
000000e0: 37e4 21be 3d8b 39be 800b fcbe c3fa b3be
000000f0: 620d 25be 957d 97be 2360 92be 9ac8 25be
00000100: 09b9 cabe 4057 a8be c55d c8bc 8546 c8be
00000110: d30c cfbe d97a b6be b094 c2bd ffd1 44be
00000120: 4907 7dbe 6f50 e7be d2de 97be 10ea 443c
00000130: 0177 22bd 3af0 95be 91c9 d9be 3539 1e3d
00000140: 6b45 4abe f01d 5dbe d937 c4bd b9df 8cbe
00000150: 5f15 96bd 1896 313d 3289 0dbf 480e 9ebe
00000160: 613f 86be f4f4 68bd 7a1d 84be e4a2 bbbc
00000170: fc59 19be a500 bebd 4cb3 37bd 50f0 49be
00000180: 445e 25be 9aea a7be 58e5 84be e62f 28be
00000190: 8cf8 72be 865a debd 9bab 4b3e 24a7 33bd
000001a0: 696a 363c ff36 a5be e687 9abd 97fc 86be
000001b0: c620 18be 4a1e a2bc 993c b93d 5049 92be
000001c0: 890f c2be 340c e7bd 079d 13be 89d5 dbbe
000001d0: ff9d b1be 914a a9be 9a89 343e 3106 073d
000001e0: 9cf2 b7be eea4 9b3d ab5f 64bd b6b7 513e
000001f0: 9c5a 0ebd a5e7 2cbe 53e7 0bbe 97e7 51be
00000200: 875e 9dbe fce8 3a3e bc22 b7be 4dc4 a7be
00000210: 2346 da3d 2e6b 0cbe 930d 5bbe a4d1 2bbe
00000220: a8f4 9cbe 1dc5 3bbe edf8 093e 7493 9abe
00000230: 5897 93bd b1aa 43be 29fa 7bbe 612b 8cbe
00000240: e6ac 1abe 82f9 44be 448c 03bf cea7 fbbd
00000250: e77c f7bd 13b8 33bd fc0e 1b3c 3b87 ccbe
00000260: 8248 08be 8994 62be d4b9 60bd bdb9 2bbe
00000270: 5d67 a4bd ad42 abbe dfbb 57be debe e7be
00000280: 00dd 5cbd 7c06 08bf b499 ca3c 763d 7bbd
00000290: bd3e 23be bd81 8fbe b3e4 03bf 412f 91be
000002a0: 973e a9bd 6ca7 6abe 105d 213d cc17 09bd
000002b0: ad71 9fbe 5068 b8be c2a8 f1bd 78a8 62bd
000002c0: 1546 d8be 4643 bebe 6755 84be 94e1 bbbe
000002d0: 191a d3be 1641 943d 3911 1abd a649 fabe
000002e0: 6993 2fbe 0bdc 53be f455 963b 4e7b 80be
000002f0: 487e 463d fe54 ca3d 40e5 b5be 0c79 96be
00000300: 635f 83bd da5e 79bb 0b46 9bbe 5987 9abe
00000310: f650 c2bc ee95 32be 9112 7fbe 6d5a 18be
00000320: 41f3 febd ae84 65be 7570 be3c 8e5c c3bd
00000330: ff5e e7bd 6d5f 28be e2dd ffbd 5a36 9bbe
00000340: c7bf 6abe 391e 08be bb3c c1be f40d 15be
00000350: 4996 c8be 3f8a 32be 63e7 65be 6a0c a8be
00000360: 671d c9be 2fe8 07be fd5d a7be fdfb 4ebd
00000370: dc9d 9abd 6819 cebe c0b0 c4bd b69f 96be
00000380: 4237 efbd f91d cdbe 6a99 7cbd 8394 7cbe
00000390: ebac c3be 7f89 13be 9c80 2abe f00f 70be
000003a0: fede 90be a0dc 96bd 7b1e 97be 4e57 2cbc
000003b0: dd26 8b3d 0e61 05be eb2c 12bf ae5d 1fbe
000003c0: 015e adbe de6e 98be c9f4 5abe 8abd ddbd
000003d0: 825e 66be 47f1 b9be 9c70 dbbd 0a05 87bd
000003e0: 4b14 5fbe 53a2 75bd 7b3c 9fbe a049 a8be
000003f0: fd93 973d b08c c6be a264 acbe bae8 9cbe
-0.32596114 -0.2637633 -0.17579412 -0.15048835 -0.14737183 0.10816574 -0.22927916 -0.28270492
-0.06393198 0.09052412 -0.29244357 0.16518681 -0.25877607 0.13502198 -0.30024618 0.20943281
-0.41981572 -0.14658976 -0.17486288 -0.08251785 0.058799606 -0.36747319 -0.4095924 -0.056227017
-0.13545734 -0.13210551 -0.13364105 -0.36512312 -0.12472886 -0.28487718 -0.18358566 0.16540717
-0.37468198 -0.22486524 -0.25113404 -0.23627605 -0.21777649 -0.27518624 -0.17234632 -0.30086648
-0.14195515 -0.14776911 -0.20879287 -0.057665795 -0.20326927 -0.2780532 -0.1091033 -0.14442816
-0.15940979 0.0388121 -0.14850397 -0.18998843 -0.18049727 -0.3546178 -0.38087553 -0.289001
-0.15809713 -0.18119521 -0.49227524 -0.35152254 -0.16118386 -0.29588 -0.28588971 -0.16189805
-0.39594296 -0.32879066 -0.024458775 -0.39116302 -0.40439472 -0.356406 -0.09501016 -0.19220732
-0.2470981 -0.45178553 -0.29662186 0.0120186955 -0.039664272 -0.2928484 -0.42536595 0.038628776
-0.19753043 -0.21593451 -0.095809646 -0.27514437 -0.07328295 0.04335603 -0.5528747 -0.3087027
-0.2622023 -0.05687423 -0.2580374 -0.02290482 -0.14975733 -0.09277467 -0.044848725 -0.19720578
-0.1614924 -0.32796174 -0.25956225 -0.16424522 -0.23727626 -0.1085711 0.19889681 -0.04386057
0.011133769 -0.3226852 -0.07545452 -0.26364586 -0.14856252 -0.019789834 0.09044761 -0.28571558
-0.37902477 -0.112816244 -0.1441537 -0.42936352 -0.34690854 -0.33064702 0.17630616 0.03296489
-0.35927284 0.07599817 -0.0557553 0.20480236 -0.03475438 -0.1688524 -0.13662462 -0.20498501
-0.3073618 0.18252939 -0.35768688 -0.32766953 0.10657909 -0.13712761 -0.21391897 -0.1677919
-0.30655408 -0.18336911 0.13473864 -0.30190623 -0.07206601 -0.19108082 -0.24607147 -0.27376845
-0.15105018 -0.19235805 -0.51385903 -0.122878656 -0.1208437 -0.04387672 0.009464022 -0.39946923
-0.1330891 -0.22126974 -0.05486472 -0.16770072 -0.080275275 -0.33449307 -0.21067761 -0.45262808
-0.0539217 -0.53134894 0.024731494 -0.06133791 -0.15941902 -0.2802867 -0.5152084 -0.28356364
-0.08263891 -0.22915429 0.039395392 -0.03346996 -0.31141415 -0.36017084 -0.11799766 -0.055336446
-0.42240968 -0.371607 -0.25846407 -0.3669554 -0.41230848 0.07238977 -0.03761408 -0.48884314
-0.17146076 -0.20689408 0.004587883 -0.25094074 0.048460275 0.09879492 -0.35526466 -0.29389226
-0.06414678 -0.003805092 -0.30326876 -0.30181387 -0.023720246 -0.17440006 -0.24909426 -0.14878245
-0.12448741 -0.22413895 0.023246983 -0.09539138 -0.11297416 -0.16442652 -0.12493493 -0.30314904
-0.2292472 -0.13292779 -0.37741646 -0.14556104 -0.39177158 -0.17435549 -0.22451548 -0.3282197
-0.39280245 -0.13272165 -0.32688895 -0.050533284 -0.075496405 -0.40253758 -0.09604025 -0.29418725
-0.116804615 -0.4006193 -0.061669745 -0.24666028 -0.38217863 -0.1440792 -0.16650623 -0.2344358
-0.2829513 -0.073663 -0.29515442 -0.010518862 0.06794522 -0.13025305 -0.5709979 -0.1556308
-0.33860782 -0.29772085 -0.2138244 -0.10827167 -0.2249699 -0.36316893 -0.10714838 -0.06592758
-0.21785085 -0.059969258 -0.3110083 -0.3286867 0.074012734 -0.3877921 -0.33670527 -0.30646306

fc2.weight f4 [256, 256]
00000000: ad37 67bd a106 5e3c 73a1 c1be a9af 44bc
00000010: 8f51 0c3e 9b7b 913d 7568 5b3e 5c1e 3f3e
00000020: e869 ad3d bf0a 6b3e eb17 f93d e8ec dc3e
00000030: e6ac d03d 56aa 74bb 79d9 cbbc 2c83 01be
00000040: c007 9a3c eaf1 8b3e dca5 54be 1fb0 13bd
00000050: 876d 97be 57f5 42bb aaf2 01be 37a8 943d
00000060: ef7f 563e e220 a0be 13b0 c9bc 5aee 7dbe
00000070: 7f5b ae3d 906d 8abe 37e4 a23d 898e a2be
00000080: be11 843e d1de 583e a9da 283e 4b33 b2bc
00000090: cba2 3cbc db8b bb3e e39a 1dbe 59a1 f3bd
000000a0: 98ca 28be d090 5a3e 4500 903d 36f7 9dbd
000000b0: 7cfd 49be 0180 a93e 453c 673e 0036 dfbd
000000c0: 0310 76bb f80d 88bd 1231 063e 2d54 753e
000000d0: 4604 603e 1b09 3cbe 1c97 4b3d 2af7 ae3d
000000e0: d295 f6be b1ba d5bd 0db7 f8bd 5133 6f3e
000000f0: 0189 52be 2e69 d63e e626 30bd 4a2d 28bd
00000100: acd6 4f3e 6628 60be 16bb db3d 3a5d 063e
00000110: 8297 42bf 1dfb 86be 2777 a7be b027 0b3e
00000120: 30e5 c5be 47c7 2cbd 82ba 8f3e 26d6 d73e
00000130: 08bc 55be b51f 193e 0e9e 60be d12f fa3d
00000140: 5601 bfba 5770 993e 849b f03a 757d 06bf
00000150: 76cd b0bd fb76 e2be edd2 cbbb d968 d83d
00000160: ef82 67bc c0d5 843e 69c4 9c3e d643 9c3e
00000170: 1367 6d3d 7799 33be 437f b0bd 3abb 38bd
00000180: 43e8 a33c 341b 31bf 2116 c33d 14a0 323e
00000190: b2ad 063e 16f5 b3be 3abc 8abd 4b88 14be
000001a0: 3c0d 963d 2dca ad3d a8db 58be bd5b 943e
000001b0: 5c0c 9c3e 8bc2 99bc 270b a6be ad89 723e
000001c0: 2c12 2c3e 50b5 84bd 5723 1d3e 603a 2b3d
000001d0: 8f91 783e c230 a8bd ded5 413d ff1e a5be
000001e0: 2bfe 593c e188 1dbe f3cd 7dbd b310 1dbe
000001f0: 6216 08bd 9574 0dbe 07c7 383e 014d 79bc
00000200: 135d 14be 622c a13e ef37 3c3e 4bb5 803e
00000210: eebf d2be b4c8 273e 5e35 8fbe 9a81 5d3d
00000220: 0dc0 913e 791c c53c a884 05be 2eda ad3e
00000230: f109 653d de16 e03d 761b cfbd e8fa 733e
00000240: 403d 93bd c750 49bd 4666 92be 2722 fc3d
00000250: d037 ff3e bf11 493e 17de 6c3d 9d19 c4be
00000260: 29e8 6e3e 10d4 47be a612 0abe af5a 4e3e
00000270: 5f1c 56be 50d2 71be e2df 1cbd 8ca9 793e
00000280: bb10 443e d6c8 203e b5c1 06ba 52ea 633e
00000290: 3401 6bbd c49d 333e 4899 14bc 26a8 5bbd
000002a0: 7a32 983d b340 293e c4c4 813d dc68 acbd
000002b0: b3f6 cd3e 4a16 c9bc 9c2e b33d 958e e1be
000002c0: 74aa 0b3e cc83 cc3e b9eb e03d eae8 60be
000002d0: c553 0d3e 8c8d 9d3c 6ca4 663d 4a26 12bb
000002e0: 2f46 ccbd 8870 a7be b0c6 f03d 30c4 ccbe
000002f0: 1e3a 9ebe 4b37 c43e fac4 263e 33e5 f8bd
00000300: 1c6e 5f3e f5a0 2dbe aad3 1fbc 07b8 89bb
00000310: f42f 82be 4de4 c7bd a659 8b3e fae0 0fbf
00000320: a772 e73d 1c21 4a3e 48db a5bd 8803 31be
00000330: db84 b8be bd04 c2be 5143 1dbe eb9d 61be
00000340: 487c 0ebf 9be9 69bc ef1c aa3e 4cad 253e
00000350: e0ea ad3e fb4c df3e 0803 0f3e 0481 6e3e
00000360: 1f31 013f b390 93be 3ae7 d23e 3b57 86bd
00000370: 72da 183e 2152 61be d4ef 083d e163 1a3e
00000380: 6601 b2be 9a5a 7fbe 2fbc a4bd 8d98 4fbe
00000390: 9500 96be b013 583e b2f4 e2bd 5f26 0f3d
000003a0: d5bf aebe 63ad 7d3d 772c 73be a407 5e3e
000003b0: 501c 8bbe 9ebc a03c 11ac 9a3d 735b 2ebe
000003c0: 7c46 cc3c 0575 6a3e 83a3 2bbe 41c1 96bd
000003d0: 613c 6fbe 2b62 43be e68e 43be 7d96 a8bd
000003e0: 0b2c 06bd 9a38 13be 5cb8 e13d e4bf d33e
000003f0: 830f 19be 3c3c 003e 45ae 40bd 3d59 c43d
-0.05644958 0.013551385 -0.37818488 -0.012004771 0.13702987 0.07103654 0.21426566 0.18663925
0.08467466 0.22953318 0.12162765 0.43149495 0.10189228 -0.0037332973 -0.024883972 -0.12647694
0.018802524 0.27333003 -0.20766395 -0.036056634 -0.2957575 -0.0029748285 -0.12690225 0.07258647
0.2094724 -0.31275088 -0.024620092 -0.24797955 0.08513545 -0.27036715 0.07953685 -0.3174937
0.25794786 0.21178748 0.16489662 -0.021752974 -0.011513422 0.3663014 -0.15391116 -0.11896009
-0.16483533 0.21344304 0.070313014 -0.07713167 -0.19725603 0.33105472 0.22581585 -0.108989716
-0.0037546165 -0.06643289 0.13104656 0.23957892 0.2187663 -0.18362848 0.049704656 0.085432366
-0.4816118 -0.10435999 -0.12144289 0.2335942 -0.20560075 0.4187712 -0.043005846 -0.041058816
0.20296735 -0.21890411 0.10729043 0.131215 -0.7601243 -0.2636346 -0.32708094 0.13589358
-0.3865142 -0.042182233 0.28071982 0.4215557 -0.2087251 0.14953502 -0.21935293 0.122161515
-0.0014572542 0.2996852 0.0018356894 -0.5253518 -0.086329386 -0.442314 -0.0062202127 0.10566873
-0.014130338 0.25944328 0.306186 0.30520505 0.057959627 -0.17539011 -0.08618023 -0.04510043
0.020008212 -0.69182134 0.09525705 0.17443877 0.13152197 -0.35147923 -0.067741826 -0.14505117
0.07326743 0.084858276 -0.21177542 0.2897624 0.3047818 -0.018769523 -0.32430384 0.23685332
0.16803807 -0.06479895 0.15345512 0.041803718 0.24274276 -0.08212425 0.0473231 -0.3225021
0.013305227 -0.15384246 -0.061963987 -0.15338401 -0.03322447 -0.13814004 0.18044673 -0.015216113
-0.1448863 0.31479174 0.18380712 0.25138316 -0.41162056 0.16385156 -0.27970403 0.054078676
0.28466836 0.024061428 -0.13038886 0.3395552 0.055917684 0.109418616 -0.1011266 0.23826182
-0.07189417 -0.0491493 -0.28593653 0.123112015 0.4984727 0.19635676 0.05782899 -0.3830079
0.2333075 -0.19514489 -0.13483676 0.2015178 -0.2090926 -0.23615384 -0.03829945 0.24381083
0.19147007 0.15701613 -0.0005140559 0.22257355 -0.057374194 0.17540652 -0.009069748 -0.053627156
0.07431503 0.16528587 0.06336358 -0.08418438 0.4022728 -0.024546761 0.087491244 -0.44054094
0.13639241 0.39944303 0.109824605 -0.2196385 0.13801487 0.019232534 0.05630915 -0.0022300654
-0.09974324 -0.32703042 0.11756647 -0.3999343 -0.30903715 0.38323435 0.16286078 -0.12153091
0.21819347 -0.16955931 -0.0097550545 -0.004202846 -0.2542721 -0.09760342 0.27216834 -0.5620266
0.11301165 0.19739193 -0.08098465 -0.17286503 -0.3603886 -0.3789424 -0.1535771 -0.22032897
-0.5565839 -0.014276887 0.332252 0.16179389 0.33968258 0.4361342 0.13966 0.23291403
0.5046558 -0.28821334 0.41192037 -0.06559607 0.1492708 -0.22003986 0.033431843 0.15077163
-0.34766692 -0.24936906 -0.08043706 -0.20273037 -0.2929732 0.2110126 -0.11081828 0.034948703
-0.3413073 0.061932933 -0.2374743 0.21682602 -0.27170038 0.01962119 0.0755235 -0.17027073
0.024935953 0.22896202 -0.16761594 -0.07361079 -0.23362876 -0.19080417 -0.1909748 -0.08231828
-0.032756846 -0.1437706 0.11021492 0.41357338 -0.14947324 0.12522978 -0.047041196 0.09587333

fc2.bias f4 [256]
00000000: 1fbe 6dbe 9b0d 5abe 8ca3 ecbe 120a f1bd
00000010: 9a77 97be 63a8 a9bd 701c a2be 9f94 7ebe
00000020: 2b73 70be 6232 97be 541a 4b3c 2b4f 58bd
00000030: c2fe 33be 54b2 adbd 6123 90bd a678 94be
00000040: 8d87 33be 667f ddbd f5c4 f4bd ca09 fdbd
00000050: f526 cfbe 55c8 4ebe 9511 85bd ac45 9dbe
00000060: 6295 9cbe 25d1 f3bd dc53 13be fae7 27be
00000070: a5d3 68be 5522 9dbd 12ca 9bbe aa46 59bd
00000080: b045 80be e3bd acbe 0f7d e7bd 65a9 92bd
00000090: 9011 3ebe 439f 00be 702c 17be 12ac 4dbe
000000a0: 7308 83be a69b 82bd 80ba 04be 34c3 013e
000000b0: 9301 a9be bab2 d8bd a070 7dbe 9456 9fbd
000000c0: 4935 90bb d4b2 1bbe 2027 87be 90ca 34be
000000d0: c83c 38be 05c9 33bd 3d54 ffbd 6fa3 03bc
000000e0: 1e6f 1a3e c4b1 48bd dc29 37be 2047 01bd
000000f0: 9d21 9bbd 7fac ffbc cd38 57be 8e0b cebe
00000100: 243c 58be b710 a3bc fda3 97be 3dbc 09bf
00000110: b0c3 9dbd 57db c7bd dbcf 04be a819 fdbd
00000120: 67a2 4bbe c859 21be 1781 05be 0a69 febe
00000130: d29f 46bd 9ca3 0fbe 6f4b 5ebe 3e15 d3bd
00000140: 5a30 b6bd a151 b83d 4c0a 9fbe 542c 23be
00000150: aece 7cbe dc2b 02be a938 aebd 5486 babd
00000160: e82b a9be 6746 c1be e9fb 88bd 7f06 c0be
00000170: 958e 83be 54fd 8fbe 4954 f1bd a4b1 f5bd
00000180: 463a 94be e648 14be eedd 19be 27ec 92be
00000190: 1659 d4bd ddf9 cbbe b0b3 30be 7212 27be
000001a0: 6e7a a3be 4810 26be 5ab6 24be 3edf 3fbe
000001b0: 12e6 28be f51b 51bd 67f0 16be b320 d9bd
000001c0: 00ec 18be c372 a53d 28cc 9fbe 41c9 a8be
000001d0: 78a7 05be d22a 1abe 233d 28be 4971 69be
000001e0: f272 3abe 6cf4 0cbd f411 a6be 8879 93be
000001f0: 1062 3ebe 6468 1abe 33f0 af3d d069 36be
00000200: cb40 a2be 358d a63c bc2d 82bb ba7c 073e
00000210: 6608 dbbe 7b4e f0bd 2a63 94bb ea3a e13c
00000220: 5ed9 79be 56ab aabd 8948 70bd 9fd9 82be
00000230: 8710 89be 152e 24bd 4ab4 50be f7be 383d
00000240: 6593 19be c2a3 0bbe 9184 93be 40e4 8bbe
00000250: 38a9 16be 1839 42be 4f2b 03be 61f4 ebbd
00000260: 1131 1bbe c129 69be 4ff3 85bd 7715 c6bd
00000270: aad3 69bd 2408 4ebe 7707 2dbe c9c4 c9bd
00000280: a280 663d 2471 8abe 3e5e 70be 9d66 2cbe
00000290: 9453 46be 2d7c 0fbe 0ead 3bbe 9e17 62bd
000002a0: 6765 2d3c 5d85 3dbd 6235 acbe 481b 20be
000002b0: daab 4cbe 7aaa 61be 0d11 adbd b285 13be
000002c0: 4630 7f3d ed1e babe f748 00be 4f27 95be
000002d0: 79aa 58bd 405f 65be a9ab d5bd 4e95 01be
000002e0: 9454 d8be 4372 a3bd 176e 96be e0b2 febd
000002f0: 1082 b3be 0155 dbbd b494 92be db3c 53be
00000300: d5be e0be 63fb a6be 2bfe 303d d294 c1bc
00000310: 8518 f03c e323 c3bd 0adc 06be f5ea 89be
00000320: 567b 1abe e34d 5dbe 06fa 6bbe 345b 06bd
00000330: 23bc f8bd abf2 1abe 4e43 3ebe 779a 4abe
00000340: 7ee1 85bd 0857 8cbe e190 77be 15b7 1abe
00000350: 7bf4 4dbd da09 55be 93f3 4abe 5fca 00be
00000360: 154f 88be 80bf eb3c f79e 2bbe a455 8cbe
00000370: bb55 89bc 8e02 98be dcbd a3bd 8218 3abe
00000380: 6f03 c7be 220e 233c fb46 7abe 6b6f 3ebe
00000390: e25f 8dba 942c 03bd 80d3 0e3d a56f 49be
000003a0: 63ee 0abe 7916 48be 8805 71be b4a3 87be
000003b0: 2844 af3c 449e 1fbe 0430 a7be 7c20 19be
000003c0: 7afd 40be ec62 31be 53ff 77be 7379 6dbe
000003d0: d57c 063e 466d 67be 9500 91be 4177 9bbe
000003e0: 5752 49bd 9517 bcbd 071e 75be d8ae f93d
000003f0: a362 a7be a42f 1ebe ec19 a4be 88e8 29be
-0.23217057 -0.21294253 -0.46218526 -0.11769499 -0.29583436 -0.0828407 -0.3166232 -0.24861382
-0.23481433 -0.29530627 0.012396414 -0.052809875 -0.17577651 -0.08481279 -0.07037998 -0.28998297
-0.17532177 -0.10815315 -0.11951629 -0.12355383 -0.4045941 -0.20193608 -0.06497494 -0.30717218
-0.3058272 -0.119051255 -0.14387459 -0.16397086 -0.22736986 -0.07672564 -0.30427605 -0.053045906
-0.25053167 -0.33738622 -0.1130315 -0.07161216 -0.18561387 -0.12560754 -0.14763045 -0.20085171
-0.25592384 -0.06377344 -0.12961769 0.1267212 -0.33009014 -0.105809644 -0.24749994 -0.07780185
-0.0044008833 -0.15204936 -0.26397038 -0.17655396 -0.17991936 -0.04389288 -0.12467239 -0.008034571
0.1508145 -0.048997656 -0.17887062 -0.03156197 -0.075747706 -0.031210182 -0.21017762 -0.4024319
-0.21116692 -0.019905431 -0.296173 -0.53802854 -0.0770334 -0.09758633 -0.12969916 -0.12358409
-0.1988617 -0.15756905 -0.13037525 -0.49689513 -0.04849226 -0.14027256 -0.21708463 -0.10306786
-0.08895941 0.089999445 -0.31062543 -0.15934879 -0.24688217 -0.12712044 -0.08506901 -0.09107652
-0.3304131 -0.37749025 -0.06688673 -0.37504956 -0.2569472 -0.28122962 -0.11783654 -0.11996773
-0.2895071 -0.14480934 -0.15026066 -0.28695795 -0.10368554 -0.39839068 -0.17256045 -0.1631563
-0.31929344 -0.16217148 -0.16085187 -0.18737504 -0.16494015 -0.051052053 -0.14740144 -0.1060194
-0.14933777 0.0807853 -0.31210446 -0.32966045 -0.13052166 -0.15055397 -0.16429572 -0.22797121
-0.1820791 -0.034412786 -0.32435572 -0.28803658 -0.18592095 -0.15078884 0.08590736 -0.17813802
-0.31690058 0.020331005 -0.003972737 0.13231173 -0.42779845 -0.11733719 -0.004528423 0.027493913
-0.24399325 -0.08333461 -0.058662925 -0.25556657 -0.26770422 -0.04008301 -0.20381275 0.045103993
-0.14997633 -0.13636687 -0.28812078 -0.27322578 -0.1471299 -0.18967092 -0.1280949 -0.11521221
-0.15155436 -0.22769834 -0.06540548 -0.09672063 -0.057086624 -0.20120293 -0.16897379 -0.09851987
0.056275018 -0.27039444 -0.2347345 -0.16836019 -0.1936782 -0.14012213 -0.18327734 -0.055198304
0.010583258 -0.046269763 -0.33634478 -0.15635407 -0.19987431 -0.22037688 -0.08450518 -0.1440647
0.062301897 -0.3635172 -0.12527834 -0.29131553 -0.05289695 -0.22399616 -0.10433132 -0.12654611
-0.42252028 -0.07980778 -0.29380867 -0.124364614 -0.35060167 -0.107095726 -0.28629076 -0.20628683
-0.43895593 -0.32613668 0.043211143 -0.023630533 0.029308567 -0.09528329 -0.13169876 -0.2693707
-0.15086111 -0.21611743 -0.23044595 -0.03280182 -0.12145259 -0.15131633 -0.18580362 -0.19785486
-0.0653715 -0.2741015 -0.2417636 -0.15108903 -0.050281983 -0.2080454 -0.19819479 -0.12577198
-0.26622835 0.028777838 -0.16759859 -0.2740909 -0.016764512 -0.2968945 -0.07995197 -0.18173411
-0.38869807 0.0099521 -0.2444114 -0.1859719 -0.0010786022 -0.032024935 0.03486967 -0.19671495
-0.135675 -0.19539823 -0.23537266 -0.26492083 0.021394804 -0.15587717 -0.3265382 -0.14953798
-0.18846694 -0.17322892 -0.24218492 -0.2319086 0.13133557 -0.22600278 -0.28320757 -0.3036442
-0.04915079 -0.091841854 -0.23937236 0.12191552 -0.3269244 -0.15447861 -0.32051027 -0.1659261

fc3.weight f4 [4, 256]
00000000: bf59 9b3e fb38 ea3e a839 9bbe 08ed a1be
00000010: 268b 44bf a544 1a3b 9abf d7bd 769e 27be
00000020: fa92 8b3f 60d9 3cbf e9e0 d43e 8b3a 6bbe
00000030: 44df 77be 8b79 2f3e 139a d43e 2751 a43e
00000040: 1c45 c6be 02d0 33bf 0090 c1ba 3991 693f
00000050: dd5e 193f 5a7e a73e ccfe 67be e77f 4d3d
00000060: 0344 8fbf c7eb 97bd 1f49 0fbf cfb4 633f
00000070: c3f3 163f d45f e83d a413 1f3f bc13 aebe
00000080: 7446 e7be 2645 3d3f ec77 40be 91b5 793f
00000090: 2b99 fb3e 6f29 2dbf bca4 ac3e 2fa2 43bf
000000a0: b9cf 653e bd78 76bf 29e5 823e 0e30 33bf
000000b0: a602 9f3f 0770 623e d2f1 94bf 8346 c63e
000000c0: 8baa 8ebe 2fc9 1bbf 1c59 b53e 7947 c53e
000000d0: 7e26 1cbf f3b2 6bbe 72c0 28be fa2a d43d
000000e0: 4b32 293e 4ca8 293f 37ce 16bf f820 82bf
000000f0: fef4 47bf 9302 75be 1de5 8bbd 62b2 79bf
00000100: 42c6 2abf 27b9 f53d e8fd 5f3f 83c2 8c3e
00000110: 9250 443c 37b1 293e 94fc 703f 3a53 c53e
00000120: bc00 a83e 3c2b 10bd 0b74 283e 7811 9bbe
00000130: c123 573f c0eb 243f d74d bbbe 575e 8b3f
00000140: 53ee 54bf b321 2abf adfb a7bd ee44 81be
00000150: b4e2 cfbe e26f 35bf e3ab 22bf 5d94 91be
00000160: 85ff 8d3e b44c 83bd 9b47 c33e acfa a9bd
00000170: fa01 a93e 228f 6a3f b36f 323f 144f 56be
00000180: 3a5f a63e 95be ae3e b3d2 763f 4f77 e83e
00000190: 6238 80bf ed85 bd3e d352 143f 06d4 da3d
000001a0: 8095 863f a572 c2be 0d1d 113f a395 78bd
000001b0: 77fd 09bf 9fe6 e3ba e3aa 003f c9ed 9fbc
000001c0: 35fd 013e da34 443b 4486 983e 417c f53e
000001d0: 770b 6ebf 0b1a afbc 3485 77be b62b 4f3e
000001e0: 0d15 803d 0438 8c3c cf8f 64bf 93b2 2b3f
000001f0: 23b0 35bf 5715 df3e 06b7 15bf 0131 1d3f
00000200: c2a0 013f d87d 5b3e d130 8cbe 27e1 01bf
00000210: 78d8 36bc 1446 5f3d ad18 913e 77a3 20bf
00000220: 3a57 b63e ec99 34bc a546 56be a042 dbbe
00000230: 07c1 41be 5be2 1cbf 76d4 c23c aa3a 44bf
00000240: 88f1 b3be fdfd 383d dfbd 053f 59fd ab3e
00000250: c964 3d3f ab7b 56be fc5e 54bf 3cf7 16be
00000260: 2ed6 cf3e 94c3 253f 984b 013f 06a1 ff3e
00000270: 23df ee3d 87e6 3abe b7db c53e 4f7c 9ebe
00000280: f255 8abc 3ce0 fcbe 7ac8 b9be a3d8 f23e
00000290: d31a 713e 2fb3 d53e a917 813e fb9d 353f
000002a0: c1db 24bf 3a19 a83e bf0d debd 363c da3d
000002b0: 660a e43b 864f 0f3e dd66 89bf daf5 17be
000002c0: 5028 93be 16f2 bc3e f27d 553f ed40 3e3d
000002d0: c13a 883e c56f 37bf 5ab7 82bd 889b 76be
000002e0: 8230 3ebf 915c e33e 3e9e c2be 4eb6 ef3e
000002f0: 4ab0 773f cb20 59bf c58d e8be 217d 573f
00000300: 4778 263e 1512 7ebd 8b7b 0e3f 58c9 823e
00000310: 3b5a c33e 4fb1 5bbf 1a00 663e dc4e 313f
00000320: 9f4f 19bb 24b7 843e 233f 83bf a587 c1be
00000330: f40a 4f3f 716c b43d c264 3ebe 7d59 31bf
00000340: 151b ddbe 51c5 5fbf bf8a fdbe b10e 4b3e
00000350: 47f1 afbe 8669 1abf 0045 7abf 1a3e 40bd
00000360: 8919 cfbc dc11 303e cf47 2ebf bb53 53ba
00000370: 45bc f7be 28e5 3f3c c806 333e a3c8 823f
00000380: d663 f93e e39f 88bd 2c28 46bf 41d7 c13e
00000390: 5978 133f d1e3 ed3e 8074 a5be 1603 c13d
000003a0: 8c50 323f 1c99 573e f40b 813e d58d 583f
000003b0: 99dd 34bf 4bd3 283f 6f20 2a3f 58fd 56be
000003c0: 7392 003f 85e0 ea3e 3f98 03be bc96 0abe
000003d0: aba9 c03e ab50 acbc fe8a 29bf 629d a4be
000003e0: 9117 84be 21a3 a4bf 8f1d 4fbe caeb 68bf
000003f0: e2d0 28bf 6437 923f 22b9 623f 4df5 e2be
0.30341908 0.45746598 -0.30317426 -0.31626153 -0.76774824 0.002353945 -0.10534592 -0.16369042
1.0904229 -0.7376919 0.41577843 -0.22971551 -0.24206263 0.17136209 0.415238 0.32093164
-0.387246 -0.7023927 -0.0014767647 0.9123722 0.59910375 0.32713586 -0.22655791 0.050170805
-1.119263 -0.07418018 -0.5597095 0.88947767 0.589657 0.11346403 0.62139344 -0.3399943
-0.4517094 0.7393364 -0.18795747 0.97542673 0.49140295 -0.6764135 0.33719432 -0.7641935
0.22442521 -0.9627798 0.2556546 -0.699952 1.2422683 0.22113048 -1.1636298 0.3872567
-0.2786449 -0.60853857 0.35419548 0.38531092 -0.60996234 -0.23017482 -0.16479662 0.1035976
0.16523091 0.66272426 -0.5890841 -1.0166311 -0.78108203 -0.23926763 -0.06830809 -0.97537816
-0.6670877 0.11998206 0.87496805 0.2749215 0.0119821 0.16571508 0.94135404 0.3854006
0.3281306 -0.03519748 0.16450517 -0.30286765 0.8403893 0.64422226 -0.36582825 1.0888165
-0.83176154 -0.6645767 -0.082023 -0.25247902 -0.40602648 -0.70873845 -0.6354353 -0.28433505
0.27734008 -0.06411114 0.38140568 -0.08299765 0.3300932 0.91624653 0.6970169 -0.20928603
0.32494527 0.34129778 0.9641525 0.45403525 -1.0017207 0.3701624 0.5793888 0.106849715
1.0514374 -0.37978092 0.5668495 -0.06068958 -0.5390238 -0.0017387456 0.5026075 -0.019522564
0.12694247 0.0029938729 0.29789937 0.4794636 -0.92986244 -0.021374723 -0.24171907 0.20231518
0.06254015 0.017116554 -0.89281934 0.6706936 -0.7097189 0.43570969 -0.58482397 0.614029
0.5063592 0.21434724 -0.27380994 -0.5073418 -0.011160009 0.05451019 0.2833914 -0.6274943
0.35613424 -0.011023026 -0.20925386 -0.42824268 -0.1892129 -0.6128289 0.02378295 -0.76652014
-0.3514521 0.045164097 0.52242845 0.33591726 0.7398191 -0.20945613 -0.82957435 -0.1474275
0.40593094 0.64751554 0.5050597 0.4992754 0.11663654 -0.18252002 0.38644192 -0.30954215
-0.016886685 -0.49389827 -0.36285764 0.47430906 0.23545389 0.4173827 0.25213364 0.70944184
-0.6439782 0.32831746 -0.108424656 0.106560156 0.0069592474 0.1399518 -1.0734516 -0.14839879
-0.28741693 0.36903447 0.833953 0.046448637 0.26607326 -0.7165492 -0.06382628 -0.24082768
-0.7429277 0.4440656 -0.38011354 0.46818775 0.9675337 -0.84815663 -0.45420662 0.84175307
0.1625682 -0.062028963 0.5565726 0.25544238 0.38154778 -0.85817426 0.22460976 0.69260955
-0.0023393405 0.25920975 -1.0253643 -0.377988 0.8087609 0.08809746 -0.18593124 -0.69277173
-0.43184724 -0.87410456 -0.49519917 0.19829823 -0.34363768 -0.60317266 -0.97761536 -0.046934225
-0.02528073 0.17194313 -0.6807832 -0.0008061488 -0.48385826 0.01171235 0.17483056 1.021748
0.4870898 -0.06671121 -0.7740505 0.37859538 0.5760551 0.46462873 -0.32315445 0.09424417
0.69654155 0.210545 0.25204432 0.8459142 -0.7065063 0.6594741 0.6645574 -0.2099508
0.50223464 0.4587442 -0.12851046 -0.13534063 0.37629446 -0.02103456 -0.6622771 -0.32151324
-0.2579923 -1.2862283 -0.2022612 -0.90984786 -0.6594373 1.1423154 0.8856374 -0.44327775

fc3.bias f4 [4]
00000000: 6049 6cbd 9e48 86bd 71b8 b5bb eb94 453c
-0.057687163 -0.065568194 -0.005545669 0.012059431

bn.weight f4 [256]
00000000: f20d 773f c318 f53e fe4b bb3f 3bb4 4b3f
00000010: d96f 823f 04da a23f afdd 703f 99fb 833f
00000020: d88e bd3f caa2 903f 8d4e 103f ed18 6c3f
00000030: 8c25 7a3f 5ab5 b13f e362 aa3f 80bf 6d3f
00000040: 2f75 7f3f a39e 9a3f 4549 a83f 619d 5d3f
00000050: 44d8 863f 0797 483f b751 763f ae82 8c3f
00000060: 918c b03f aee2 873f 3123 573f 777e 203f
00000070: 501f 9f3f 5efa 563f 70e3 2b3f 95d5 a63f
00000080: 8a84 753f 8cb0 c23f 7e62 963f 6c66 72bf
00000090: 4349 a73f 21fe b43f ce3b 433f bbf4 853f
000000a0: f7f7 a13f 43c0 323f f8a8 863f ec6b 7b3f
000000b0: 8c9f 6c3f 691a 473f c4ad 953f 52ef 3a3f
000000c0: e3d7 893f b23a 783f ea5e ab3f c440 5b3f
000000d0: f193 a93f 036b b33f d4e9 a23f 058d 8c3f
000000e0: ba15 833f aee2 673f 6bc4 9e3f 6a79 363f
000000f0: 4bc2 523f 0956 b03f 6db2 6f3f 3fbc 7f3f
00000100: 1078 863f 39a1 473f d60b 533f ecfd 6c3f
00000110: 0744 603f c49d 793f 6e75 903f 4064 973f
00000120: 0eff 2a3f 496b 203f 6153 ec3f 1b8c 543f
00000130: f510 7f3f 56b9 753f 1a89 823f d7ba 7d3f
00000140: bf1e 583f 4998 e33f aece 923f 49db 813f
00000150: 76fa ea3e 7b74 af3f 718e a73f b74e ae3f
00000160: b1f1 3c3f 564a 723f dc7c 5d3f abae a43f
00000170: 5a0f 953f 35de 933f 2243 663f 1f47 5b3f
00000180: aba5 a13f 16c3 b83f 673d 823f 4fb6 813f
00000190: 60fb ab3f 5959 0340 5012 b53f fcc1 463f
000001a0: e8e2 813f 0c6f 713f ca43 573f ba3b 943f
000001b0: 4650 3c3f e2ae 4e3f 4d73 af3f ad0c b33f
000001c0: 3c75 2f3f c169 873f d263 323f 336b cc3f
000001d0: b380 9f3f 4b76 713f 4285 b23f 7d99 a33f
000001e0: be73 2e3f cfd8 2e3f 66d2 4c3f addd 4e3f
000001f0: cab4 a63f 7730 793f 0403 8a3f 316a 6c3f
00000200: f129 4d3f 250c 1e3f 4097 bd3f d492 bf3f
00000210: b09d 8e3f 5616 963f cf20 db3f f0c0 753f
00000220: 51e5 2d3f a50f 563f 0b55 953f 820c 933f
00000230: 51b4 373f 1c0c 5f3f b441 593f 1eca 493f
00000240: 356c c63f 9dac 923f 081d 0b3f 56e1 9e3f
00000250: 205d dc3f b74a 1f3f a665 af3f b786 5e3f
00000260: 6691 423f eec0 a03f 5d58 613f a011 1c3f
00000270: 94c5 a43f b090 9b3f a31e 2a3f 523b 953f
00000280: b51f 413f 9f64 623f 1d20 ad3f 9291 a93f
00000290: 7e14 d43f 07ba 2c3f ef43 963f 795d 8b3f
000002a0: 7f67 ad3f 9c95 6a3f 76f9 aa3f 365b 593f
000002b0: 328b 843f d990 893f aa84 c33f 80eb 253f
000002c0: d85c a13f 1907 4a3f 1265 9f3f e553 963f
000002d0: 73d9 543f 92d7 893f 8be5 5e3f e9c4 ff3e
000002e0: 7f48 993f c0c4 1e40 95ac 8c3f 1846 08bf
000002f0: 4a24 453f 2fa7 883f b9fa 283f f891 7f3f
00000300: 2e3a 673f 08d7 bf3f 7a2a 803f c48b 823f
00000310: bd1b b03f e5a0 5e3f db20 4c3f e560 e03f
00000320: 742a 6a3f 2501 373f 1893 793f 2e6c 9a3f
00000330: 4593 213f d335 c03f 49db 843f 836d a33f
00000340: bf1b 8a3f aad7 913f 1f1e ac3e baaf c13f
00000350: 7e90 983f 7dff 8c3f 7478 833f 33b9 843f
00000360: a193 c23f 012f ab3f 00e0 7c3f d589 073f
00000370: b308 7d3f 79d4 a73f b7d4 a33f b02f c13f
00000380: d607 263f 0e53 643f f295 943f 5a5b ba3f
00000390: 125b 473f 7ddb 8c3f 471b bc3f 3f39 863f
000003a0: a9d2 733f 28fe 573f 7d54 b73f a3e8 893f
000003b0: 92d2 a43f e098 e73f 9e6b 553f fffa 703f
000003c0: 5fe3 2a3f 1151 1a3f 4735 6abf 470d 583f
000003d0: eb00 b43f 903a 893f 160a 773f 6a68 b03f
000003e0: 7de3 433f 486c 723f e3fd 563f 8406 843f
000003f0: 5682 a73f ecd3 5a3f 8149 a03f 0ccc 5c3f
0.96505654 0.47870454 1.4632566 0.79571885 1.0190383 1.2722783 0.9408826 1.0311157
1.4809217 1.1299679 0.5636986 0.92225534 0.9771354 1.3883469 1.3311428 0.9287033
0.9978818 1.2079662 1.314736 0.86568266 1.0534749 0.7835545 0.96218437 1.097738
1.3792897 1.0616052 0.8403807 0.6269297 1.2431431 0.8397578 0.6714392 1.303393
0.95905364 1.5210128 1.1748807 -0.94687533 1.3069233 1.4140054 0.7626313 1.0465311
1.2653798 0.6982462 1.0520315 0.9821155 0.9243095 0.77774674 1.1693654 0.73021424
1.0769008 0.9696456 1.338834 0.856457 1.3248273 1.4017032 1.2727609 1.0980536
1.0241005 0.9058026 1.2403692 0.71279013 0.8232772 1.3776256 0.9363163 0.99896616
1.050539 0.7798038 0.82439935 0.92574954 0.876038 0.97506356 1.1285837 1.1827469
0.6679543 0.62663704 1.8462945 0.83026284 0.9963525 0.95985925 1.019809 0.9911322
0.84421915 1.7780849 1.1469324 1.0145046 0.45894212 1.3707422 1.3090345 1.3617772
0.7380629 0.9464468 0.86518645 1.2865804 1.164531 1.1552187 0.89946187 0.856554
1.2628683 1.4434536 1.0174989 1.0133761 1.3436089 2.0523283 1.4146214 0.77639747
1.0147371 0.9431007 0.8408781 1.1580727 0.7355999 0.807356 1.3707062 1.3988243
0.6853826 1.0579149 0.69683564 1.5970215 1.2461151 0.94321126 1.3946917 1.2781216
0.6814536 0.68299574 0.8000854 0.80807 1.3023922 0.97339576 1.078217 0.92349535
0.8014212 0.6173728 1.4811783 1.4966683 1.1141872 1.1725566 1.7119387 0.95997524
0.67928034 0.8361762 1.1666578 1.1488192 0.71759516 0.8712785 0.8486588 0.7882403
1.5501772 1.1458927 0.54341173 1.2412517 1.721592 0.6222338 1.3702896 0.8692431
0.7600311 1.2558877 0.88025457 0.60964394 1.2872796 1.215353 0.66453 1.1658728
0.75439006 0.88434786 1.3525425 1.324755 1.6568754 0.67471355 1.1739482 1.08879
1.354721 0.91634536 1.335738 0.849048 1.0354979 1.0747329 1.5274861 0.6481247
1.2606459 0.7891708 1.2452719 1.1744353 0.831443 1.0768912 0.87069005 0.49954918
1.1975249 2.4807587 1.0990168 -0.53231955 0.770085 1.067602 0.6600757 0.99832106
0.9032315 1.4987497 1.0012963 1.0198903 1.3758465 0.86964256 0.79737633 1.752957
0.9147103 0.7148612 0.9749007 1.2064264 0.6311534 1.5016426 1.037942 1.2767795
1.0789717 1.139394 0.3361673 1.5131752 1.1919096 1.1015469 1.0271134 1.0369018
1.5201303 1.337372 0.98779297 0.5294469 0.988414 1.3111717 1.279929 1.5092678
0.64855707 0.8918923 1.160826 1.4559128 0.7787334 1.1004483 1.4695824 1.048622
0.95243317 0.84372187 1.4322659 1.077412 1.2876761 1.8093529 0.83367336 0.9413299
0.6675319 0.6027995 -0.91487545 0.8439526 1.406278 1.0720997 0.96499765 1.3781865
0.76518995 0.94696474 0.8398115 1.0314488 1.308665 0.8547962 1.2522432 0.8624885

bn.bias f4 [256]
00000000: b58d ef3d 260d fcbd 6d87 0d3f f0f4 8c3e
00000010: 7ff2 f9be f929 88ba 1708 fdbe fd45 6f3e
00000020: 9f1f cd3e 7065 023e dda8 08bf 758a d2bd
00000030: 83f4 4c3d 1587 09be 0e2e d03c ce9d 973e
00000040: 1262 8d3e 847f 6ebe 4b22 223f 9701 033e
00000050: 2913 373e 940d dd3e 7362 313e ddb3 afbb
00000060: 864c 733e c614 ebbd 5814 5e3e 5c85 12be
00000070: f52d 45be 5042 173e 1463 bb3e eb58 823e
00000080: 2c3b 10be 2a1b 803e a6b1 35be a66e 12be
00000090: 8a6f 493d e102 02be b66a 973e 8e73 9a3e
000000a0: 8345 ad3e 347e 57bd e902 a33e d8e3 ba3d
000000b0: 51b0 a03e 0be6 ce3d f2e4 3cbe 6375 973e
000000c0: a3fa d33e 3eb4 d63e 9587 d5bc e5e6 473d
000000d0: 51e9 163e 5f90 b53e 99a4 0dbe 6c4e a33e
000000e0: d144 b4bd 2dca e23e 71a8 7ebd cff2 1dbe
000000f0: a626 823e 3f91 623d 7093 fa3d 0ec8 e0bd
00000100: 025b 3b3e bf29 f43e db33 863e 644c 083e
00000110: 113d 2e3e 84c2 383e 2e90 ec3e b861 2abd
00000120: c589 273e acc9 3d3e 6352 073f 75c5 92bd
00000130: e83b 12bd df3c 0a3e e48e 8a3d c354 8d3d
00000140: 5f9c 083f 37a7 503e a1a0 9a3e 1b0b b33e
00000150: aef1 283c 08f9 dc3e 4589 883c 5299 d2bb
00000160: 3f32 943e 8aae 0a3f 6b9f 4a3c 2c1d f7bd
00000170: 3eb3 ad3e 8193 283f ec77 f23c 652c d53d
00000180: eb8b 6f3e 634c 163e 8163 9b3d b520 063e
00000190: 24f8 bd3e ed0a 5a3e 7503 a9be d0e9 2f3d
000001a0: d4b3 2fbe 15a1 a03e 83e4 8d3e cff5 4d3e
000001b0: 2489 67bd a193 62be d231 1fbd 16e8 59bd
000001c0: a84e d2be 0476 14bc a0dd 073f 8432 a63e
000001d0: 4389 903e 4be6 003e a566 083f ebb2 c03e
000001e0: 96df b0bd 5365 cb3d 879c b3be db1e 853d
000001f0: 9e14 cabe 70da c8bd c992 073e b267 963e
00000200: 02f6 073e ab9b 6dbe 0d9c 323e de4a b23e
00000210: 1bd1 4a3e f710 be3d fa13 c83e 969e 783e
00000220: b545 07bf 5364 3c3e d4d0 5fbd 5839 0d3e
00000230: f442 543e 9160 d33e 6861 3d3e 7a99 25be
00000240: 3dc5 fbbc 72be d3bd cc07 083e ffcd 87be
00000250: c38c 80bd 48fc d1be 9911 6e3e 9c03 91bc
00000260: 9092 0c3b 4f33 34bd 6307 a43e 95b8 013f
00000270: 7c08 53be 2f14 353e 1a73 ca3e d209 0c3e
00000280: a4da 95be 7031 15be f87b 05bd 41af 823e
00000290: b042 8dbe 8945 06be 71db 7c3e ff85 633e
000002a0: 5c59 113e 6b3b c23e 574f 8b3c 501f 2e3e
000002b0: c1e7 813e a5e9 f6bd 4e59 8ebe 3479 7c3e
000002c0: e044 a93e c9c8 d4be 2735 8abe 518a f83d
000002d0: e399 1f3e f576 ff3d a22b 273e fee5 7c3e
000002e0: edab 90be 29ff 053e b34d 993d 3b24 0fbe
000002f0: 4782 03be 7f40 edbc 0c78 83bd 5c41 04be
00000300: d2fd 1a3d ec66 4b3e 6250 87bd 7335 dbbd
00000310: af51 753e 92d5 623e e1bd 923e 2e06 653e
00000320: ff1c 983e c066 ee3e cdfa 9f3e 3d89 143f
00000330: ae99 983d 3752 243f 18f5 7c3e 9820 333f
00000340: a756 4e3e 67aa 483e ccc8 afbe 876d 093e
00000350: 1f3f 68be a343 943d e29c 563e 6aea 88be
00000360: 0db9 98be 7f6d 4b3d 5728 a2be 5254 d63f
00000370: 9e62 61be 973a 873d 423c d93e e8ab aebe
00000380: 0d05 96bd d8bc 1a3f 0392 81be b998 fb3d
00000390: 92b1 993e 9177 5d3e caa6 373e 780a f43e
000003a0: c93c a63e 476c a43e e142 ecbd 154c 903d
000003b0: eaf2 dcbd 8586 9e3e 3349 8d3d 1ccf 8ebd
000003c0: f03d e83c a2bc 6e3d ad9c 46bf 6aba 373f
000003d0: a54b e83e f674 f5bd db3d e6be adee 963e
000003e0: 93e0 fc3e 33da f33e e452 df3c 4c18 e53e
000003f0: 2947 c73e 1ee8 e73d 31d6 c73e 86c4 bb3e
0.1169695 -0.12307195 0.5528477 0.27530622 -0.48817822 -0.0010388485 -0.49420235 0.23366542
0.40063187 0.12734008 -0.53382665 -0.10280315 0.050037872 -0.13430436 0.025412586 0.29612583
0.27613884 -0.23290831 0.63333577 0.12793575 0.17878403 0.43174422 0.17322712 -0.0053620175
0.2375966 -0.114785716 0.21687448 -0.14308685 -0.19255812 0.1477139 0.36599028 0.25458464
-0.14085072 0.25020725 -0.17743549 -0.14300022 0.049178638 -0.1269641 0.295736 0.30166286
0.33842096 -0.05261059 0.31838158 0.09125489 0.3138452 0.10102471 -0.1844671 0.29581746
0.41402158 0.4193439 -0.026065627 0.048804183 0.1473744 0.3546171 -0.1383232 0.3189577
-0.08802188 0.44294873 -0.062172357 -0.15424655 0.2542011 0.0553143 0.12235153 -0.109756574
0.18296435 0.476881 0.26211438 0.1331039 0.17015482 0.18042952 0.4620375 -0.041597098
0.16361149 0.18533963 0.5286009 -0.07166568 -0.035701662 0.13499783 0.067655355 0.06900933
0.53363603 0.20376287 0.30200675 0.3496941 0.010311527 0.43158746 0.016667018 -0.0064269686
0.28944585 0.54172575 0.01236711 -0.12066111 0.33925813 0.65850073 0.029598199 0.10408858
0.23393218 0.14677577 0.07587338 0.13098414 0.3710338 0.2129323 -0.3301045 0.04294759
-0.17158443 0.31372896 0.27713403 0.201133 -0.056527272 -0.22126628 -0.03886587 -0.05319985
-0.41075635 -0.00906134 0.5307255 0.32460415 0.28229722 0.1258785 0.53281623 0.37636504
-0.08636396 0.099314354 -0.35080358 0.06500026 -0.39468855 -0.09807289 0.13239588 0.29375988
0.13277438 -0.23203914 0.17442341 0.34822744 0.1980633 0.092805795 0.3907774 0.24279246
-0.5284074 0.18397646 -0.054642513 0.13791406 0.20728666 0.41284612 0.18494189 -0.16171828
-0.030733699 -0.10339059 0.13284224 -0.2652435 -0.06276848 -0.41012788 0.232489 -0.017701916
0.0021449663 -0.043994244 0.32036886 0.50672275 -0.20608705 0.1768348 0.3954094 0.13675621
-0.29268372 -0.1456964 -0.03258893 0.25524333 -0.2758994 -0.13112463 0.24693085 0.22219084
0.14194244 0.37935957 0.017005606 0.17004132 0.25372127 -0.12056283 -0.2780251 0.2465561
0.3306036 -0.41559437 -0.26993677 0.12135757 0.15586047 0.12473861 0.16325238 0.2469711
-0.2825617 0.13085617 0.07485523 -0.13978665 -0.12842666 -0.028961418 -0.064193815 -0.12915558
0.03783972 0.1986348 -0.06607129 -0.10703554 0.23956941 0.22151783 0.2866049 0.22365639
0.29709622 0.46562767 0.31246033 0.5802191 0.07451187 0.6418795 0.24702871 0.6997161
0.20150243 0.19596253 -0.34332883 0.13420688 -0.22680329 0.07239463 0.20958284 -0.26741344
-0.29828683 0.04966497 -0.31671402 1.6744483 -0.22010276 0.06602972 0.42428786 -0.3411553
-0.07325182 0.604444 -0.2530671 0.12284989 0.30018288 0.21627642 0.17934719 0.47664237
0.3246825 0.3211386 -0.11536194 0.070457615 -0.1078852 0.30962005 0.06898727 -0.06973097
0.028349847 0.058285363 -0.7758282 0.7176882 0.45370212 -0.11985199 -0.44969067 0.2947897
0.49390087 0.4762741 0.027261205 0.447451 0.38921478 0.1132357 0.39030603 0.36673373

bn.running_mean f4 [256]
00000000: f039 5b3e fb11 563f 93e9 063d 2eeb 1a3f
00000010: 9c61 a53e ef2c 4d3e 591e 413e bf14 813d
00000020: ebad 253e 3fdc d63e 721b 303e fd14 c43e
00000030: 3a28 eb3d 0760 153e 152b b43d 1d3d 0a3f
00000040: 6b55 803d cb4a 493e a516 9d3e 0757 f73e
00000050: a030 1a3f aec8 153e 80ad 643e b65d 2c3e
00000060: c158 a63d 1af9 8f3e f6af 973d 1fa1 703e
00000070: 3e29 5b3e 06e0 cf3d ba08 513f ba0b 0c40
00000080: 3a7e bd3d a1f8 363e 2d76 e93d 0cb0 c23d
00000090: 1dec 193f c3c9 a83e b14e c03d 36b4 da3d
000000a0: 2c5d d73e 1e05 823d b91a 5a3e f5e0 253e
000000b0: 37ca af3d d175 a13e 5c9a 4b3e 1685 b33e
000000c0: 18cf d63d ef51 223f 2fc4 323e c63b eb3e
000000d0: 2bd2 583f 08c2 943d ce97 6f3d 52d2 883d
000000e0: fd5e 0c3f 0205 e03d 618c 233c ded2 663c
000000f0: 0c42 fc3d cae1 293e b63b 283e b867 fd3d
00000100: ff1f e23d 45e0 343e ec18 b33e 2df8 f43d
00000110: 7125 583e 8ed0 573e cfde 1d3e 518d 963d
00000120: f12f 223f fc88 e73a 75ed 513e 8824 073e
00000130: 4e1f a43f 8818 963e b515 bd3e db22 ac3e
00000140: 7a78 b03e 56aa fa3d 9d68 b53e d5d3 013e
00000150: cc97 313e c047 553f 0233 bb3d ba32 6e3e
00000160: ca69 743e 1048 8d3e c632 993e f39f 893e
00000170: f7fe 0c3f d438 fc3e 3a4b c53d 1659 133e
00000180: 3461 da3e 36df 0b3e 1ede 0c3e fcf1 0a3e
00000190: 2282 7d3d 996e c83e 86e3 673f 2b3b 933e
000001a0: 271c f43e a73c 5c3e e899 c73e 91a0 af3e
000001b0: 6090 483e 6ab5 9d3e b9e2 d03d 50c1 343e
000001c0: 2b09 953d abcb 303e 1182 2a3e 0f12 823d
000001d0: ed42 9b3e c973 253e 655e 803f af2d d13e
000001e0: 904a bf3d 278e 883f ae23 1b3e 27db 0f3f
000001f0: dccc 7a3e f96d 813e 6dfa a43f 8b3d f63d
00000200: dcc0 223f 6966 0340 13b9 923d 06d7 863d
00000210: 1012 973e 289c 363e 2bc0 413e 519d d53e
00000220: f9b0 3b3a 51d0 913e 69c2 343f 5fcb 853d
00000230: 66e9 0c3f b79d 883f aa6f 353e de9a 6e3d
00000240: 49e2 073e fb9d ea3d b73d 9c3a c81f 0b3f
00000250: f574 863e ce3b 2a3f e16b 373e be32 183e
00000260: b70b ee3d bb26 c13d b89c f13e 9a02 f73e
00000270: 13c9 5f3e ac56 083d e22a 973e 66c8 863e
00000280: f1ad 5f3e 772a 863e d973 e23e 3c83 aa3d
00000290: 4091 7e3e 31c0 9d3d 3615 343e 643a e63d
000002a0: c4f3 963e 5a75 6f3e 0253 083e 8ebe 8b3e
000002b0: ed8f dc3d 4471 6e3e c3fa 853e b7fb 5b3f
000002c0: 7212 bc3d 0a89 b03d 088b d63d 03bc b43d
000002d0: b384 843c 6663 113f ae83 f63e 5650 2d3c
000002e0: 7824 033e a690 543e f54f 1f3e 1e8c 3f3d
000002f0: 60e4 1940 147e 953f 010a 043f 47e9 343e
00000300: ea8b 8d3e d12c 7e3f 2961 743e 2cad 143e
00000310: 1371 623e 2a67 143f ed24 343f cd33 793e
00000320: e491 813e ce66 593b 8142 393e 271a 9f3e
00000330: c10e c93e e185 093e caaa dc3e 327e 583e
00000340: 31d4 b93e 977c 263d 9ebc 9c3a fda5 b03d
00000350: 2382 163e f9ab 123e dcc6 b33e da1d e53d
00000360: c916 193d b2c4 0e3f bc28 053e 9422 b13e
00000370: dd1f 9e3e dff7 913e c75e c43e dfb5 1c3e
00000380: 62f6 8a3e 1543 3f3e dd40 943f b618 443e
00000390: 90a1 e03d c74e 303e ddff c93d c6f5 8c3e
000003a0: e76a e23d d969 e23d 26fe a33d 88f1 c23e
000003b0: d37a 6b3e 30f1 6f3d 277d a13d 3cab 2b3f
000003c0: 804e d33d c5e1 173b 3109 6e3e dc0f 4a3f
000003d0: bdf9 613e 7e8b 423f 6314 923e 1c9e 253f
000003e0: d2e3 f23b 1fb8 933e bc3a e93d d374 813d
000003f0: fe92 a63e 8c5a 963e 8dc4 163d f4d7 d63d
0.2140882 0.83621186 0.032937597 0.60515106 0.32301033 0.20036672 0.18859233 0.06302785
0.16179626 0.4196491 0.1719797 0.38297263 0.11482282 0.14587413 0.0879728 0.539995
0.06266292 0.19657438 0.3068134 0.48308584 0.60230446 0.14627334 0.2233181 0.16832623
0.08122397 0.28119737 0.07406609 0.23498963 0.21402451 0.10150151 0.8165394 2.1882157
0.092525914 0.17868282 0.11399493 0.095062345 0.60125905 0.32966432 0.09390009 0.10678904
0.42063272 0.06348632 0.21299256 0.16199096 0.08583491 0.315352 0.19883102 0.35062474
0.10488719 0.6340627 0.1745765 0.4594404 0.8469569 0.07263571 0.05849438 0.066807404
0.5483244 0.10938455 0.009982199 0.014088361 0.12317285 0.16590038 0.16429028 0.123732984
0.11041259 0.17663677 0.3497995 0.11961398 0.21108033 0.21075651 0.15417026 0.07351173
0.633544 0.0017664726 0.20500739 0.1319753 1.2822053 0.2931559 0.36930624 0.33620343
0.34466916 0.1223952 0.35431376 0.12678464 0.17343062 0.83312607 0.09140588 0.23261538
0.2386848 0.27594042 0.2992155 0.26879844 0.55076545 0.49262106 0.09633489 0.14389452
0.42652285 0.13659367 0.13756606 0.13568872 0.061891682 0.3914688 0.9058155 0.2875608
0.4767773 0.21507512 0.3898461 0.3430219 0.19586325 0.3080247 0.10199494 0.17651868
0.07277139 0.17265193 0.16651179 0.06351101 0.30324498 0.1615745 1.0028807 0.40855166
0.093403935 1.0668381 0.1515033 0.56193775 0.2449221 0.25279215 1.2888924 0.12023457
0.6357553 2.0531256 0.07164206 0.06583981 0.29505968 0.17833006 0.18920963 0.41721585
0.0007159855 0.28479245 0.70609146 0.065329306 0.5504364 1.0673131 0.17718378 0.05825316
0.13269915 0.11455914 0.0011920248 0.5434537 0.26261106 0.66497505 0.17912246 0.14863107
0.11623328 0.094312154 0.4718988 0.48244172 0.21854047 0.03328578 0.29524904 0.26324767
0.21843697 0.26204273 0.4422901 0.08325812 0.24860096 0.07702673 0.17586216 0.11241606
0.29482853 0.2338461 0.13312915 0.2729382 0.10769639 0.23285395 0.26167879 0.8593096
0.09183206 0.08619888 0.10475737 0.08824923 0.016176557 0.56792295 0.4814734 0.010578236
0.1280688 0.20758304 0.15557845 0.046764486 2.404564 1.1679101 0.51577765 0.17667113
0.27645808 0.99287134 0.23865189 0.14519185 0.22113447 0.57969916 0.70368844 0.24336167
0.25306618 0.0033172849 0.18091775 0.3107464 0.3926907 0.13429977 0.43099052 0.2114189
0.36294702 0.040646162 0.0011958068 0.0862541 0.1469808 0.14323415 0.35112655 0.11187334
0.037375245 0.55768883 0.1300382 0.34596694 0.30883685 0.28509423 0.3835356 0.15303753
0.271411 0.18677934 1.1582295 0.19150051 0.109683156 0.17217551 0.09863255 0.2753126
0.11055546 0.11055345 0.08007459 0.380749 0.22996072 0.058579624 0.07885199 0.6705816
0.10317707 0.002317534 0.23245694 0.7893045 0.22067924 0.759941 0.2853118 0.6469438
0.007412412 0.2885141 0.11388156 0.063211106 0.3253402 0.29365957 0.03680854 0.104904085
